training_results/training_synergies_results/training_20250607_131503/FCNN.pth (torch, 730343 bytes, 18 tensors)

net.0.weight f4 [512, 4]
000000 77 5d 4d 3e 17 ba 93 3e 94 a3 a8 be c5 90 b4 be
       0.20055185 0.28852913 -0.329373 -0.352667
000010 d8 ab 52 82 9c b9 cc 80 68 dc 55 82 cd 88 45 02
       -1.547768e-37 -1.8801025e-38 -1.5712022e-37 1.4512534e-37
000020 07 93 e6 8c da f6 a7 8c 2d 66 65 0c 7e f8 c7 8b
       -3.55256e-31 -2.5878992e-31 1.7672266e-31 -7.70259e-32
000030 8a 89 fe a5 d5 31 ba a4 e1 79 49 a6 9f a7 1d a5
       -4.4155176e-16 -8.074906e-17 -6.990106e-16 -1.3674372e-16
000040 b8 a7 70 bd 4a 47 12 3e eb 32 c6 be a8 79 37 3d
       -0.0587537 0.14285007 -0.38710722 0.044793755
000050 d2 67 b1 85 5e 64 b6 85 30 fd 84 05 69 5f b2 85
       -1.6683138e-35 -1.7152067e-35 1.2506227e-35 -1.6774088e-35
000060 3d b1 9c 85 9c 6b 97 85 8b 9c a8 85 9f ab 8d 85
       -1.4735277e-35 -1.4239501e-35 -1.5856149e-35 -1.332262e-35
000070 10 a6 1f 81 1c 6c 35 83 f4 62 1c 83 6f fd 9c 83
       -2.9322832e-38 -5.3315223e-37 -4.5957872e-37 -9.227041e-37
000080 9b d3 38 3e f8 0e bc bc 3f a5 18 bc 60 9c a6 bd
       0.18049471 -0.022956356 -0.0093167415 -0.08135295
000090 31 ce 48 3e 9a 9e 10 bd 36 fa b3 3e 65 76 69 3e
       0.19609906 -0.035307504 0.35151833 0.2279907
0000a0 9d be 09 0c df d5 00 8b fe 08 d6 8a 81 62 f7 8a
       1.0611457e-31 -2.4812802e-32 -2.0610833e-32 -2.3822288e-32
0000b0 a0 d1 83 3c 66 b2 aa bb c2 c9 97 3e fa 42 d4 3e
       0.016091168 -0.005209255 0.29646116 0.4145735
0000c0 de d4 08 3d ea e3 c0 3e 36 30 ba be 6f 2b 70 bc
       0.03340613 0.37673885 -0.36364907 -0.014658793
0000d0 9c f0 33 bb 3f de c5 b9 0e d8 06 bf 6b f8 04 bb
       -0.0027456647 -0.00037740354 -0.52673423 -0.002028967
0000e0 39 00 b2 20 77 c5 58 a1 10 78 6d a0 e3 fb 67 a1
       3.015452e-19 -7.344499e-19 -2.0114406e-19 -7.8599214e-19
0000f0 9d d6 8f 04 68 7b 91 03 54 d2 fe 84 dd 5c 26 85
       3.381623e-36 8.550667e-37 -5.990827e-36 -7.822339e-36
000100 d6 7d db 81 28 11 5e 83 4b 17 ab 02 4a 3f 18 82
       -8.062846e-38 -6.525963e-37 2.5139561e-37 -1.1185359e-37
000110 9f 2a 69 3d 0b 2a 6d 3e 1b 3d 97 be f6 67 a0 3e
       0.056925412 0.2316057 -0.29538807 0.31329316
000120 50 b0 39 bd 21 f5 b7 3e 05 42 01 bf 74 c2 95 3d
       -0.04533416 0.35929206 -0.5049136 0.073124796
000130 44 c6 35 3d ff 4a f9 3c 21 e6 0f bf 0e 14 62 3e
       0.044378534 0.030431269 -0.56210524 0.22077963
000140 f1 9d 58 90 fc b0 c7 90 03 1d 68 92 cf aa c0 92
       -4.2720163e-29 -7.876435e-29 -7.324205e-28 -1.2159011e-27
000150 f6 cb 40 bf c7 24 a3 3b ed a0 08 3c 29 77 ab be
       -0.7531122 0.0049787494 0.008339149 -0.3348935
000160 f4 32 49 be d8 27 00 bd c1 a9 f2 3c 34 70 66 be
       -0.19648343 -0.031287998 0.02962196 -0.2250374
000170 b4 1f e8 b9 0b ad 2e 3b 8f 87 ef 3e aa 8c b0 ba
       -0.0004427411 0.0026653435 0.4678311 -0.0013469656
000180 1e 03 f3 3e f7 c1 87 3e 3e 15 99 be 21 cb 7b 3d
       0.47463316 0.2651517 -0.2989902 0.061473016
000190 45 b6 e3 12 16 26 14 94 d5 90 42 94 bd 67 bf 93
       1.4370647e-27 -7.479602e-27 -9.82306e-27 -4.8317472e-27
0001a0 a8 d6 5a 82 37 f6 ac 02 18 01 1a 03 f4 3a 0b 80
       -1.6077714e-37 2.541445e-37 4.525779e-37 -1.031339e-39
0001b0 30 3b 49 85 5c 5b 94 85 bf 8b 58 85 01 66 89 85
       -9.4618456e-36 -1.3951413e-35 -1.01819385e-35 -1.2920888e-35
0001c0 bc 5e 1f bf d9 97 d8 3c 8c 9e 9d bc 6a 4d 1d 3e
       -0.6225393 0.026439594 -0.01924064 0.15361562
0001d0 cb b8 ef 3c f5 05 6f be 27 be 0d bf 66 ff 19 3a
       0.02926292 -0.23342116 -0.55368274 0.0005874544
0001e0 78 f3 f6 bd c7 0e 3d be c6 91 84 be fa 7a b8 3e
       -0.12058157 -0.18462668 -0.25892466 0.36031324
0001f0 40 bc 1c 06 df a0 01 86 d8 4e 46 85 02 04 0f 86
       2.9478643e-35 -2.4380393e-35 -9.3243966e-36 -2.6898255e-35
000200 a4 c7 83 85 82 bb 5e 84 e4 c7 6e 03 93 fc 52 02
       -1.2392517e-35 -2.6182074e-36 7.0171377e-37 1.5500849e-37
000210 46 b5 96 bb 6f 35 ea be 6c ee 92 3d 93 7a 79 3e
       -0.004599246 -0.45743892 0.071743816 0.24363165
000220 10 77 df 81 44 b3 25 81 5f 43 bb 83 a0 2d 60 83
       -8.208811e-38 -3.043433e-38 -1.100634e-36 -6.588006e-37
000230 df 23 d2 3a e7 bf f2 ba 59 b0 0e 3f 1d e2 93 bb
       0.0016032419 -0.0018520326 0.55737835 -0.004513039
000240 02 07 f6 3d 43 a8 b3 3c bc 8f 42 3e d8 b0 8b be
       0.120130554 0.02193082 0.19000143 -0.2728336
000250 bd e9 a7 3e e9 3b 77 3e 5a 10 88 be c3 f6 9e 3e
       0.32795516 0.24143948 -0.26574975 0.3104764
000260 d2 b2 91 85 6d 34 43 04 ac 83 0c 85 24 58 73 85
       -1.3701423e-35 2.2946213e-36 -6.606953e-36 -1.1441994e-35
000270 d5 1a 9c a3 54 59 19 a3 10 25 ec a3 02 43 4d a3
       -1.6924918e-17 -8.3130626e-18 -2.5602868e-17 -1.1127262e-17
000280 49 7b 9e 93 cf af 2a 14 e6 7d be 92 cb e7 91 91
       -4.0006376e-27 8.617479e-27 -1.2021722e-27 -2.301982e-28
000290 d6 c6 ae 09 49 61 d9 0a 48 03 91 09 2d cb 7b 8e
       4.207596e-33 2.0932935e-32 3.4910566e-33 -3.1035964e-30
0002a0 c4 87 a1 bc 9a ca 99 3b 69 1a 0e bf 1a 5b 06 3c
       -0.019718058 0.0046933414 -0.5550905 0.008200431
0002b0 c8 45 af 83 97 17 e3 83 c6 eb 09 84 f3 18 9f 84
       -1.0301597e-36 -1.3347277e-36 -1.6212534e-36 -3.7403633e-36
0002c0 89 aa 14 3e cf 14 ad be 69 01 20 bf 3d c5 49 bd
       0.14518179 -0.33804938 -0.6250215 -0.049260367
0002d0 bb 12 0d 03 67 7a 04 04 ac 13 0f 84 90 1d da 83
       4.1457677e-37 1.557273e-36 -1.6818602e-36 -1.2819676e-36
0002e0 58 fd 23 8d 79 48 51 90 a3 dc 5d 8f c5 3d b0 0f
       -5.0533204e-31 -4.1273813e-29 -1.0938634e-29 1.7378733e-29
0002f0 62 d6 41 39 b4 75 1d 3a 83 5a 12 3f 41 46 cf ba
       0.00018485778 0.0006006614 0.5716936 -0.0015813784
000300 77 d0 00 85 95 68 18 85 81 62 0c 85 03 1d 20 85
       -6.05682e-36 -7.166214e-36 -6.600861e-36 -7.5284925e-36
000310 4b 78 27 3e d4 1f 8a 3d f0 3f 19 bd 3b 46 02 bf
       0.16354482 0.06744352 -0.03741449 -0.50888413
000320 da ff 58 03 7c a0 ba 03 d1 76 d1 83 dd 14 03 84
       6.37704e-37 1.0968943e-36 -1.2311195e-36 -1.5408556e-36
000330 44 10 0a 3d 42 5d f7 3e 89 2e dc bb c7 2f 29 bb
       0.03370692 0.48313338 -0.0067194146 -0.002581583
000340 9e d3 ac 3d 10 63 9d be 31 7d ff 3e e2 1e 5f bc
       0.084388 -0.3073964 0.499002 -0.013618203
000350 44 bd 08 03 ab 37 c0 83 cf 4e ce 83 5e 9d 19 82
       4.0184074e-37 -1.12975265e-36 -1.2125685e-36 -1.1285827e-37
000360 cc a6 b3 06 07 ed 92 86 3d 68 91 06 e9 76 3a 87
       6.75774e-35 -5.5267376e-35 5.46961e-35 -1.4028029e-34
000370 05 18 7b ba 26 5c cf 3a 0c 0d f8 3e fa 90 77 bb
       -0.00095784693 0.0015820309 0.48447454 -0.0037775622
000380 77 40 25 8c 2e 9a a8 8b 13 52 f0 8b 64 a2 f7 8b
       -1.2730537e-31 -6.494323e-32 -9.256813e-32 -9.538528e-32
000390 be 9b 9f 3e ba 67 a1 bc e9 0c b7 3d 00 ca 8c be
       0.3117351 -0.019702781 0.08938009 -0.27497864
0003a0 52 b8 c6 bb 93 75 cc 3e 7c 84 bb be 23 af d3 3d
       -0.006064453 0.39933452 -0.36624515 0.10336139
0003b0 13 34 79 05 99 63 ae 85 a3 90 75 05 99 c9 a1 85
       1.1717488e-35 -1.6399468e-35 1.154641e-35 -1.5214423e-35
0003c0 31 c9 b2 92 c5 c9 0b 92 e2 85 8a 92 2e c9 0c 92
       -1.1282977e-27 -4.4109366e-28 -8.742029e-28 -4.4424184e-28
0003d0 b6 09 37 3e c9 6a b2 be 25 b3 fb be 7c 98 9f 3d
       0.17874798 -0.34847096 -0.49160114 0.07792756
0003e0 f6 08 e0 3d 5a d2 c5 be 3b b9 90 be 83 6c 2e 3e
       0.10939209 -0.38637048 -0.2826632 0.17033581
0003f0 88 83 14 b9 e0 d2 ac 3b 78 f1 41 bf 67 cb 3b bc
       -0.00014163379 0.0052741617 -0.7575908 -0.011462069

net.0.bias f4 [512]
000000 d2 67 bc 3d ad 9b bc 82 9e 06 d9 8c 87 18 a8 a5
       0.0919949 -2.771347e-37 -3.3438126e-31 -2.9159975e-16
000010 74 71 2d 3e 98 ed af 85 42 f7 b0 85 9a 98 a6 83
       0.1693781 -1.6544199e-35 -1.6641789e-35 -9.791639e-37
000020 3c 57 ea bd 36 5a 0a bf aa 3b 88 8c 98 95 f9 be
       -0.1144242 -0.540439 -2.0990027e-31 -0.48746943
000030 61 0c 79 be aa 3b 1f 3e 28 3d 59 a1 18 f3 25 85
       -0.24321128 0.15550104 -7.36034e-19 -7.802912e-36
000040 ce bb 56 83 ea 55 a2 be 9a 2b ae be 95 5f 14 be
       -6.3104537e-37 -0.31706172 -0.3401764 -0.14489587
000050 ff 8f 8d 92 d2 1d 0b 3e 10 90 44 3e be 20 e7 be
       -8.933849e-28 0.13585594 0.1919558 -0.45142168
000060 5b 60 42 be b0 12 27 94 c4 ab 0d 84 67 2e 67 85
       -0.18982069 -8.435031e-27 -1.6653341e-36 -1.08700906e-35
000070 0b a9 32 bd 8b a8 45 3e 43 3b 6e be 4e 90 37 86
       -0.043618243 0.19302575 -0.23264794 -3.4524493e-35
000080 e1 08 b1 85 09 d4 95 ba 60 7a 87 83 35 2d 26 be
       -1.6648262e-35 -0.0011430989 -7.962683e-37 -0.16228183
000090 35 d4 af bd 46 24 c1 be 8b 8f b0 85 b3 41 bc a2
       -0.08585397 -0.37722987 -1.660369e-35 -5.1027064e-18
0000a0 01 58 eb 13 de 45 79 97 e7 6f 4e 3e 51 14 8e 84
       5.940912e-27 -8.0544424e-25 0.20159875 -3.3402697e-36
0000b0 8e 1e 8b 3e 48 dd 13 84 fc 7c 4a 90 79 9d 29 be
       0.2717175 -1.7381374e-36 -3.993376e-29 -0.16563977
0000c0 e3 79 25 85 6d 95 ea 3d c9 2a 07 84 1d d8 89 be
       -7.78065e-36 0.11454282 -1.588882e-36 -0.26922694
0000d0 2e 84 fd bd 0e ef c3 83 cc 1f bb 86 ce e3 0a be
       -0.12378727 -1.1515954e-36 -7.0388303e-35 -0.13563463
0000e0 fa c7 31 90 01 41 64 be 4d 6f 43 bd b2 5a 99 85
       -3.506115e-29 -0.22290422 -0.047713567 -1.4421367e-35
0000f0 db 8a 34 8d 59 f4 77 3e 5b c7 1a 3e 05 6d 84 3e
       -5.5633924e-31 0.24214305 0.1511511 0.25864425
000100 7d 70 b0 85 67 4c da be 07 35 ce bd a4 e3 e5 83
       -1.6592282e-35 -0.42636415 -0.10068708 -1.3511674e-36
000110 1c 0e 7f 86 fd 77 88 bc 8d 5f e8 bc 8c a3 92 84
       -4.7970535e-35 -0.016658777 -0.028365875 -3.447463e-36
000120 69 bb df 8e d8 9b 37 86 56 d8 ec 83 5f b3 3b be
       -5.5154214e-30 -3.453297e-35 -1.3920502e-36 -0.18330143
000130 23 98 da be 06 e9 10 85 e8 dc 0e 93 9f 4a 0e 3e
       -0.42694196 -6.813647e-36 -1.8031835e-27 0.13895653
000140 80 d7 ab bd 14 21 5b be ba 02 15 9b 28 58 8d 84
       -0.08390713 -0.21399337 -1.2325872e-22 -3.32299e-36
000150 24 ad 46 3e f9 13 90 3e ea 99 37 86 99 9e b0 85
       0.19401985 0.28140238 -3.4531553e-35 -1.660922e-35
000160 08 cd 41 3d c7 91 d7 98 ea be 02 8e 61 02 9e be
       0.047314674 -5.5723395e-24 -1.6115659e-30 -0.3086119
000170 c8 4e a9 9f ba 18 27 3e 41 4e a6 88 b2 3c 0a 9b
       -7.1704617e-20 0.16318026 -1.0009159e-33 -1.1434704e-22
000180 28 c8 c9 9d 0e a8 2f 98 14 ba 07 94 0e 95 3a 85
       -5.3411214e-21 -2.2703066e-24 -6.852456e-27 -8.773055e-36
000190 0b b7 b0 85 8b 44 73 90 12 32 20 be 68 09 38 86
       -1.66182e-35 -4.7976104e-29 -0.156441 -3.4613464e-35
0001a0 4e c4 21 85 04 e9 85 83 98 1d e5 97 6c 89 b3 be
       -7.606239e-36 -7.870535e-37 -1.4806249e-24 -0.35065782
0001b0 d2 14 7c 82 d2 22 09 84 92 48 4d 3d 55 12 08 9e
       -1.8520011e-37 -1.6120261e-36 0.050118037 -7.203571e-21
0001c0 7f fe 37 86 4f 5c 8f 9f 90 74 45 be 9c 5b 4f 12
       -3.460545e-35 -6.071557e-20 -0.19282746 6.54306e-28
0001d0 c9 11 d2 be f2 7d 11 84 fa 13 22 05 00 50 01 84
       -0.41029194 -1.71025e-36 7.6208725e-36 -1.5200611e-36
0001e0 57 1d 88 84 54 ce 21 a3 f9 de ce bd ee 0b be 3d
       -3.200039e-36 -8.771519e-18 -0.101011224 0.09279619
0001f0 cb c3 1a 84 00 e7 b0 85 2a b0 2a 3e 5a ff 0a 0d
       -1.8192517e-36 -1.6635816e-35 0.16668764 4.28319e-31
000200 63 1b a0 94 a2 bc a6 83 21 e6 2d be cb dd 21 85
       -1.6166673e-26 -9.799911e-37 -0.16982318 -7.6109206e-36
000210 57 16 25 a2 81 89 24 85 2c 2c bb 86 55 c8 88 9a
       -2.2373496e-18 -7.7364984e-36 -7.0406487e-35 -5.6571936e-23
000220 40 37 8f be 60 5f 92 be 47 ec 3c 87 a5 78 f7 17
       -0.2797184 -0.2858839 -1.4212984e-34 1.5992456e-24
000230 33 13 0c 84 44 a6 66 bc c7 67 b0 85 62 5a 7a be
       -1.6465737e-36 -0.014077727 -1.6589082e-35 -0.24448541
000240 ee 45 09 84 2a b9 8a 83 91 9b 45 bd e0 8a 97 83
       -1.6136383e-36 -8.153423e-37 -0.048244063 -8.9068665e-37
000250 59 6b ca a1 b8 47 3e 83 2e 8b 22 85 af 8c 4a be
       -1.3716467e-18 -5.591831e-37 -7.642767e-36 -0.19780229
000260 f5 ed a5 3d bf 46 0e 3e 9b 17 a6 be 5b f0 2a 8d
       0.08102027 0.13894175 -0.32439885 -5.267461e-31
000270 51 af 03 be d8 f2 3c 87 74 11 2b 83 37 ab 39 a9
       -0.12859847 -1.4214913e-34 -5.027242e-37 -4.1226757e-14
000280 05 4e 6b 3e 55 ba 55 be f0 3f 32 3e 7b 0c 26 85
       0.22978981 -0.20871861 0.17407203 -7.807575e-36
000290 35 db 08 84 86 68 dc 3d 2a be 81 83 35 4c 22 85
       -1.6087378e-36 0.10762124 -7.625598e-37 -7.6312004e-36
0002a0 f9 d9 09 84 20 ab 0e bf 74 81 1f 9c 7a 04 91 84
       -1.620436e-36 -0.55729866 -5.2776e-22 -3.4093447e-36
0002b0 bf 97 94 bc 24 a6 dd 82 6f c3 c8 9e ca fa b4 be
       -0.018138764 -3.2568391e-37 -2.1256653e-20 -0.35347587
0002c0 65 9c a9 3e d9 92 9a 84 9b 96 09 3e 87 5f 22 92
       0.33127132 -3.6340084e-36 0.13436358 -5.1235933e-28
0002d0 96 59 12 84 9a d5 f0 82 9a de f3 88 2d 9c b0 85
       -1.7203353e-36 -3.5387432e-37 -1.4677364e-33 -1.660833e-35
0002e0 de f3 bd be 04 67 3c 96 5a 9c 8a bd 78 d7 f3 91
       -0.37100118 -1.5219025e-25 -0.06768103 -3.8471433e-28
0002f0 7e 0c bb 86 43 37 38 3e c8 c9 53 3e 05 87 0b 8f
       -7.035994e-35 0.1798983 0.20682442 -6.879233e-30
000300 55 0b 1f 3e 6b c5 03 be 23 32 c1 94 be f7 08 82
       0.15531667 -0.12868278 -1.9507795e-26 -1.00628e-37
000310 b2 16 7d 83 1a 98 22 85 b8 bd 0d 3e 8c 2f bb a6
       -7.437607e-37 -7.64514e-36 0.13841903 -1.2988619e-15
000320 f8 fb 23 85 00 df 9b 3e 2b 1a a1 be 3e da 9f be
       -7.7105025e-36 0.30443573 -0.31465277 -0.31221193
000330 0a fb df be e0 bc 87 be 04 11 b0 85 53 60 be a0
       -0.43746215 -0.26511288 -1.6557211e-35 -3.2250994e-19
000340 c0 cf 28 3d de 3f 8d 97 b0 7c 16 3e 5e 58 c7 9d
       0.04121375 -9.128034e-25 0.14696002 -5.276623e-21
000350 79 48 69 be fa cc 0a 95 65 1d 46 be 2c 7d 21 85
       -0.22781552 -2.8030576e-26 -0.1934715 -7.593174e-36
000360 60 bc bf 3d 8e 6a 0d 82 01 d9 06 3e 9d 1b c6 bc
       0.093621016 -1.0389624e-37 0.13168718 -0.024183089
000370 11 3c 46 be 5f 7b ee be 77 9a 49 3e 81 41 9c 3d
       -0.19358851 -0.465785 0.1968783 0.076296814
000380 11 62 25 85 c8 12 1a 9a d1 27 d3 be d8 16 47 be
       -7.776275e-36 -3.1861625e-23 -0.41241315 -0.19442308
000390 09 99 54 3e 59 d4 3d 18 9a dd 8b 84 3a 11 a8 be
       0.20761503 2.4534886e-24 -3.2882252e-36 -0.32825643
0003a0 70 57 bb 86 67 d3 ae be b1 d9 7d 83 29 5e bb 86
       -7.047006e-35 -0.34145662 -7.4599915e-37 -7.047994e-35
0003b0 8e fb 8d 3e 48 fa 31 93 c9 58 34 be d9 49 a0 85
       0.27730983 -2.2463939e-27 -0.17611994 -1.5073455e-35
0003c0 93 de b1 be f5 e4 37 86 65 8e bb bd 24 d9 21 be
       -0.34740123 -3.4586686e-35 -0.09158019 -0.15805489
0003d0 6b 55 f4 83 3d 26 c0 bd da ad a3 be 1c 70 89 be
       -1.4360642e-36 -0.093822934 -0.31968576 -0.26843345
0003e0 9b 72 90 84 cc 08 24 85 b4 16 bb 3e 2d a2 02 bf
       -3.3959486e-36 -7.712859e-36 0.3654076 -0.5102871
0003f0 b0 56 dd 83 36 12 d8 98 17 cd b0 85 72 b1 b0 85
       -1.3009115e-36 -5.585308e-24 -1.6626299e-35 -1.6616144e-35

net.2.weight f4 [512]
000000 7b 62 93 3e 94 f3 34 02 f0 08 5a 8e 46 3f c7 2a
       0.28786072 1.3294215e-37 -2.6874878e-30 3.5393406e-13
000010 54 ec 07 3e 50 51 b0 85 6c 30 b4 05 fb 1b ed 83
       0.13273746 -1.658083e-35 1.6944906e-35 -1.3936032e-36
000020 87 55 7a 3e 14 dd dc 3e 41 c4 d4 0f 0d 2b d7 3e
       0.24446689 0.4313742 2.0980408e-29 0.42025033
000030 5b 6e 96 3e e4 97 6a 3f 18 de 2a a6 9e 9c 29 05
       0.2938107 0.91638017 -5.928159e-16 7.975108e-36
000040 c3 d3 5e 83 6c 0f 27 3e 9a 86 86 3e 7c 77 13 3f
       -6.5483027e-37 0.16314477 0.26274568 0.57604194
000050 4a 44 a9 92 55 34 85 3f e1 c9 17 3e 64 66 c9 3f
       -1.0682234e-27 1.0406595 0.14823104 1.5734372
000060 d7 f9 26 3f f4 0a 46 16 70 7b 11 84 a5 dd af 85
       0.65224975 1.5997769e-25 -1.7101348e-36 -1.653834e-35
000070 94 fa e8 3e 37 43 62 3f 56 c0 ce 3e 3b 0b bb 86
       0.45503676 0.8838381 0.40381116 -7.0358084e-35
000080 5a 5b af 85 17 17 9b 3e 48 dd d4 01 db ac 84 3f
       -1.6490478e-35 0.30291054 7.8194024e-38 1.0365251
000090 cb 85 11 3e 7b 9f 91 3e b3 a9 b0 05 13 91 bf a8
       0.14211194 0.28441986 1.6613298e-35 -2.1268176e-14
0000a0 cc 74 63 15 d7 af bf 0c 8b 85 36 3f c7 bc 97 04
       4.593442e-26 2.953404e-31 0.7129752 3.5673294e-36
0000b0 fa bb 05 3f e6 88 53 03 fc f1 cc 94 37 36 56 3f
       0.52239954 6.216448e-37 -2.0694182e-26 0.83676475
0000c0 d3 5b 13 05 f3 12 81 3e 1c ea b8 03 b8 8c e7 3e
       6.928772e-36 0.2520977 1.0868297e-36 0.45224547
0000d0 6b 27 1b 3f a9 1a f0 83 94 73 59 08 a9 da 18 3f
       0.6060702 -1.4112053e-36 6.5436924e-34 0.5970865
0000e0 64 4a 09 8f 16 70 11 3f fc 36 91 3e f1 c7 a9 85
       -6.7689486e-30 0.56811655 0.28362262 -1.596613e-35
0000f0 9d 9d f7 12 dc b8 c9 3e 3d dd b1 3e 20 a9 94 3f
       1.5626746e-27 0.3939885 0.34739104 1.1614113
000100 e7 6c 37 06 c3 26 94 3e 63 d8 17 3e ed a7 f1 83
       3.4498483e-35 0.28935823 0.14828639 -1.4203261e-36
000110 bc 68 0b 07 d6 73 f4 3c 67 07 1d 3e 40 6e 96 84
       1.0487976e-34 0.029840391 0.15334855 -3.536608e-36
000120 9a 2c d8 12 ba 17 bb 86 02 bc 06 84 77 71 20 3e
       1.3642512e-27 -7.0376445e-35 -1.5837953e-36 0.15668283
000130 c6 16 b9 3e ce 50 28 05 d5 4f 65 96 fb 8d 86 3e
       0.36150187 7.9141635e-36 -1.8523663e-25 0.26280198
000140 94 ab 01 3e bd 46 de 3e c3 07 b7 1e de 98 91 84
       0.12663108 0.43413344 1.9379089e-20 -3.4229723e-36
000150 82 0f ad 3f 96 38 c8 3e 16 28 bb 06 c9 bd af 05
       1.3520358 0.39105672 7.0400483e-35 1.6526637e-35
000160 e7 d7 ee 3e 0a fd 6b 9c b1 d8 f2 10 5f 81 aa 3e
       0.46649095 -7.8082023e-22 9.5786036e-29 0.33301827
000170 fb 24 41 22 2f de 0f 3f ae 79 8f 8b 9a 38 c6 1d
       2.6175955e-18 0.561984 -5.526468e-32 5.246869e-21
000180 42 6c c4 9f 36 d3 43 8b f0 a8 1d 9a e4 b6 24 85
       -8.3188326e-20 -3.771453e-32 -3.2603306e-23 -7.744835e-36
000190 3a 0d b3 05 7c d9 de 14 ff e8 aa 3e e2 54 e7 04
       1.6837938e-35 2.2502054e-26 0.33380887 5.438579e-36
0001a0 3d a6 1b 85 e4 24 7d 83 7e 08 02 1b a5 c6 e9 3e
       -7.318598e-36 -7.4392366e-37 1.0756092e-22 0.45659366
0001b0 62 64 f6 02 21 d6 04 04 43 f2 09 3f d0 75 cd 21
       3.6204068e-37 1.5614849e-36 0.5388529 1.3922525e-18
0001c0 8b 3c bb 06 09 f1 dc 23 89 72 94 3e b1 7f 96 13
       7.043054e-35 2.395453e-17 0.28993633 3.7991237e-27
0001d0 8d 18 f2 3e 25 0d 62 83 d2 61 f1 83 a0 7b 60 83
       0.47284356 -6.643052e-37 -1.4187165e-36 -6.59696e-37
0001e0 22 07 93 84 d8 75 4f 26 e4 08 b3 3e 3b 11 e0 3e
       -3.4566084e-36 7.197726e-16 0.3496772 0.43763146
0001f0 a2 aa 05 04 75 09 36 06 1a 52 51 3f ab 52 1e 0e
       1.5712426e-36 3.4237343e-35 0.817659 1.9514807e-30
000200 b1 ae 5f 98 2c 99 87 82 74 95 90 3e 5d ae 9e 05
       -2.8910271e-24 -1.9924384e-37 0.28239024 1.49223e-35
000210 df 24 b6 a7 60 97 20 85 d8 e4 3b 07 f5 72 c7 1f
       -5.0555123e-15 -7.550967e-36 1.4135568e-34 8.446996e-20
000220 6c 2f be 3e 9f e6 f2 3e 61 fd a0 07 0b eb 26 1a
       0.37145555 0.47441575 2.4223047e-34 3.4517862e-23
000230 9a 86 93 03 78 12 c5 3b f5 5d 36 06 56 60 2a 3f
       8.6707865e-37 0.0060141645 3.4299424e-35 0.66553247
000240 50 d5 2a 83 d6 0c d0 82 f6 33 a0 3e 30 7e 51 00
       -5.020338e-37 -3.057022e-37 0.31289643 7.483943e-39
000250 10 ee c1 28 68 1a 2a 80 46 68 15 05 19 28 7f 3e
       2.1530548e-14 -3.866564e-39 7.025098e-36 0.2491764
000260 26 6a f9 3e 57 08 a7 3f f2 43 6f 3f f7 6b 0d 8f
       0.48713797 1.304942 0.9346305 -6.97263e-30
000270 ce 30 48 3d 3a 89 c7 89 b0 4a e8 81 38 5f 3b 2f
       0.04887467 -4.8036555e-33 -8.533051e-38 1.704138e-10
000280 74 91 08 3f 0c 6f 2f 3f fb b2 18 3e 5d 13 11 05
       0.53346944 0.6852882 0.14912026 6.821424e-36
000290 de 7f 06 04 d6 fe a9 3f a8 bd e3 80 3a 71 18 05
       1.5810338e-36 1.3280895 -2.0914693e-38 7.167802e-36
0002a0 26 d5 48 03 51 ea 1e 3f 51 a2 c2 1d 93 0d 94 84
       5.90194e-37 0.6207629 5.1519204e-21 -3.48071e-36
0002b0 f9 b2 89 3c 67 43 ce 01 a1 d6 1e 24 95 87 ab 3e
       0.016808974 7.5769166e-38 3.4442586e-17 0.33501878
0002c0 2c f9 74 3e 89 54 7d 84 6c 4b cf 3e 80 84 76 95
       0.23923177 -2.9778824e-36 0.4048723 -4.9783828e-26
0002d0 12 4e 05 84 ea 5b ab 81 d7 62 cd 8a 70 97 2a 86
       -1.5669923e-36 -6.294737e-38 -1.9777961e-32 -3.2084705e-35
0002e0 4b 11 cd 3e 9f 51 aa 18 3b 71 78 3e ee 9f f0 93
       0.40052256 4.4026386e-24 0.24261944 -6.074222e-27
0002f0 55 d1 3c 07 79 0d bd 3e e5 f1 a6 3f 5e b0 1a 13
       1.4205065e-34 0.3692434 1.304257 1.9524488e-27
000300 77 f4 db 3e cb b0 1e 3e 29 50 e7 18 17 15 a7 01
       0.4295995 0.15497129 5.979304e-24 6.1376374e-38
000310 07 3e 55 03 af ee 20 05 07 fc a5 3e 20 10 09 2c
       6.266628e-37 7.567003e-36 0.32418844 1.9477822e-12
000320 ac f3 23 05 7a dc 9f 3e ea 0d ae 3e 92 e5 e2 3d
       7.7089786e-36 0.31222898 0.3399499 0.11078943
000330 25 c0 b5 3f 50 a9 8e 3e ab 8d 37 86 6a 1b 93 a5
       1.4199263 0.2786355 -3.4522556e-35 -2.5519012e-16
000340 86 64 b4 3e 34 51 61 98 da c3 59 3e 20 3c 9e 21
       0.35232943 -2.9121566e-24 0.21266118 1.0722411e-18
000350 f2 2f 8c 3e 28 3b 1b 99 b6 ae 31 3f c6 45 26 85
       0.2738033 -8.025259e-24 0.6940721 -7.818098e-36
000360 70 ef d0 3e 24 6b 9c 80 ea 67 f7 3e 21 62 60 3e
       0.40807676 -1.4364772e-38 0.48321468 0.21912433
000370 f1 b7 e3 3e db f5 7e 3f d0 53 c3 3e c3 cc 5f 3f
       0.44476274 0.99593896 0.3814988 0.87421817
000380 20 65 f7 04 46 7d eb 9d 50 a9 63 3f ae 90 56 3e
       5.816229e-36 -6.233351e-21 0.88930225 0.20953628
000390 0a 93 5d 3f 2a 62 56 99 e2 73 60 84 8b 28 10 3f
       0.8655249 -1.1083365e-23 -2.6384284e-36 0.56311864
0003a0 d5 37 87 08 3a 4e 9b 3f 40 99 8d 82 84 e6 b6 89
       8.138143e-34 1.2133248 -2.080605e-37 -4.4031682e-33
0003b0 e2 32 f3 3e cb 63 a9 16 45 a1 de 3e ad 1b b1 85
       0.47499758 2.73664e-25 0.43482414 -1.6655166e-35
0003c0 11 d1 50 3e 0c 36 bb 86 99 8f 91 3e 39 04 7b 3e
       0.20392253 -7.0420997e-35 0.2842987 0.2451333
0003d0 32 b7 09 84 14 a8 40 3e 7e 67 20 3e 7f 81 ae 3e
       -1.6188392e-36 0.18814117 0.15664479 0.34083173
0003e0 0c da 82 84 1d 26 20 05 20 a7 23 3f e1 16 59 3f
       -3.0763098e-36 7.530164e-36 0.6392689 0.84800535
0003f0 eb e2 07 04 c4 a9 48 1a c2 91 b2 85 0a 25 b1 05
       1.597337e-36 4.1496166e-23 -1.6792583e-35 1.6658606e-35

net.2.bias f4 [512]
000000 00 39 a6 bd 02 08 01 b6 6a b6 34 b3 d5 c9 89 b6
       -0.08116341 -1.922716e-06 -4.207542e-08 -4.1064145e-06
000010 06 2c 2c 3d da 48 02 b6 eb a3 6e b4 e1 8c 09 b6
       0.04203417 -1.9413915e-06 -2.222511e-07 -2.0496593e-06
000020 54 af 21 3b cb 71 36 3e e4 ee ff b5 ce 9d 4c 3e
       0.0024671154 0.17816846 -1.9068507e-06 0.19982073
000030 df 17 cb 3d 27 33 a8 3e 6c fd fe b5 d6 d3 04 b6
       0.099166624 0.32851526 -1.899823e-06 -1.9792838e-06
000040 b6 ce 39 b4 b1 a0 5f 3b f8 f1 39 bd 9b dc 9f 3e
       -1.7304669e-07 0.003412288 -0.045396775 0.31222996
000050 17 69 de b5 bb 60 66 ba 10 57 af 3b 89 25 95 3e
       -1.6570874e-06 -0.00087882177 0.005350955 0.291302
000060 72 e7 46 3e cb 1f 0a 36 2b 65 bd b5 c3 f6 41 36
       0.19424227 2.0582108e-06 -1.4111041e-06 2.8902875e-06
000070 47 75 75 be a2 85 85 3e b7 02 99 3e 44 b5 12 b5
       -0.23970519 0.26078516 0.29884884 -5.4653015e-07
000080 ee eb f0 b5 14 69 5e 3d df 00 ec b5 bd dc 50 3e
       -1.7950058e-06 0.05429943 -1.7583624e-06 0.20396705
000090 98 21 5e 3d 2a 03 b1 3d 3d 10 36 36 91 41 96 36
       0.054231256 0.086431816 2.7129565e-06 4.4779813e-06
0000a0 e8 ce d0 b5 fa 6e 82 b6 22 3a 26 3e 80 37 26 36
       -1.5557425e-06 -3.8872213e-06 0.16233113 2.4768233e-06
0000b0 fa c3 4e 3e 65 a0 15 b5 48 7d c5 34 30 b5 41 3e
       0.20191947 -5.574023e-07 3.6785264e-07 0.18916774
0000c0 af e8 70 36 7e 9a 4a bd 44 1f e7 35 6f 45 ba 3e
       3.5898227e-06 -0.04946374 1.7219941e-06 0.363811
0000d0 c0 6c e5 3d 1c b1 c8 b5 5f 49 a0 35 a1 1d be bd
       0.11202383 -1.4952707e-06 1.1942283e-06 -0.09282995
0000e0 8b ae 5a 35 c0 0b 99 3d 0d 23 d7 3c 5e 76 f8 b5
       8.146532e-07 0.07472944 0.02626183 -1.8511889e-06
0000f0 db 8d f7 34 51 a3 27 3e 1d a2 51 3e fd fd 4a 3e
       4.611055e-07 0.16370894 0.20471998 0.19823451
000100 a8 fb 99 34 87 8b d4 3d d1 23 d9 3d 18 c3 6b 33
       2.8681575e-07 0.10378175 0.106025346 5.4892638e-08
000110 0b da 13 35 c7 48 0e ba eb 67 f8 3d 50 f0 09 36
       5.507906e-07 -0.0005427715 0.12129196 2.055447e-06
000120 6d 23 b5 b6 3e 01 91 b5 3d 1b 6a b6 f3 29 91 bd
       -5.3983445e-06 -1.0803703e-06 -3.4884572e-06 -0.07088079
000130 99 af 29 3e 9f 03 a9 36 dc ec b2 35 40 01 1b 3e
       0.16570891 5.037014e-06 1.3330969e-06 0.15137196
000140 68 80 d7 3d 32 ff 88 3d e7 54 04 36 82 6e 37 b6
       0.105225384 0.066893 1.9718952e-06 -2.733345e-06
000150 2c e5 94 3e be 63 c8 3c 2f ac 08 35 fd ff 14 b6
       0.29081094 0.024461623 5.091451e-07 -2.2202723e-06
000160 6e ce a9 3d a6 13 34 35 bf 90 c7 b4 d3 19 26 3e
       0.082913265 6.708382e-07 -3.7171955e-07 0.16220789
000170 bd b7 35 b5 5d d7 71 3e 67 c2 c6 35 f1 35 0a 36
       -6.769513e-07 0.23617311 1.4808728e-06 2.0595e-06
000180 e7 0f a1 b5 98 17 03 36 34 f5 d6 b5 ca ca a8 35
       -1.2000063e-06 1.9534255e-06 -1.6015606e-06 1.2575995e-06
000190 9f 60 1d 36 04 5b 5d 35 41 64 bd bd 7d e7 0e b6
       2.3451064e-06 8.246136e-07 -0.092476375 -2.1294393e-06
0001a0 3a 9b 09 b6 d2 87 f5 b5 f4 e1 86 b6 30 b1 ae 3d
       -2.0504945e-06 -1.8293451e-06 -4.0198156e-06 0.085298896
0001b0 04 c1 00 36 10 b0 0f 36 18 c6 aa 3e aa fe ff 35
       1.9185836e-06 2.1411142e-06 0.3335426 1.9073098e-06
0001c0 03 0b ce b5 4c 50 80 b5 1e 1c 8c 3c 90 e1 42 35
       -1.5351401e-06 -9.560113e-07 0.017103251 7.259887e-07
0001d0 44 58 be 3d bb 6b 03 b6 2a 19 26 37 29 ea fd 35
       0.09294179 -1.9583229e-06 9.90023e-06 1.8918118e-06
0001e0 82 57 97 b5 f6 2f f5 b5 b4 5a 5f 3e a9 77 90 3e
       -1.1275845e-06 -1.8267881e-06 0.21811944 0.28216293
0001f0 bd a4 fd 35 bc f5 3b b6 9d 81 41 3e d3 a1 e0 35
       1.8897914e-06 -2.8008208e-06 0.188971 1.6736398e-06
000200 c5 b8 20 b5 b8 de ed b5 e9 98 12 3e ec 38 f6 b5
       -5.987352e-07 -1.7722696e-06 0.14316143 -1.8344995e-06
000210 54 d0 9f 35 63 f2 03 36 05 54 16 b6 00 0e 8c b5
       1.1907055e-06 1.9661609e-06 -2.2400648e-06 -1.0434887e-06
000220 81 69 50 3d 08 89 ad bd 9f 7f fa b5 bc 56 c2 35
       0.050881866 -0.08473402 -1.8663594e-06 1.4479369e-06
000230 5b 41 3c 36 49 da 68 3a 8c 45 c3 37 00 e5 6b bd
       2.8052225e-06 0.00088826247 2.3278197e-05 -0.05759144
000240 d7 29 30 36 fa 88 0a b6 db df 69 3d 70 52 92 b5
       2.6250398e-06 -2.0643333e-06 0.05709825 -1.090184e-06
000250 27 51 d9 b5 92 05 86 b4 3a 26 d0 35 97 56 75 3e
       -1.6191378e-06 -2.4963498e-07 1.5508333e-06 0.23958813
000260 54 39 c8 bd 49 7e 90 3e 49 ac ea 3d b2 0d 8e 36
       -0.097765595 0.28221348 0.11458642 4.233524e-06
000270 85 4f 15 3c 09 e2 a1 b6 ee a1 ad 36 c6 06 00 36
       0.009113197 -4.824488e-06 5.174653e-06 1.907743e-06
000280 44 df 66 3e cb 21 50 3d bf e1 c0 3d 95 78 6b b5
       0.22546107 0.050813477 0.09418058 -8.771979e-07
000290 c6 9a 1b b6 7b da 98 3d ba 5f e1 b5 91 a4 1b b6
       -2.318689e-06 0.07463547 -1.6791666e-06 -2.319259e-06
0002a0 ba 73 c1 35 8b 67 08 3e 5c a2 fa 35 92 02 89 b6
       1.4413301e-06 0.13320749 1.8673704e-06 -4.0832174e-06
0002b0 cb f1 cb 3a 4e c5 dd 35 56 8e 8f 35 0e 60 0d 3e
       0.0015559731 1.6523206e-06 1.0695755e-06 0.13806173
0002c0 46 af d7 3d ad d9 90 b4 f4 62 72 3e 2b d1 57 35
       0.10531478 -2.698047e-07 0.2367056 8.039812e-07
0002d0 d4 17 cd b5 f9 9e 19 b6 d8 42 50 b6 e9 7b 8e b5
       -1.5280625e-06 -2.289131e-06 -3.1033323e-06 -1.0615887e-06
0002e0 83 5d c3 3d a4 88 b9 35 c7 de 66 3d 31 19 40 b6
       0.0953932 1.3823342e-06 0.0563648 -2.8624893e-06
0002f0 d5 65 80 b5 63 4c 5f 3e 42 a2 93 3e 34 b3 6d 35
       -9.56638e-07 0.21806483 0.2883473 8.8550155e-07
000300 f9 0e 9f 3e b0 4d e7 3d b0 bc 4a 35 30 60 92 35
       0.3106611 0.112941146 7.552544e-07 1.0905842e-06
000310 88 aa ff 35 ed 8e 28 35 16 f8 8b 3d 7a 12 b8 b5
       1.9048612e-06 6.279286e-07 0.06834428 -1.3714446e-06
000320 d4 21 f7 b5 0b 95 0f 3e 99 4a 46 bd f4 54 8b 3d
       -1.8412779e-06 0.14021699 -0.048410986 0.06803313
000330 7a 04 9c bd 53 52 8e 3d fd 05 02 36 31 53 13 b6
       -0.07618041 0.06949296 1.9374995e-06 -2.195313e-06
000340 35 76 83 3d 27 37 d9 b5 e1 46 0f 3e 9f 6c 08 b6
       0.064190306 -1.6183811e-06 0.13991882 -2.0328805e-06
000350 ed 8f ae 3d 88 11 28 b6 41 73 c9 3b a7 c3 82 b6
       0.085235454 -2.5044155e-06 0.0061477725 -3.897079e-06
000360 02 b9 38 3e 78 6d 3b 36 95 88 ad 3e 25 16 2f 3c
       0.18039325 2.792889e-06 0.33893266 0.010686432
000370 3b 4f 85 3e a9 b1 20 3e 43 17 64 3c e5 4b f4 bd
       0.2603701 0.15692772 0.013921562 -0.11928538
000380 27 fb 06 36 bb 7a e9 b5 99 43 b1 3d a2 2f 8d 3d
       2.0113746e-06 -1.7395572e-06 0.08655471 0.06893851
000390 b0 07 65 bc 0e 31 f9 b5 7b 44 06 b6 5d 6b 26 bc
       -0.013978884 -1.8566222e-06 -2.0007417e-06 -0.010157433
0003a0 fe 87 33 b6 60 ab f0 3d 3e 29 c1 33 56 50 10 b5
       -2.6752236e-06 0.11751437 8.994765e-08 -5.3761084e-07
0003b0 73 77 0f 3e 98 f3 29 36 01 a2 d5 bc 92 64 f7 b5
       0.1401041 2.5324753e-06 -0.026078226 -1.8432204e-06
0003c0 5a 2f dc 3c 72 f3 4a b6 87 25 46 3d 1f fa 28 3e
       0.026878048 -3.024205e-06 0.048375633 0.16501664
0003d0 e9 6a 6d 36 01 ab fb 3d 41 6e 98 3c 08 06 be 3d
       3.5377982e-06 0.12288476 0.01860726 0.09278494
0003e0 eb 7d 02 b6 c0 8f 82 36 a5 ae 0d 3e 15 d2 3c 3d
       -1.9444803e-06 3.8910366e-06 0.13836153 0.046098787
0003f0 3f 3d bd 35 d1 43 1c 36 1a e9 09 b6 13 06 38 b6
       1.4099422e-06 2.3285286e-06 -2.0550274e-06 -2.7421672e-06

net.2.running_mean f4 [512]
000000 0e b9 d1 3c 24 18 22 80 e0 a2 c8 89 ee c3 19 a3
       0.025600936 -3.131067e-39 -4.8301416e-33 -8.335636e-18
000010 55 0d c5 3d 12 60 d1 82 53 73 08 83 0e 7b ce 80
       0.096216835 -3.0764932e-37 -4.0099194e-37 -1.8962256e-38
000020 1c 26 ab b9 25 b7 37 3c de 23 30 89 b6 1a 98 3c
       -0.00032644055 0.011213099 -2.1202094e-33 0.018567424
000030 dc d7 f9 39 c5 88 68 3d 35 a4 87 9e f7 5e 3b 82
       0.0004765381 0.05677106 -1.4361595e-20 -1.3765844e-37
000040 39 f2 58 80 dc 4b 45 3b 5d a8 74 bb d0 b1 1d 3c
       -8.168417e-39 0.003010503 -0.0037331798 0.009624913
000050 3d fa c6 8f ea 7c 8c 3c d8 65 6b 3d 72 c8 15 3b
       -1.9620696e-29 0.017149407 0.057470173 0.002285507
000060 e1 66 85 3d cc 29 60 91 c7 31 9b 80 d6 2d cc 82
       0.06513763 -1.7683364e-28 -1.4252359e-38 -3.0001414e-37
000070 b2 79 a9 3c ec d5 8a 3d c5 3b 1c 3c 5a 6c 37 83
       0.020687912 0.067790836 0.009535735 -5.390325e-37
000080 bb b1 8b 82 d8 d9 c2 3d c6 25 b9 80 89 47 16 3e
       -2.0526227e-37 0.09514207 -1.7003117e-38 0.14675726
000090 5b d2 89 3c 13 b2 d5 3c 47 9f c6 82 c4 83 b3 a0
       0.016823938 0.026085889 -2.9184906e-37 -3.0410975e-19
0000a0 06 39 0a 14 f4 ec 1f 94 14 26 a7 3d c5 bf bc 81
       6.9784654e-27 -8.074179e-27 0.0816156 -6.933547e-38
0000b0 2a 1c c7 3d f1 f8 0d 81 5e 6b 1d 8d 81 ca 1b 3e
       0.09722169 -2.6076217e-38 -4.85086e-31 0.15213968
0000c0 20 c0 81 82 93 20 95 3c 06 b9 07 81 e5 8b 64 3d
       -1.906512e-37 0.01820401 -2.4928332e-38 0.055797476
0000d0 23 94 a6 3d aa 69 db 80 14 dd d5 83 af e5 05 3e
       0.081337236 -2.0149879e-38 -1.2569772e-36 0.13075899
0000e0 2a 1c e5 8c 69 02 9b 3a 4c 8c 2c 3d 08 4d 80 82
       -3.5299987e-31 0.001182628 0.042125985 -1.8852123e-37
0000f0 57 3b 60 8f 2c 9d 08 3e df b8 fb 3d 77 3b c8 3d
       -1.1055481e-29 0.13341206 0.12291121 0.09776967
000100 28 9e 99 82 58 1e aa 3b 73 05 d5 3c 0a 74 11 81
       -2.2572107e-37 0.0051916055 0.026003575 -2.6715548e-38
000110 49 53 db 83 fe fd b8 3c eb 6a 93 3c bb fd 85 81
       -1.28907845e-36 0.02258205 0.017995318 -4.922057e-38
000120 52 f4 ae 8b 30 91 86 83 40 77 dc 80 a9 e5 95 3d
       -6.7389974e-32 -7.909146e-37 -2.0246588e-38 0.07319195
000130 94 90 c1 3c 12 6d 2a 82 48 17 d6 8f a5 51 14 3c
       0.02362851 -1.2520929e-37 -2.1110997e-29 0.009052669
000140 13 c8 a1 3d 99 68 9b 3c 35 05 39 99 ec af b3 81
       0.07899489 0.018970774 -9.565327e-24 -6.600665e-38
000150 e4 a9 95 3d bc ca 7e 3d 74 b9 1b 83 05 19 80 82
       0.07307795 0.06220506 -4.5763296e-37 -1.882227e-37
000160 12 32 42 3b de 9f ef 95 67 4b 28 8b 2b 1f 0c 3d
       0.0029631895 -9.678356e-26 -3.241235e-32 0.03420941
000170 c6 7d 11 9d 89 6e 29 3d bb f9 a8 85 49 9b 2e 98
       -1.9255614e-21 0.04136518 -1.589038e-35 -2.2567372e-24
000180 43 c9 5b 9b 0e 64 e1 94 18 cc 72 93 4d e3 03 82
       -1.8180287e-22 -2.2758659e-26 -3.064532e-27 -9.689592e-38
000190 77 91 b0 82 3d 77 50 8e e3 ed 8f 3d 9e 4d f9 82
       -2.5944368e-37 -2.569539e-30 0.07027795 -3.6631812e-37
0001a0 17 b7 0b 82 24 47 8f 80 c6 f6 f2 95 bb 1e 4a 3c
       -1.0264651e-37 -1.3157996e-38 -9.813236e-26 0.012336428
0001b0 51 d6 17 80 60 cd 1d 81 88 69 02 3d be 8e 2c 9b
       -2.189099e-39 -2.8983695e-38 0.031838924 -1.4273629e-22
0001c0 8d 1a 50 83 af 10 11 9d 1c d5 21 3d 4f 84 57 13
       -6.1156185e-37 -1.9199215e-21 0.039509878 2.7202048e-27
0001d0 1d 44 f1 3c 02 05 00 81 1d e5 56 05 b4 25 2a 81
       0.029451424 -2.351348e-38 1.0104313e-35 -3.125112e-38
0001e0 c3 f1 95 81 72 e7 cc 9f d5 1b c1 3d 6c 2f e1 3c
       -5.5080867e-38 -8.6780255e-20 0.09429137 0.027488433
0001f0 18 4f 40 81 c5 40 a0 82 d3 93 85 3d 8a 7f f7 0d
       -3.5321578e-38 -2.3547063e-37 0.06522336 1.5253254e-30
000200 aa 46 dc 91 f8 cb 04 81 06 fe be 3d 32 40 9e 81
       -3.475343e-28 -2.439091e-38 0.09325795 -5.813215e-38
000210 69 e5 a2 9f 08 b6 09 82 86 20 c3 83 3a 55 8e 98
       -6.8989196e-20 -1.0117411e-37 -1.1468537e-36 -3.6792197e-24
000220 f3 05 c1 ba f6 0e e6 3c 8f 3c 9e 84 60 4c 0a 19
       -0.0014726504 0.028083306 -3.7201236e-36 7.1498566e-24
000230 d1 70 c5 80 42 72 46 3b 18 f7 c3 82 fd cf 9b 3d
       -1.8132064e-38 0.0030280505 -2.87945e-37 0.0760803
000240 b6 48 5c 81 3e 62 6c 80 a7 66 a2 3c 74 71 aa 80
       -4.0459786e-38 -9.953476e-39 0.01982434 -1.5652734e-38
000250 57 cc ed a1 97 36 46 80 30 b8 86 82 d1 75 f5 3d
       -1.6113833e-18 -6.448068e-39 -1.9795249e-37 0.11985362
000260 ad 0f 3a 3c 6e 57 34 3d 9c 58 6d 3c 5c 50 1a 8a
       0.011356276 0.044028692 0.014486458 -7.429944e-33
000270 ce 7f aa 3a d6 92 98 84 4d fa 2c 80 d4 cd c9 a6
       0.001300806 -3.5869876e-36 -4.130553e-39 -1.4002967e-15
000280 5c 5c 0c 3e 95 0d be 3d 82 ca 46 3d 32 3a 53 82
       0.13707107 0.09279934 0.04853297 -1.5518533e-37
000290 16 94 e8 80 3c 5a e2 3c 79 3e 78 80 80 ff 4c 82
       -2.1358958e-38 0.027630918 -1.104267e-38 -1.5060878e-37
0002a0 4c 0c d7 80 be e9 0e 3c 22 fb a8 99 cb 51 3c 81
       -1.9749043e-38 0.008722721 -1.7472225e-23 -3.458883e-38
0002b0 82 eb c7 3b 10 2b 45 80 9f 70 be 9c 35 c4 21 3c
       0.0061010728 -6.352097e-39 -1.2602257e-21 0.00987344
0002c0 56 58 0b 3e aa 10 78 81 b9 76 3e 3d 86 73 33 8f
       0.13607916 -4.5562362e-38 0.04649994 -8.8476304e-30
0002d0 07 24 11 81 72 a1 25 80 18 08 1f 86 8b db a7 82
       -2.6658142e-38 -3.455829e-39 -2.9910523e-35 -2.4664456e-37
0002e0 e0 7f ab 3a 5c a5 89 93 7f 2d b1 3c 90 22 08 8f
       0.0013084374 -3.474672e-27 0.02162814 -6.711974e-30
0002f0 da 13 f6 83 9b f6 a2 3d fb b8 9f 3d 0d 59 c0 8c
       -1.4463138e-36 0.079571925 0.07798954 -2.963588e-31
000300 d0 5e 01 3d e1 7f 4d 3d 03 53 46 92 7a b0 61 80
       0.03158456 0.050170783 -6.2580104e-28 -8.971351e-39
000310 3e 98 5c 80 95 de 46 82 a7 ad 57 3c 70 e3 3b a4
       -8.50348e-39 -1.461062e-37 0.013163961 -4.0741808e-17
000320 17 6e 0e 82 23 1d bd 3d f9 21 9b 3d ef 03 1f 3c
       -1.0464107e-37 0.09234073 0.07574839 0.009705528
000330 9c 31 b2 ba f6 b4 54 3d c5 32 b6 82 2a c3 12 a1
       -0.0013595107 0.05193039 -2.6771637e-37 -4.972502e-19
000340 a6 71 9b 39 69 4e bb 94 c6 64 72 3c 28 c3 9b 9a
       0.00029648578 -1.8913102e-26 0.014794534 -6.442179e-23
000350 88 d2 97 3b 0a a8 75 92 86 c8 bd ba 93 36 36 82
       0.0046332516 -7.7515493e-28 -0.0014479316 -1.338691e-37
000360 78 33 f6 3c 88 c9 10 80 b3 67 3e 3d 87 b2 b2 3b
       0.03005384 -1.541664e-39 0.046485614 0.005453411
000370 55 a7 20 3c db f8 1c 3d 7f d2 f3 3c 3a f6 33 3b
       0.00980552 0.038323265 0.029763458 0.0027459995
000380 1f 91 79 82 4e 63 85 97 fb 1e 0b 3d a0 08 f0 3c
       -1.8335279e-37 -8.619992e-25 0.033965092 0.029300988
000390 52 fe 4f 3d ca 9b 0a 19 12 be c9 81 fd b0 4a 3d
       0.050779648 7.165894e-24 -7.4108476e-38 0.049485195
0003a0 76 dd d9 83 bd 3c db 3b 61 04 bf 80 45 f9 22 84
       -1.2804959e-36 0.00669059 -1.754215e-38 -1.9157467e-36
0003b0 4d 5a a1 3d bd 9a 9e 90 b1 45 26 bb 63 65 24 82
       0.07878552 -6.2558424e-29 -0.002537113 -1.2077914e-37
0003c0 e2 ac b2 3a 1a 40 62 83 ba ae d6 ba d5 31 84 3d
       0.0013631845 -6.6489016e-37 -0.0016378977 0.06454817
0003d0 2b 7d 8f 80 53 41 e1 3c 09 02 4d 3d 13 9c e3 ba
       -1.3177378e-38 0.02749697 0.05005077 -0.0017365239
0003e0 b6 03 c8 81 84 a1 16 82 70 9a 10 3e 89 0a 7a 3b
       -7.347372e-38 -1.1066612e-37 0.14121413 0.0038153252
0003f0 20 6b af 80 fc a3 41 96 ca 26 74 82 c9 e2 a1 82
       -1.6109641e-38 -1.564216e-25 -1.7937421e-37 -2.3786992e-37

net.2.running_var f4 [512]
000000 f3 46 4a 3b 04 00 00 00 04 00 00 00 67 8f a7 05
       0.0030865043 6e-45 6e-45 1.5757282e-35
000010 cd 14 10 3c 04 00 00 00 04 00 00 00 04 00 00 00
       0.008794022 6e-45 6e-45 6e-45
000020 2d a5 bf 37 19 07 89 3a 04 00 00 00 eb 03 23 3b
       2.284589e-05 0.0010454386 6e-45 0.0024874161
000030 b7 07 94 39 5b 92 9a 3b 70 28 00 00 04 00 00 00
       0.00028234508 0.004717154 1.4506e-41 6e-45
000040 04 00 00 00 4d d0 02 3a b0 5f de 37 61 05 5f 3a
       6e-45 0.00049901457 2.650902e-05 0.00085075764
000050 04 00 00 00 21 ce df 3a 18 be 98 3b e0 8a b1 38
       6e-45 0.0017074981 0.004661333 8.465885e-05
000060 3e 7d 2a 3c 04 00 00 00 04 00 00 00 04 00 00 00
       0.010405837 6e-45 6e-45 6e-45
000070 e3 04 ab 3a ef 62 fc 3b bc 25 8d 3a 04 00 00 00
       0.0013047721 0.0077022235 0.0010768692 6e-45
000080 04 00 00 00 b6 16 13 3c 04 00 00 00 57 20 fd 3c
       6e-45 0.008977583 6e-45 0.03089921
000090 56 50 dc 3a 7e 97 19 3b 04 00 00 00 a0 c2 12 01
       0.001680861 0.0023436244 6e-45 2.6955601e-38
0000a0 04 00 00 00 04 00 00 00 ff 25 06 3c 04 00 00 00
       6e-45 6e-45 0.00818777 6e-45
0000b0 1d ab 70 3c 04 00 00 00 04 00 00 00 9e 28 07 3d
       0.014689234 6e-45 6e-45 0.03299772
0000c0 04 00 00 00 07 d0 d8 3a 04 00 00 00 72 2f 0b 3c
       6e-45 0.0016541489 6e-45 0.008495199
0000d0 9c 72 72 3c 04 00 00 00 04 00 00 00 7d 10 c6 3c
       0.014797833 6e-45 6e-45 0.024177784
0000e0 04 00 00 00 c6 d0 72 39 0d c3 e4 3b 04 00 00 00
       6e-45 0.00023156693 0.0069812597 6e-45
0000f0 04 00 00 00 ea ff ba 3c e6 86 91 3c 01 fe 4d 3c
       6e-45 0.022827107 0.01776452 0.012572766
000100 04 00 00 00 53 c8 36 3a 9f 2f 2c 3b 04 00 00 00
       6e-45 0.00069725997 0.0026273502 6e-45
000110 04 00 00 00 22 d2 f8 3a 1c 1b 32 3b 04 00 00 00
       6e-45 0.0018983523 0.0027176803 6e-45
000120 04 00 00 00 04 00 00 00 04 00 00 00 93 02 c4 3b
       6e-45 6e-45 6e-45 0.005981752
000130 7f f0 47 3b 04 00 00 00 04 00 00 00 25 53 7e 3a
       0.0030508337 6e-45 6e-45 0.00097017206
000140 22 3e 1f 3c 1f 97 3e 3b 04 00 00 00 04 00 00 00
       0.009719403 0.0029081774 6e-45 6e-45
000150 1f 17 f8 3b 57 fc 0a 3c 04 00 00 00 04 00 00 00
       0.0075711156 0.008483014 6e-45 6e-45
000160 fc d1 b3 39 04 00 00 00 04 00 00 00 b7 83 9c 3b
       0.0003429799 6e-45 6e-45 0.004776444
000170 a1 01 00 00 8a d3 8d 3b 04 00 00 00 04 00 00 00
       5.84e-43 0.004328196 6e-45 6e-45
000180 0f 00 00 00 04 00 00 00 04 00 00 00 04 00 00 00
       2.1e-44 6e-45 6e-45 6e-45
000190 04 00 00 00 04 00 00 00 f4 08 e5 3b 04 00 00 00
       6e-45 6e-45 0.0069895927 6e-45
0001a0 04 00 00 00 04 00 00 00 04 00 00 00 cb a4 d4 3a
       6e-45 6e-45 6e-45 0.0016223429
0001b0 04 00 00 00 04 00 00 00 c6 fc 28 3b 04 00 00 00
       6e-45 6e-45 0.002578543 6e-45
0001c0 04 00 00 00 cc 02 00 00 e1 e9 9d 3b 04 00 00 00
       6e-45 1.003e-42 0.0048191403 6e-45
0001d0 b7 3b 8a 3b 04 00 00 00 04 00 00 00 04 00 00 00
       0.0042185443 6e-45 6e-45 6e-45
0001e0 04 00 00 00 6e 20 06 00 37 6a 75 3c ad 79 e2 3a
       6e-45 5.62647e-40 0.014978937 0.0017278694
0001f0 04 00 00 00 04 00 00 00 5c 68 b2 3b 04 00 00 00
       6e-45 6e-45 0.0054445695 6e-45
000200 04 00 00 00 04 00 00 00 48 f6 6e 3c 04 00 00 00
       6e-45 6e-45 0.014585085 6e-45
000210 f9 81 06 00 04 00 00 00 04 00 00 00 04 00 00 00
       5.97638e-40 6e-45 6e-45 6e-45
000220 7a 26 f8 37 a6 34 4e 3b 04 00 00 00 04 00 00 00
       2.958182e-05 0.0031464486 6e-45 6e-45
000230 04 00 00 00 75 f1 55 38 04 00 00 00 44 e6 16 3c
       6e-45 5.100803e-05 6e-45 0.009210173
000240 04 00 00 00 04 00 00 00 20 8e ce 3a 04 00 00 00
       6e-45 6e-45 0.0015758909 6e-45
000250 b8 8f 30 03 04 00 00 00 04 00 00 00 da 48 ae 3c
       5.1886732e-37 6e-45 6e-45 0.021274973
000260 3a ad 2c 3a d7 ec 70 3b b7 7c 28 3a 04 00 00 00
       0.0006587092 0.0036762261 0.00064272754 6e-45
000270 84 2e 0f 39 04 00 00 00 04 00 00 00 0c bd 7e 0d
       0.00013654871 6e-45 6e-45 7.849735e-31
000280 bf cb 3e 3c bc 5b 24 3c 44 61 8e 3b 04 00 00 00
       0.011645257 0.010031637 0.004345091 6e-45
000290 04 00 00 00 e3 d7 16 3b 04 00 00 00 04 00 00 00
       6e-45 0.0023016862 6e-45 6e-45
0002a0 04 00 00 00 24 77 69 3a 04 00 00 00 04 00 00 00
       6e-45 0.0008905998 6e-45 6e-45
0002b0 7f b7 07 39 04 00 00 00 b1 01 00 00 b3 90 82 3a
       0.00012942961 6e-45 6.07e-43 0.0009961337
0002c0 26 f3 5a 3c 04 00 00 00 6a 1a 6e 3b 04 00 00 00
       0.013363635 6e-45 0.0036331662 6e-45
0002d0 04 00 00 00 04 00 00 00 04 00 00 00 04 00 00 00
       6e-45 6e-45 6e-45 6e-45
0002e0 f7 0a 45 39 04 00 00 00 36 f9 52 3b 04 00 00 00
       0.00018791469 6e-45 0.0032191998 6e-45
0002f0 04 00 00 00 80 e8 18 3c d3 83 0b 3c 04 00 00 00
       6e-45 0.009332776 0.008515316 6e-45
000300 a9 d6 5a 3b 12 60 c8 3b 04 00 00 00 04 00 00 00
       0.0033392108 0.006114968 6e-45 6e-45
000310 04 00 00 00 04 00 00 00 b9 45 b7 3a d3 58 23 08
       6e-45 6e-45 0.0013982571 4.915544e-34
000320 04 00 00 00 fe 3a 38 3c 8a b3 33 3c 17 8f 78 3a
       6e-45 0.011244534 0.010968098 0.0009481771
000330 04 fd d3 37 ad 15 c0 3b 04 00 00 00 bb f3 dd 01
       2.527098e-05 0.005861959 6e-45 8.1532315e-38
000340 14 7a 7d 38 04 00 00 00 b0 44 ab 3a 04 00 00 00
       6.0433595e-05 6e-45 0.0013066735 6e-45
000350 20 6f 0b 3a 04 00 00 00 17 ac f2 34 04 00 00 00
       0.0005318988 6e-45 4.5201224e-07 6e-45
000360 df 35 d1 3a 04 00 00 00 7f 39 66 3b c6 b4 85 3a
       0.0015961489 6e-45 0.0035129485 0.0010200969
000370 e9 79 86 3a 63 38 6d 3b 7a 6d 53 3b a4 55 b0 39
       0.0010259721 0.003619694 0.0032261298 0.00033633143
000380 04 00 00 00 04 00 00 00 7e e4 7a 3b d2 c6 4c 3b
       6e-45 6e-45 0.0038283165 0.0031246436
000390 2b 89 94 3b 04 00 00 00 04 00 00 00 ca 7d a9 3b
       0.0045329533 6e-45 6e-45 0.005172466
0003a0 04 00 00 00 c4 eb 5c 39 04 00 00 00 04 00 00 00
       6e-45 0.00021068665 6e-45 6e-45
0003b0 92 0c 29 3c 04 00 00 00 06 92 aa 36 04 00 00 00
       0.010317938 6e-45 5.083394e-06 6e-45
0003c0 f4 c9 fd 39 04 00 00 00 3f 33 8c 37 78 19 19 3c
       0.00048406387 6e-45 1.6713164e-05 0.009344451
0003d0 04 00 00 00 70 d1 04 3b f2 a9 b0 3b 0b 5e 88 39
       6e-45 0.0020266436 0.005391353 0.0002601001
0003e0 04 00 00 00 04 00 00 00 f7 c2 a1 3c 9e 2b 96 39
       6e-45 6e-45 0.019746287 0.00028642727
0003f0 04 00 00 00 04 00 00 00 04 00 00 00 04 00 00 00
       6e-45 6e-45 6e-45 6e-45
