training_results/training_synergies_results/training_20250607_133550/FCNN.pth (torch, 725927 bytes, 18 tensors)

net.0.weight f4 [512, 4]
000000 b2 f4 26 9f e3 70 41 9e 77 38 da 1f 51 00 8e 9f
       -3.5354275e-20 -1.0240679e-20 9.2420004e-20 -6.013986e-20
000010 28 4f 06 83 1c 6c bc 01 7d 76 83 83 24 0f 6a 83
       -3.9469928e-37 6.921542e-38 -7.726692e-37 -6.87838e-37
000020 ea d9 0d 97 79 aa 21 97 bd 83 70 97 0a c0 a3 97
       -4.5834603e-25 -5.223707e-25 -7.771446e-25 -1.0582106e-24
000030 ed 44 2e b1 a4 e0 37 2f 74 90 1a b2 5f 69 9c 30
       -2.5359512e-09 1.6723561e-10 -8.996825e-09 1.1380442e-09
000040 f3 a5 a3 bd 7f 8e 47 be bf 9d 49 be fa c5 b6 bd
       -0.07990637 -0.19487952 -0.19689082 -0.0892448
000050 94 ac 84 83 85 d4 a1 83 d0 9e 91 83 22 95 8d 83
       -7.797885e-37 -9.511522e-37 -8.558796e-37 -8.321474e-37
000060 5a 79 74 a2 b1 d5 1c 22 8b 5b 82 22 7b 7f f6 a1
       -3.313241e-18 2.125507e-18 3.5333495e-18 -1.6703352e-18
000070 41 40 77 35 47 d2 3d 35 b1 fd 7d b4 5c 77 95 b4
       9.210817e-07 7.071398e-07 -2.3654754e-07 -2.7840258e-07
000080 9d bc 6c b4 27 02 4c b4 62 06 91 34 9c 89 5d b5
       -2.204783e-07 -1.8999764e-07 2.7013e-07 -8.2529164e-07
000090 05 1a 87 b0 5f 20 e7 b0 0d 4e 98 b1 09 19 92 2f
       -9.829938e-10 -1.6816663e-09 -4.4326556e-09 2.6575034e-10
0000a0 aa e7 43 ac c6 f1 b5 a9 2e 80 5e 2b b9 08 f1 ac
       -2.7839766e-12 -8.079956e-14 7.904813e-13 -6.8506004e-12
0000b0 51 e9 0f 84 fa a6 c4 83 bd 60 0e 84 ee 66 07 84
       -1.6916703e-36 -1.1558181e-36 -1.673644e-36 -1.5916437e-36
0000c0 01 22 13 3e 5a b5 98 3e bf af 90 be ad 10 d4 3e
       0.1436844 0.2982586 -0.28259084 0.41418973
0000d0 fa 25 fe bb 88 81 7b bb 95 d7 af 3e 93 e6 26 3c
       -0.007755992 -0.0038376767 0.34344164 0.010186809
0000e0 81 39 49 2b 95 3c 41 ac 33 c1 11 ab 67 c7 30 ab
       7.148935e-13 -2.746058e-12 -5.1782466e-13 -6.2804487e-13
0000f0 ea 14 10 3b 2d 05 67 3b 55 97 e8 3e 84 16 76 ba
       0.0021985122 0.0035250888 0.45427957 -0.00093875104
000100 ac 9e 23 be 95 11 22 bc 61 b2 6f be cf 1d 97 3e
       -0.15978497 -0.009891887 -0.2340789 0.2951493
000110 c8 81 0c bc 61 0a 1d 3d f8 6f e7 3e 7a e1 71 bd
       -0.008575864 0.038339976 0.45202613 -0.05905292
000120 7b 5a 3e 96 86 6a df 94 5d 2d ce 95 93 e9 33 15
       -1.5376628e-25 -2.2559262e-26 -8.327431e-26 3.633302e-26
000130 47 37 1f be 86 36 81 b8 5b 9e ea 39 88 0a f2 3e
       -0.1554843 -6.161355e-05 0.00044749942 0.4727366
000140 da 2f 73 1d 7f 91 80 23 7c 95 dc 9f 79 b0 c4 9d
       3.218552e-21 1.3939408e-17 -9.3420925e-20 -5.2063236e-21
000150 95 78 ad 3a 0a 6e 39 3a 86 e6 ce 3e af 70 81 3a
       0.0013234789 0.0007073587 0.4041025 0.0009875501
000160 7c ed db a6 34 d3 fc a6 e0 b4 a0 a7 37 8c 9e 26
       -1.5260548e-15 -1.7543259e-15 -4.4605026e-15 1.1001458e-15
000170 8c d8 a4 ae 3b 27 25 af 7a 93 88 b0 a7 58 00 b0
       -7.496323e-11 -1.50206e-10 -9.937218e-10 -4.669211e-10
000180 e4 07 c3 3b 3c dd e6 bb f7 5e 01 3f d3 3d 8e bc
       0.0059518684 -0.007045416 0.5053553 -0.017363464
000190 0a 32 5a 3e 41 35 ab bd 75 63 94 3d 5d 08 cd be
       0.21308151 -0.08359767 0.072455324 -0.40045443
0001a0 8b 26 21 8b a1 95 23 8b 56 9c 83 0a 40 a1 29 05
       -3.103647e-32 -3.1505226e-32 1.2673648e-32 7.975959e-36
0001b0 57 dd cf b0 6e b1 17 31 cf c3 df 31 d6 62 82 2f
       -1.5124141e-09 2.207425e-09 6.512415e-09 2.371709e-10
0001c0 20 74 9c 82 71 82 2b 83 da f0 32 82 f2 fb fd 82
       -2.2988792e-37 -5.0402123e-37 -1.3146496e-37 -3.7319618e-37
0001d0 00 b4 12 ae 91 8a e6 2c 6b f6 e8 2c 46 fd 80 ad
       -3.335643e-11 6.552377e-12 6.6211945e-12 -1.4664391e-11
0001e0 58 a3 70 9f bb 21 25 9f 9d 95 f5 9f d5 a6 c4 1d
       -5.0957092e-20 -3.496801e-20 -1.0400905e-19 5.205327e-21
0001f0 a2 9a dd 37 44 88 dc 37 8d 19 bf 37 57 79 a3 b7
       2.641726e-05 2.6289497e-05 2.2780872e-05 -1.9487617e-05
000200 de 2e af be bf 50 6d 3b ae 6e 73 bc 18 32 cb bd
       -0.34215444 0.0036211459 -0.014857931 -0.09921664
000210 3f 2c fe 2a da 65 41 29 92 35 39 29 94 10 a8 a7
       4.5150166e-13 4.294295e-14 4.1124717e-14 -4.664734e-15
000220 55 b7 93 a9 7e 4a bb a7 a3 03 80 aa 1d be 1a aa
       -6.5599144e-14 -5.198369e-15 -2.273989e-13 -1.3743906e-13
000230 02 91 bb 0f 34 5d 87 8f cb 12 09 10 b0 85 36 90
       1.8495479e-29 -1.3347928e-29 2.7032964e-29 -3.599616e-29
000240 ca 67 91 3c 79 f4 a1 be 1c 7f 82 3d 65 82 cd 3d
       0.017749686 -0.3163183 0.063719004 0.100346364
000250 e3 33 31 83 dd 0b 25 02 d8 70 0e 82 34 af b7 02
       -5.207519e-37 1.212569e-37 -1.0464897e-37 2.6989995e-37
000260 9a 17 3d 83 c7 6c 15 83 c0 d2 95 82 1a f4 58 83
       -5.55692e-37 -4.3912035e-37 -2.2014547e-37 -6.375691e-37
000270 b7 1d 55 3b 6d dd 29 3b 1f ec f0 be 57 ce d9 bc
       0.0032518932 0.0025919334 -0.47055146 -0.026587648
000280 84 0b 39 bd 2e 85 e6 3e bc 63 c6 3d 0b b5 9d be
       -0.045176998 0.45023483 0.096869916 -0.30802187
000290 49 97 c6 83 4a e5 ea 83 e2 7e 00 84 ea 86 04 84
       -1.1672127e-36 -1.3805926e-36 -1.510459e-36 -1.5578475e-36
0002a0 3b 86 37 3e 33 ed 49 3e 27 5f 8f be c5 ae 5d be
       0.17922299 0.1971939 -0.28002283 -0.216487
0002b0 0a 14 23 3c b7 96 ad be b5 ce be 3c 39 fa e0 3c
       0.009953508 -0.3390405 0.023291925 0.027463065
0002c0 c7 b4 17 3e 18 0f 1f 3e 58 85 17 bf 78 db 01 bd
       0.14815055 0.15533102 -0.5918784 -0.031703442
0002d0 0c 90 8a 0a de ce ef 8b ce 6b 0e 8c 5b 5b a3 8b
       1.3343101e-32 -9.237071e-32 -1.0971723e-31 -6.292277e-32
0002e0 d4 99 8c bb 1c f1 ca 3e 8c 6e ca 3b cf 6c 18 3b
       -0.0042907987 0.39637077 0.006177729 0.0023258214
0002f0 31 be 05 3a 2c 2d ea 3e 18 49 b3 bb 27 82 47 3d
       0.0005101888 0.45737588 -0.00547136 0.048708107
000300 46 f8 54 3c 32 a9 95 3e ac ed 61 3b b2 0f ff 3a
       0.012998646 0.29230648 0.003447394 0.0019459634
000310 68 76 01 83 29 77 79 83 08 3b d8 80 97 95 45 83
       -3.8045617e-37 -7.3311312e-37 -1.9857644e-38 -5.8064817e-37
000320 f6 0a 00 83 be 15 22 83 79 76 b7 83 ee 17 df 81
       -3.76284e-37 -4.763248e-37 -1.0782973e-36 -8.19516e-38
000330 78 f8 ce bd 2b c8 a9 be 77 ec d2 be 7b 62 9e 3e
       -0.101059854 -0.3316053 -0.41196033 0.3093451
000340 fc 18 80 91 22 92 8d 90 e9 b4 a9 90 d0 06 26 10
       -2.0210237e-28 -5.583985e-29 -6.693748e-29 3.2742976e-29
000350 6c b1 11 80 ca 2b 2d 82 ec 8e 27 80 d5 f2 ba 01
       -1.62485e-39 -1.27226e-37 -3.632855e-39 6.8674056e-38
000360 23 af bc bb f6 2e aa bb 9d 23 1a bf a9 2b f9 bb
       -0.0057581826 -0.0051935865 -0.6021059 -0.0076040816
000370 98 60 94 39 16 44 18 3e 1e e7 a2 be 6e 21 3c 3d
       0.00028300728 0.14869723 -0.31816953 0.04593032
000380 7c 7d 21 b0 6f c2 04 b1 a8 19 6e b0 26 fd 24 b0
       -5.8749783e-10 -1.931905e-09 -8.6620355e-10 -6.00226e-10
000390 a3 41 8e 02 c4 fc 9b 82 52 db 6a 82 fd 47 cc 82
       2.0902698e-37 -2.2920283e-37 -1.7254547e-37 -3.0016425e-37
0003a0 88 13 c0 82 ed 22 ea 01 48 ca 0a 83 e9 84 52 83
       -2.8223075e-37 8.600814e-38 -4.0786763e-37 -6.1866027e-37
0003b0 56 c5 0c b8 a1 2f 54 b9 43 5e f1 39 ad 26 24 39
       -3.3562384e-05 -0.00020235639 0.00046037333 0.00015654667
0003c0 cb 58 5b 38 24 1b 3d 38 bc 2a f4 38 16 66 02 3a
       5.2296364e-05 4.5086388e-05 0.000116427866 0.00049743184
0003d0 f4 13 3a 93 ae 6a 39 94 a7 6a a5 93 0e 8d 7f 93
       -2.3486338e-27 -9.361152e-27 -4.1757023e-27 -3.225507e-27
0003e0 1a 3c cc a4 7d d9 60 24 91 09 24 a6 e6 07 11 a6
       -8.857271e-17 4.8756477e-17 -5.6911895e-16 -5.0317685e-16
0003f0 97 97 a2 ae 74 3e 6d 2d 22 67 ee 2e 7f c1 8a ae
       -7.393835e-11 1.3485758e-11 1.0841307e-10 -6.309885e-11

net.0.bias f4 [512]
000000 a8 fc 58 9f 58 fa 20 83 e9 d6 b5 97 88 82 e5 b1
       -4.594877e-20 -4.7307155e-37 -1.1751102e-24 -6.679617e-09
000010 2d 82 9f 3e 66 f2 8f 83 65 5d c1 a2 ea 68 40 b7
       0.31154004 -8.460437e-37 -5.241164e-18 -1.1468519e-05
000020 c3 88 e5 b4 ee 4e d9 af e7 9a c6 ab d2 ce 06 84
       -4.275408e-07 -3.9528153e-10 -1.411174e-12 -1.5846592e-36
000030 20 b9 97 be 60 f6 6b be 50 c5 4d ac 91 e0 d0 be
       -0.29633427 -0.23043203 -2.9241783e-12 -0.4079633
000040 de cb 4b be c9 d0 2b be 1d f4 04 16 09 a0 9b be
       -0.19901988 -0.16778864 1.0739904e-25 -0.30395535
000050 35 4a d6 a3 23 1e c5 be e1 ed 27 a7 d9 ce 2f ac
       -2.3233354e-17 -0.38499555 -2.330486e-15 -2.498382e-12
000060 33 21 5d be b6 1f 0e 3e b0 f4 ef 8b cf 1e 3f b2
       -0.21594696 0.13879284 -9.2427616e-32 -1.1124668e-08
000070 91 8b 1c 83 ec d5 87 ad f7 5c 1f 9f bc 3b a3 37
       -4.6004494e-37 -1.5442723e-11 -3.3746458e-20 1.945893e-05
000080 7c f5 e6 3d ee 87 2b ab 68 36 b3 aa f4 2c 4d 90
       0.11277291 -6.0940044e-13 -3.183454e-13 -4.0463752e-29
000090 2a 4d bc 3d 37 61 5a 83 ce 79 62 83 e6 66 87 3e
       0.091944054 -6.417604e-37 -6.6555256e-37 0.26445693
0000a0 5d 7d a4 be fe 56 b5 83 ef 5c b4 bd 53 e6 e1 3d
       -0.32126895 -1.0658196e-36 -0.08806788 0.11030259
0000b0 b2 db 5a 3d f0 c6 17 8c de 5c 22 be 5d a1 c6 be
       0.053432174 -1.1692482e-31 -0.15855739 -0.38794985
0000c0 b3 f7 e9 bd 7c 67 22 83 a2 6a 1c 84 1a 59 62 be
       -0.11424198 -4.7726315e-37 -1.8386675e-36 -0.22104302
0000d0 50 09 9d 91 7e 48 84 82 70 63 0e 3e bc 37 09 3e
       -2.4775972e-28 -1.9437265e-37 0.1390512 0.13400167
0000e0 1b 4e 77 b0 c0 b1 ca 82 0c 9d 36 83 36 08 a4 38
       -8.996907e-10 -2.9783256e-37 -5.3665274e-37 7.821659e-05
0000f0 66 cc 1e 2f 45 63 98 93 5c 5b 70 a5 24 f8 bf ad
       1.4442633e-10 -3.846808e-27 -2.0847635e-16 -2.1824383e-11
000100 80 51 ed 3b 73 a3 19 3e c7 50 cc 3e 38 31 c4 bd
       0.0072423816 0.15003757 0.39905378 -0.095797
000110 b8 ab 26 3e 44 8c 03 3e bb aa 78 be ef 84 10 be
       0.16276443 0.12846476 -0.24283879 -0.1411321
000120 12 7e 48 83 d1 1a 9a 3d e6 18 89 35 50 bb 3a 3e
       -5.891944e-37 0.07524646 1.0214542e-06 0.18235517
000130 55 44 9d 39 ce ae 18 8a b8 8b a7 a8 b1 06 f0 b3
       0.00029996285 -7.351411e-33 -1.8601318e-14 -1.1177088e-07
000140 7b f3 44 3e 79 89 21 3e 54 89 38 3d 68 e8 6b a0
       0.19233505 0.15775098 0.04505284 -1.9982171e-19
000150 91 2d a6 82 42 e5 9b be 23 bb 5b be 7b 6a 95 3e
       -2.4417662e-37 -0.30448347 -0.21458106 0.291828
000160 2e 17 1a bd 1c 29 84 be 19 e8 c6 b1 a4 41 92 82
       -0.037619762 -0.25812614 -5.788945e-09 -2.1490448e-37
000170 73 f6 35 82 cc 8f 89 be a9 a5 1c 3e 2a ab 41 82
       -1.3368507e-37 -0.2686752 0.1529757 -1.4228522e-37
000180 3a 04 87 a5 38 38 51 2e ea 3e 00 bc f2 ab 17 3e
       -2.342163e-16 4.757103e-11 -0.0078275 0.14811686
000190 ab 5c 1f ac c0 6b 5f be f0 03 84 be eb 92 43 aa
       -2.26467e-12 -0.21818447 -0.25784254 -1.7370452e-13
0001a0 48 f0 d6 82 32 11 54 83 e6 86 2e be ba 95 e4 83
       -3.1582389e-37 -6.232094e-37 -0.17043647 -1.3435011e-36
0001b0 c5 dc 40 3e 63 7f a7 be 10 1f 69 92 de b4 71 9d
       0.18834217 -0.32714376 -7.3560124e-28 -3.198959e-21
0001c0 5e ae a8 be 72 9c 9e 3e 1a a0 5a 83 c5 bb b3 8b
       -0.32945532 0.30978733 -6.424823e-37 -6.9230816e-32
0001d0 4a 22 77 3e 1f d0 3e a7 93 a7 c1 be e2 fc 6e 3d
       0.24134174 -2.648062e-15 -0.3782316 0.058346637
0001e0 6e 05 19 ab fa aa 0a 94 ff f6 2d 83 08 99 ab af
       -5.4364054e-13 -7.000939e-27 -5.112367e-37 -3.1213454e-10
0001f0 f8 57 7e 83 57 2a ba be e1 fb cc 83 ab 17 0a bd
       -7.4744874e-37 -0.36360428 -1.2047871e-36 -0.033713978
000200 08 52 81 3e ad bc 2c 86 32 ae b8 ae e0 7b ab 88
       0.25257897 -3.2488222e-35 -8.3982946e-11 -1.0320811e-33
000210 11 f2 9a 82 d2 8e b3 be 8c d7 8d b1 9c ba 25 83
       -2.2767206e-37 -0.350699 -4.128145e-09 -4.870336e-37
000220 70 6b a6 b9 93 d8 9d 3d cf d6 56 bd 47 a9 0c 3d
       -0.00031742034 0.07707324 -0.05245095 0.034341123
000230 5e 42 7b ab f0 69 f2 bd 2c f0 c4 12 1c 69 7a a8
       -8.9265216e-13 -0.11836612 1.2428546e-27 -1.390058e-14
000240 36 5d 42 3e 48 d5 0f 3e ad 20 d2 ae cf a1 0e be
       0.1898087 0.14046204 -9.555499e-11 -0.13928913
000250 d5 46 7e 82 72 83 f6 1c ab 90 34 3e a0 86 07 88
       -1.8681301e-37 1.6312892e-21 0.17633311 -4.0783336e-34
000260 40 20 2d 8c 42 75 8e a9 67 95 05 ad 8f 77 3a 38
       -1.333714e-31 -6.326408e-14 -7.593349e-12 4.4457203e-05
000270 29 18 28 3e c4 82 34 be 11 9e 85 82 43 3c 87 3d
       0.16415466 -0.17628008 -1.963332e-37 0.06603291
000280 33 a8 98 82 9f c6 12 be 12 a8 0d 92 a4 79 45 97
       -2.2430934e-37 -0.1433358 -4.469892e-28 -6.3807665e-25
000290 c1 cc e9 37 d8 31 2c aa 57 19 fd b7 e8 03 9b b3
       2.787111e-05 -1.5293962e-13 -3.017175e-05 -7.2184605e-08
0002a0 99 1a 27 3e 5c fa d6 bd 8c 0d 45 aa e1 73 25 b4
       0.1631874 -0.10496971 -1.7501815e-13 -1.5408979e-07
0002b0 2b c4 b6 83 30 e0 96 af 27 23 65 b3 0d 2f 1f b4
       -1.07420365e-36 -2.7444136e-10 -5.335019e-08 -1.4825146e-07
0002c0 02 82 31 b0 ae d5 b9 82 63 6e 67 a0 37 4a 51 3e
       -6.4576977e-10 -2.7305953e-37 -1.9602985e-19 0.20438467
0002d0 71 74 14 3d 8a 45 43 be a3 43 20 be 0a 07 58 83
       0.03624386 -0.19069496 -0.15650801 -6.3484775e-37
0002e0 54 1a 4c 3c 95 06 88 bc 18 d7 2b ab 57 57 70 3e
       0.012457449 -0.016604701 -6.1049906e-13 0.23470818
0002f0 ac c8 7b 9f fd 4c 50 3e a6 55 04 3e 1e 0d 6d 3d
       -5.331731e-20 0.20341869 0.12923297 0.057873838
000300 18 48 19 2e 41 65 52 be ac 9c fb bd c4 4e 90 82
       3.4852204e-11 -0.20546438 -0.12285742 -2.1204108e-37
000310 1c 7f a7 b8 af 89 3e 3e 6c 81 47 b2 fe 00 b4 be
       -7.9868565e-05 0.1860721 -1.1612752e-08 -0.35157007
000320 18 fb be af 5c 6a 47 a1 44 17 61 3e 70 3d c5 96
       -3.4739212e-10 -6.756459e-19 0.21981531 -3.186584e-25
000330 83 67 81 1b 93 e3 16 a6 34 aa e5 b4 fe 8b 27 37
       2.1408153e-22 -5.2350125e-16 -4.2778413e-07 9.98657e-06
000340 4e a1 f5 35 81 d9 15 be 36 93 da a6 fd cc 67 87
       1.8300868e-06 -0.14633752 -1.516669e-15 -1.7438749e-34
000350 dd 5c e0 82 d2 fd 26 3e 87 e2 a1 3d 56 ae a8 b9
       -3.2967143e-37 0.16307762 0.07904535 -0.00032173347
000360 99 50 a1 83 1b 93 b1 3d ed 56 8e be 9b dd 2d ad
       -9.481234e-37 0.08670636 -0.27800694 -9.883118e-12
000370 26 47 52 af 11 0e 91 bd 69 80 90 3d 11 2a 5d 83
       -1.9124666e-10 -0.07082761 0.07055742 -6.4994353e-37
000380 a3 6b 50 82 e3 98 39 3e fb 00 b6 97 5f 48 e4 bd
       -1.5312317e-37 0.18124728 -1.1761722e-24 -0.11146616
000390 7c 81 7b b3 f0 1a 73 be 78 0d 6a 3d 30 b0 05 3e
       -5.8558257e-08 -0.23740745 0.05714175 0.13055491
0003a0 84 65 6d 83 dd 32 8e b4 ff 45 11 a5 65 fb 2c 3e
       -6.9764575e-37 -2.648657e-07 -1.2600461e-16 0.16892774
0003b0 c1 cc 01 be a3 14 5b 3e 83 e6 9e be 01 51 9f 3c
       -0.12675764 0.21394591 -0.3103524 0.019447805
0003c0 9e a4 53 b2 10 04 2d be 51 97 19 1e 61 4c 52 3e
       -1.2319246e-08 -0.16896081 8.131044e-21 0.20536949
0003d0 27 39 ea 99 1e 9b 16 be 8e ce 57 3e d0 c3 54 bc
       -2.4218117e-23 -0.1470761 0.21074888 -0.012986138
0003e0 97 11 2c 83 12 c2 1e 83 db b4 ad be 1a 4e ab 83
       -5.056645e-37 -4.665481e-37 -0.33927044 -1.0068408e-36
0003f0 38 e2 34 b0 10 34 e3 b1 e6 0c 26 28 4c ab 9b 3d
       -6.5805095e-10 -6.6124883e-09 9.217648e-15 0.07601032

net.2.weight f4 [512]
000000 f8 51 27 1f 83 d9 0a 83 29 0f bd 97 ec cf bb b4
       3.543143e-20 -4.0804246e-37 -1.2217666e-24 -3.4982747e-07
000010 da ef e1 3d 60 80 b7 83 13 9e 1b a5 26 6b 0e b7
       0.11032076 -1.0785247e-36 -1.3497665e-16 -8.488807e-06
000020 0e e0 57 36 91 a7 8d 33 0d 14 3b 2e 6c be 04 02
       3.2167914e-06 6.596304e-08 4.2536686e-11 9.752477e-38
000030 a2 df ce 3e 3d 45 4a 3f b7 de 24 ad 9b 30 f1 3f
       0.40404993 0.790119 -9.371773e-12 1.8842958
000040 3c 6a c8 3e da ac a3 3e 9f 66 00 96 ae 1d 97 3f
       0.3914355 0.31967813 -1.0372139e-25 1.1805933
000050 03 f3 12 a1 20 71 b4 3f 87 40 f6 a8 f3 6a 01 32
       -4.978835e-19 1.4097023 -2.733947e-14 7.533106e-09
000060 28 b2 6b 3f 08 b9 73 3e 3e 0d 59 8a db e2 6e 34
       0.9206872 0.23801053 -1.04506605e-32 2.2248007e-07
000070 59 80 00 03 5d ba 4b 32 b4 ab e2 21 9b 6a 2b b8
       3.7763155e-37 1.1858529e-08 1.5359805e-18 -4.086886e-05
000080 f2 ab a2 3e c7 68 27 2c 06 53 73 ac 10 b8 02 92
       0.3177181 2.379029e-12 -3.4578464e-12 -4.124764e-28
000090 d6 8f 08 3e a6 04 85 03 61 36 70 82 0a 36 fe 3e
       0.13336119 7.818105e-37 -1.7648021e-37 0.49650604
0000a0 fb 79 b7 3e 03 1a 17 04 03 4e 58 3e df 51 e0 3e
       0.3583525 1.7761909e-36 0.21123509 0.43812463
0000b0 68 f6 06 3f 0d 24 17 8d e9 8b 72 3f 73 96 2b 3f
       0.52719736 -4.657386e-31 0.94744736 0.6702644
0000c0 17 46 74 3e 2d b2 6f 82 8f 8d d9 03 a2 75 40 3f
       0.23854862 -1.7610081e-37 1.2786614e-36 0.75179493
0000d0 77 0c d3 90 c2 af 94 82 88 18 a1 3f e7 bf f0 3d
       -8.324403e-29 -2.1847526e-37 1.2585611 0.117553525
0000e0 7c a4 d8 b0 5e be ea 01 60 dc 20 83 ea 43 79 b9
       -1.5762818e-09 8.623119e-38 -4.727275e-37 -0.0002377179
0000f0 71 0b bc 38 db 5b 63 16 a2 c0 34 26 3c a8 74 2e
       8.96667e-05 1.8365898e-25 6.271111e-16 5.56286e-11
000100 33 c7 2b 3d fe 22 19 3e 25 10 48 3f 48 f3 d3 3d
       0.041938018 0.14954755 0.78149635 0.103491366
000110 3d a7 54 3f a2 bc ad 3e c0 87 21 3e 7a cc dd 3e
       0.83067685 0.33932978 0.15774441 0.43320066
000120 b5 c5 ec 82 98 b4 9e 3e 14 74 02 39 b3 f2 a3 3e
       -3.4790562e-37 0.30997157 0.00012441009 0.32021102
000130 56 6e 6f b9 a8 e7 69 8b 0e c4 12 2b 29 4e 78 34
       -0.0002283392 -4.5048446e-32 5.21417e-13 2.3125234e-07
000140 ba 20 94 3e db d2 97 3e 54 4c 98 3e 36 78 dc a2
       0.28931218 0.29653057 0.29745734 -5.9758398e-18
000150 d0 5f 27 03 0f e8 bb 3e d8 35 3a 3f 14 5a 42 3f
       4.9186877e-37 0.36700484 0.7273841 0.759187
000160 7f 86 95 3e 6a af a0 3e 2d f8 7d b1 e1 f1 d7 83
       0.29204175 0.3138383 -3.6957417e-09 -1.2692097e-36
000170 0f 66 9b 81 52 0a 36 3f 12 57 ce 3d 8c 45 64 01
       -5.7084455e-38 0.711095 0.10075201 4.1926884e-38
000180 c7 04 08 25 24 b3 4e ae 3e 9f 33 3e 42 b4 31 3e
       1.1797738e-16 -4.6998086e-11 0.17541215 0.17353919
000190 e7 db 8a ad 86 99 8f 3e 66 67 78 3f e0 11 92 29
       -1.578644e-11 0.28046817 0.97032773 6.486803e-14
0001a0 88 d9 22 01 49 47 31 03 3a 2c 40 3e 75 1c f7 83
       2.9910772e-38 5.2097456e-37 0.18766871 -1.4523889e-36
0001b0 4d 7e 45 3f b3 43 6b 3f f3 d7 f3 13 cd 4a c3 1f
       0.77145845 0.91900176 6.1554766e-27 8.270946e-20
0001c0 85 6c af 3e 46 8d 69 3e b1 8e a6 02 8b 1c 38 0d
       0.3426248 0.22807798 2.4473409e-37 5.6733735e-31
0001d0 cb 46 0d 3f 1f 75 86 28 54 48 92 3e 0f 34 71 3e
       0.55186146 1.4927782e-14 0.28570807 0.23555015
0001e0 47 11 1c 30 2a 37 39 94 72 e5 4f 83 23 5e a3 b0
       5.677702e-10 -9.350992e-27 -6.1095223e-37 -1.1886566e-09
0001f0 49 46 2c 03 cd fd 09 3e e8 b9 9f 83 b5 40 90 3e
       5.062694e-37 0.13475724 -9.387862e-37 0.28174368
000200 be 9c 61 3f 3e ac 54 87 84 4c be b1 fb f1 e3 8a
       0.88129795 -1.5999725e-34 -5.5384266e-09 -2.1950328e-32
000210 39 85 0a 81 aa 1f 88 3e 95 32 aa b7 73 e2 13 83
       -2.544218e-38 0.26586658 -2.0289133e-05 -4.345937e-37
000220 79 fb 5b 3a 51 5d 1d 3f 2f 6a a5 3e 45 25 f6 3e
       0.00083916594 0.61470515 0.32307574 0.4807531
000230 f9 a9 bb 31 a1 e6 c8 3e 57 2e 6e 93 78 c0 99 aa
       5.46174e-09 0.39238456 -3.006267e-27 -2.7311812e-13
000240 ee 45 09 3f c2 57 94 3e df 81 e2 2f 3e ab ae 3e
       0.5362233 0.28973204 4.120144e-10 0.34115022
000250 d0 fd c9 81 b9 cf 69 1d 37 96 7c 3d 52 64 50 8a
       -7.419994e-38 3.0944683e-21 0.061666694 -1.0033704e-32
000260 41 c3 56 0d 1e e9 4b ae ef 9a 31 2e 79 cf 44 39
       6.617887e-31 -4.6363906e-11 4.038275e-11 0.00018769306
000270 3f fa da 3e e6 89 90 3e 20 65 82 81 19 42 02 3f
       0.42769048 0.28230208 -4.7899565e-38 0.50882107
000280 ff 12 0a 01 ff 70 54 3d 6e 2f 3b 13 e0 b0 68 98
       2.5360226e-38 0.051865574 2.3626103e-27 -3.0074596e-24
000290 64 d6 31 b7 44 b5 19 2c bb 91 31 b8 bb 72 07 38
       -1.0599939e-05 2.184323e-12 -4.233581e-05 3.229336e-05
0002a0 76 dc 5f 3e e8 73 d3 3e 1c bf 02 a9 f5 05 e4 b5
       0.21861443 0.41299367 -2.903156e-14 -1.6989057e-06
0002b0 56 b7 d9 01 50 c5 9c af f1 6c 0a b8 bc 56 24 36
       7.9976285e-38 -2.8516434e-10 -3.3003224e-05 2.448839e-06
0002c0 3e 60 4f ac d3 de 18 82 fa cb b3 95 35 82 1b 3e
       -2.9469894e-12 -1.1231144e-37 -7.261934e-26 0.15186389
0002d0 38 7f 46 3e f1 3f 4c 3e 8b 1c bd 3d 5e 1e 1b 03
       0.19384468 0.19946267 0.0923396 4.5585266e-37
0002e0 25 16 e0 3e 14 05 6a 3d ec 9e e1 2c e6 91 4a 3e
       0.43766895 0.05713375 6.4125285e-12 0.19782218
0002f0 9b 62 19 97 12 0d d2 3e 99 e8 17 3e a1 ec b6 3c
       -4.9561424e-25 0.41025597 0.14834823 0.02232963
000300 bb ed 4a ae e7 a7 4a 3f 30 3d 22 3e a8 56 de 81
       -4.614063e-11 0.7916245 0.15843654 -8.1674266e-38
000310 7e c1 3c b9 42 a9 1c 3e e5 96 a1 b6 25 da 47 3f
       -0.00018001159 0.15298942 -4.8157403e-06 0.7806724
000320 cc 23 58 b2 9b 58 f7 a1 31 ac 31 3f 4e 43 0f 1c
       -1.2580994e-08 -1.6760825e-18 0.6940337 4.740172e-22
000330 12 7e c0 9d f9 ff a8 a7 96 c4 7c 36 56 82 8c 39
       -5.095233e-21 -4.6906893e-15 3.7665354e-06 0.0002679999
000340 b4 b7 c0 38 33 25 0a 3f df 69 1a aa f2 6d d8 05
       9.189491e-05 0.5396301 -1.3714679e-13 2.035293e-35
000350 c6 09 b1 82 af 49 42 3e c5 d6 f4 3e f7 36 06 ba
       -2.6013422e-37 0.1897342 0.47820106 -0.0005119885
000360 20 b1 84 02 d8 b4 08 3e 6a a1 07 3f 78 c1 37 31
       1.9497322e-37 0.13350236 0.52980673 2.673998e-09
000370 fa 62 ca b1 02 21 41 3d 28 07 dc 3e aa 13 1f 82
       -5.890226e-09 0.04715062 0.4297421 -1.1687118e-37
000380 ca 77 95 01 72 f6 74 3f 99 b6 36 99 b9 88 b7 3e
       5.4905845e-38 0.95688546 -9.446055e-24 0.358465
000390 58 39 91 36 3b f2 b9 3e bf 01 58 3e e3 ed 2f 3e
       4.3280124e-06 0.3631762 0.21094416 0.1718059
0003a0 36 35 d8 01 ce f4 86 b6 e8 60 2a a8 11 0f 86 3f
       7.942222e-38 -4.02201e-06 -9.457909e-15 1.0473348
0003b0 f6 59 23 3f 23 6d 99 3e c8 f1 6d 3e f5 ed e5 3d
       0.63809144 0.29966077 0.23236763 0.11227027
0003c0 56 73 f9 34 6f 13 ec 3e 8c e2 09 1f 4a cc e6 3e
       4.6463782e-07 0.46108577 2.9198274e-20 0.45077735
0003d0 7f d1 17 1d e0 7f f5 3e 56 31 53 3f 31 e3 44 3e
       2.009299e-21 0.47949123 0.82497156 0.19227292
0003e0 87 4b 57 82 c4 31 6e 82 55 69 1b 3f 9e cc bd 82
       -1.5817381e-37 -1.749976e-37 0.607076 -2.7888499e-37
0003f0 75 f9 80 2f f8 1d 15 35 a4 91 35 2c 60 c8 6b 3c
       2.3460314e-10 5.5550436e-07 2.5802494e-12 0.014391035

net.2.bias f4 [512]
000000 fc b0 80 38 54 1e 59 36 6f 56 89 b8 88 65 e6 38
       6.1364815e-05 3.2353173e-06 -6.5487686e-05 0.00010986166
000010 5f 1c 07 3e 64 b4 b0 38 74 1d 26 b7 f8 3e 5f b7
       0.13194416 8.425934e-05 -9.901229e-06 -1.3306497e-05
000020 1d cc d5 b8 bb d4 aa b8 43 f2 4b b7 96 79 84 b8
       -0.000101946505 -8.145856e-05 -1.2156149e-05 -6.3168976e-05
000030 13 ad 3b 3e 48 3a 7f bd a8 a3 07 39 95 8d 08 3e
       0.18327741 -0.06231144 0.0001293557 0.1333526
000040 4a 26 9b 3e 06 59 d9 ba 69 08 60 38 eb d1 9e bc
       0.3030265 -0.0016582317 5.3413594e-05 -0.019387206
000050 a5 0f 9b b8 a2 95 b7 3d 44 df b3 38 59 85 db b6
       -7.39389e-05 0.08964087 8.5769716e-05 -6.5422323e-06
000060 56 a5 86 3d 23 1d 8e 3d 3f 8a 18 37 49 b6 85 38
       0.06574504 0.06939151 9.092094e-06 6.3758875e-05
000070 4a 54 12 b9 e9 85 18 36 b5 4f a4 37 ab 69 5d 38
       -0.00013955045 2.272771e-06 1.958744e-05 5.2788917e-05
000080 97 c8 f5 3c b1 98 86 38 b4 4b 0d 39 2c 71 a9 37
       0.030002875 6.418059e-05 0.0001347501 2.019907e-05
000090 6e 0f 47 bd 22 0e e0 39 79 4b a2 b8 fe a6 5e 3e
       -0.0485987 0.0004273514 -7.73882e-05 0.2174339
0000a0 3a a1 96 3d fd ef 4d b8 c0 c7 a4 3a bd 78 36 3e
       0.0735497 -4.9099315e-05 0.0012571737 0.17819495
0000b0 44 f7 45 3e bb ac a8 b8 6c 91 16 3e d1 97 1b 3e
       0.19332606 -8.043038e-05 0.14703912 0.15194632
0000c0 b4 8d 13 3e 04 a7 84 38 7e 80 67 b9 2e fa b4 3d
       0.14409524 6.3253596e-05 -0.00022077744 0.088367805
0000d0 cc ee 4e b8 a9 14 03 38 86 df 5f 3e d9 1c bd 3c
       -4.9336624e-05 3.1252075e-05 0.21862611 0.023085045
0000e0 85 51 8a 38 0e 58 15 b9 f5 d8 7f 38 44 09 0f b8
       6.595537e-05 -0.0001424255 6.0998795e-05 -3.4102486e-05
0000f0 ff 1a ba 37 bf 4d 5e b8 19 a9 4d b8 e8 e9 e0 b6
       2.2185499e-05 -5.300133e-05 -4.9033293e-05 -6.7029505e-06
000100 ed 4c a4 bc 19 9a 66 3d a2 37 39 3e 68 89 08 3d
       -0.020056212 0.056299303 0.18087628 0.033334166
000110 21 98 70 bc 72 ce a0 3e 29 23 ad 3c 1d 36 7e 3e
       -0.014684708 0.31407505 0.02113493 0.2482533
000120 d0 26 4b b8 33 9d 99 3e 75 5c 75 38 2c f6 1b 3e
       -4.843512e-05 0.30002746 5.849866e-05 0.15230626
000130 50 57 d7 b8 f0 4f 1e 37 d5 90 d3 38 e0 c9 2a 37
       -0.00010268262 9.436146e-06 0.00010088241 1.0179792e-05
000140 cf f7 13 3e 82 d5 5d 3e 54 98 c8 3d 23 cf 17 b9
       0.1445 0.21663478 0.09794679 -0.00014477647
000150 5d 01 70 b8 50 1e ef 3d 19 af 58 3e e4 b5 01 3e
       -5.722173e-05 0.116757035 0.21160544 0.12667042
000160 a5 7c 65 3e b2 81 9a bc 8e 38 c8 37 67 9f 8c 38
       0.2241083 -0.018860672 2.3868193e-05 6.705411e-05
000170 c4 00 c6 38 d9 91 0c 3d d4 56 9a 3d 7c 14 72 38
       9.441518e-05 0.03431878 0.075360924 5.7716374e-05
000180 43 06 dd b8 f2 12 8c 39 47 34 de bd 4c 07 37 3c
       -0.000105392675 0.00026716996 -0.10849815 0.011171173
000190 53 c2 7b 38 32 35 a9 3d 9d e2 66 3e 84 17 c7 37
       6.0024042e-05 0.08262099 0.22547384 2.3733599e-05
0001a0 8d 2c 9c 38 ce 20 3c b8 be c3 c6 3d cd 17 65 37
       7.446958e-05 -4.4853245e-05 0.097053036 1.3655005e-05
0001b0 69 5e 0e 3e 18 1a 9d 3d cf af 2a 38 6e 96 6b 38
       0.13903202 0.076709926 4.0694893e-05 5.6168465e-05
0001c0 4b fd 2b 3e 16 b4 e6 3d a5 fe ae 39 22 bf c0 37
       0.16795842 0.112648174 0.0003337759 2.2977187e-05
0001d0 2b b5 18 3e 3b c0 35 3a a0 d6 8a 3d cc 3d 0c 3e
       0.1491286 0.00069332466 0.06779218 0.13695449
0001e0 9a d2 6c b8 e5 bf 26 38 e6 ad 29 38 9c 2d 83 b8
       -5.6462923e-05 3.97562e-05 4.0454695e-05 -6.255062e-05
0001f0 59 c8 80 38 a6 ca 28 3d 8f 46 94 38 53 b9 f9 3d
       6.140833e-05 0.041208886 7.0703325e-05 0.12193551
000200 21 89 a0 3e e1 76 cc b8 70 9c 98 38 a2 de 07 b8
       0.3135462 -9.749621e-05 7.2770636e-05 -3.239385e-05
000210 02 78 fb 37 07 aa 12 3e 75 26 87 b8 69 74 4a b8
       2.9977415e-05 0.14322673 -6.444465e-05 -4.826897e-05
000220 90 f1 28 37 e2 7b c8 3d 68 2f f1 ba b9 ed c9 3d
       1.00698235e-05 0.09789254 -0.0018400969 0.09859795
000230 cc f8 7b b8 4d e7 d3 bd 6e c7 37 36 4a ea 19 b8
       -6.0074774e-05 -0.103468515 2.7385208e-06 -3.669624e-05
000240 97 1e 18 3e f1 7a 42 3d 4a a0 e0 b6 99 f7 00 3e
       0.14855419 0.047480527 -6.6943803e-06 0.12594451
000250 19 1c 83 37 25 52 4c b9 56 b1 02 3d 27 e2 92 38
       1.5629501e-05 -0.00019485557 0.031907402 7.003947e-05
000260 55 aa 42 b8 8e fb 21 38 fd a2 52 38 0e 19 a5 37
       -4.641184e-05 3.861967e-05 5.0219696e-05 1.96812e-05
000270 e3 c5 53 3e 13 6d ab 3d d6 68 84 b8 62 41 f3 3d
       0.20680957 0.08370414 -6.313778e-05 0.11877705
000280 56 86 14 b8 51 8c 51 3b 5b d4 8f 36 5a 9b 6c b8
       -3.541106e-05 0.0031974504 4.2864535e-06 -5.6411467e-05
000290 41 97 e8 b8 d2 ae b1 38 eb 3a e4 b7 d4 0a 9b b7
       -0.00011090795 8.4725805e-05 -2.7207154e-05 -1.8482482e-05
0002a0 8c 29 9f 3e 9f 6e 82 3d 54 21 8b b8 3e 52 54 38
       0.31086385 0.063687555 -6.634244e-05 5.0621333e-05
0002b0 8f 4f 93 38 f0 dc 64 b8 a8 0e 67 38 94 91 c4 38
       7.024325e-05 -5.45652e-05 5.508834e-05 9.373124e-05
0002c0 08 75 2d b9 b1 d3 37 b8 d2 8a 62 38 8b 03 b1 3d
       -0.00016542163 -4.3827753e-05 5.4011885e-05 0.08643254
0002d0 e3 6e 6f 3d a4 4d 3b 3d 40 dd bb bc 78 a4 6d 38
       0.05845536 0.04572834 -0.022932649 5.6658377e-05
0002e0 e9 5b 0b be d8 b8 a4 bd 22 79 b5 38 b8 ab 63 3c
       -0.1360928 -0.08043069 8.653315e-05 0.013895921
0002f0 76 17 a1 b8 12 6a 33 3e ad 90 bd 3d 20 bf 58 3c
       -7.681448e-05 0.17520931 0.0925611 0.0132291615
000300 60 3a ae 38 7f 7f 57 3e 0f e8 41 3d 05 d4 98 39
       8.30784e-05 0.2104473 0.04734045 0.00029149666
000310 ec 7b ba b7 1a 30 f1 3c 15 31 96 38 35 83 2e 3d
       -2.2230633e-05 0.029441882 7.1616996e-05 0.042605598
000320 4a cd 83 38 82 85 9b 38 05 cf 25 3e 0d 75 82 b8
       6.284805e-05 7.415844e-05 0.16192253 -6.2206855e-05
000330 c8 bd 7e b8 3b fb 64 38 10 30 b4 38 70 33 8e b7
       -6.0735067e-05 5.4593413e-05 8.592021e-05 -1.6951672e-05
000340 62 6a a0 37 52 22 ce 3d fb 0c 37 b9 8b 1c 71 b8
       1.9123025e-05 0.1006514 -0.00017457076 -5.748546e-05
000350 d0 1e a6 b9 bf 20 e0 3d 7c 54 c3 3d 22 bc e9 b8
       -0.00031684944 0.10943746 0.095375985 -0.00011145348
000360 fb 75 09 b8 5a 9e 97 3c d5 da a5 3c ed 66 35 b8
       -3.2773223e-05 0.018508125 0.020245949 -4.324962e-05
000370 2a a7 25 37 71 34 8a 3b 84 3a 11 3d 80 1b 8d b8
       9.873687e-06 0.0042176773 0.035456195 -6.728526e-05
000380 e1 a7 5f 39 90 c3 84 3e ed a0 80 38 a4 7e 93 bd
       0.00021329477 0.25930452 6.1334904e-05 -0.07201889
000390 e3 84 a3 b8 8d 69 ae 3d 1e f5 a7 3d f9 e5 c7 3d
       -7.797198e-05 0.08516226 0.08201049 0.09760661
0003a0 ca c1 32 36 ca 00 03 b8 f0 48 64 38 ef 68 58 3e
       2.6636867e-06 -3.123357e-05 5.4427364e-05 0.21133779
0003b0 b7 7b 05 be d7 30 87 3e 35 b4 99 3d f8 fc e7 3c
       -0.13035475 0.2640445 0.07505075 0.028318867
0003c0 f0 2b 5d 38 17 cc 48 3e 78 4c 46 37 63 c9 91 3e
       5.2731426e-05 0.19609104 1.1819524e-05 0.28473958
0003d0 98 ff 34 b8 d9 88 d4 3d 74 67 2a 3e d2 61 08 be
       -4.3153384e-05 0.10377664 0.16641027 -0.13318565
0003e0 18 cd 4d 39 70 10 8b b7 9a 1a ab 3d ae cc 08 37
       0.00019626727 -1.6577746e-05 0.08354683 8.153887e-06
0003f0 d5 b1 e0 37 3a 3c b4 b8 7d 6d b6 b8 e5 14 94 3c
       2.678569e-05 -8.594287e-05 -8.69883e-05 0.01807637

net.2.running_mean f4 [512]
000000 c2 09 91 1e 15 5f 8c 80 37 22 2a 95 07 0f 01 af
       1.5356508e-20 -1.2891078e-38 -3.4358217e-26 -1.173782e-10
000010 66 06 01 3e 90 c8 f2 80 80 a8 ad 9f 0f ae f6 b3
       0.12600097 -2.2296138e-38 -7.354711e-20 -1.1486929e-07
000020 27 53 1f b2 a6 30 2d ae 2a 6e a0 a9 ef 04 5e 81
       -9.273925e-09 -3.9378854e-11 -7.124538e-14 -4.07785e-38
000030 84 9c 77 3d e2 8e 05 3d 9a 9f 67 a9 1b ee 30 3c
       0.060452 0.032606967 -5.1430736e-14 0.010798956
000040 f3 b3 e5 3b 3e 13 bb 3d 39 58 29 16 1e ac 06 3d
       0.007009977 0.091345295 1.367955e-25 0.032878987
000050 e7 1f 72 a0 ab 30 4a 3b 10 a5 bf a4 9d e2 11 ad
       -2.0508753e-19 0.0030851762 -8.311267e-17 -8.292614e-12
000060 9f 59 bb 3d bb ee 29 3d 6f a1 a3 88 7e 50 ba ae
       0.09147953 0.041487437 -9.8481585e-34 -8.472599e-11
000070 bf 24 69 80 31 6a af aa de 4d c2 9c 68 d5 21 38
       -9.655909e-39 -3.115993e-13 -1.2857971e-21 3.858414e-05
000080 0e a9 11 3d 81 bd b3 a7 5d 79 13 a7 3a 1e 69 8d
       0.035561614 -4.988794e-15 -2.046614e-15 -7.183505e-31
000090 e1 ef d5 3d 7a a2 44 80 b9 aa 9b 80 0a d5 ef 3d
       0.10446144 -6.3031e-39 -1.4295746e-38 0.11710556
0000a0 a1 1d f9 3b c4 3f 39 81 6a a7 e3 ba 63 df 9f 3d
       0.007602409 -3.4024883e-38 -0.0017368619 0.078062795
0000b0 df 53 c5 3c 2f c7 85 89 e9 7a 8b 3d 02 8a 92 3c
       0.024087844 -3.2205897e-33 0.068105526 0.017888073
0000c0 17 6e 5b 3d ab c6 7f 80 5c 39 0e 81 86 e3 7a 3b
       0.053571787 -1.1734377e-38 -2.6122434e-38 0.0038282587
0000d0 bd b8 9b 8e ff b1 15 80 cd bb 3f 3d 52 b5 be 3d
       -3.8388347e-30 -1.992398e-39 0.04680996 0.09311928
0000e0 a4 b1 d3 ad bb bc 3d 80 1e e6 79 80 30 2e 9c 39
       -2.4066811e-11 -5.669669e-39 -1.1194646e-38 0.0002978905
0000f0 c9 5f c4 39 bc 14 30 91 c3 77 d1 a2 58 ca f3 2d
       0.000374554 -1.3890341e-28 -5.6776366e-18 2.771576e-11
000100 c2 e1 1a 3d cf 02 d9 3d 15 e1 31 3e 12 de c0 3b
       0.037812956 0.10596239 0.17371018 0.005885848
000110 78 dc ab 3c db 5c 28 3d d8 e6 fe 3c b9 3a 43 3d
       0.020979151 0.04110418 0.031115934 0.047663424
000120 06 14 59 80 0e 87 b7 3c ec 2e 08 39 76 59 03 3e
       -8.180542e-39 0.022403266 0.0001298745 0.12827095
000130 f2 0c ab 39 46 1b 39 87 b0 ea a4 a6 0d 2a 6c b1
       0.00032625307 -1.3925868e-34 -1.1443398e-15 -3.4366423e-09
000140 2a f7 71 3d 80 09 2c 3c 46 d2 f5 3a ba d3 8b 9d
       0.059073605 0.010500312 0.0018754683 -3.7011914e-21
000150 b5 d2 34 80 5e 14 bc 3b fe d9 58 3c be d7 88 3d
       -4.851033e-39 0.0057397326 0.013235567 0.066817746
000160 6c c2 57 3d 1f fe 86 3d e8 43 e7 ae e2 be 1f 81
       0.05267565 0.065914385 -1.05167264e-10 -2.934064e-38
000170 f4 26 10 80 5b 04 24 3d 9f 5b b5 3d 89 cf 2e 80
       -1.483342e-39 0.040043216 0.08855366 -4.298882e-39
000180 29 a5 61 a2 33 1a 44 ac d5 a7 c5 3d 28 35 8a 3d
       -3.0580621e-18 -2.7867819e-12 0.09651152 0.0674842
000190 2d 29 b9 aa 12 e3 1c 3d 3d b0 a6 3c 53 cf 04 a7
       -3.2891173e-13 0.03830249 0.020347709 -1.843107e-15
0001a0 88 d2 2a 80 f2 11 4e 80 0b 6f 14 3c 04 53 d7 80
       -3.932615e-39 -7.169606e-39 0.009059678 -1.9774412e-38
0001b0 7f 64 04 3e b4 47 29 3c 06 d0 03 90 da 75 53 9a
       0.12928961 0.010332037 -2.599545e-29 -4.3728977e-23
0001c0 22 fd 5a 3d 06 8d 18 3d 32 45 93 80 3c b5 89 88
       0.053464063 0.037243865 -1.352464e-38 -8.287996e-34
0001d0 db 35 23 3d 30 25 89 a4 93 93 64 3b b4 c4 af 3c
       0.039846282 -5.947728e-17 0.0034878 0.0214561
0001e0 60 a4 56 aa a9 fa 70 91 b4 28 31 80 50 d0 f5 ac
       -1.9064047e-13 -1.9009902e-28 -4.514541e-39 -6.986446e-12
0001f0 99 34 53 80 de 59 98 3b af 38 22 81 e6 14 85 3c
       -7.641215e-39 0.004649385 -2.979537e-38 0.016245317
000200 b9 08 12 3e 1c 6e 8a 83 a4 43 2a ad a8 32 0f 86
       0.1426114 -8.136191e-37 -9.6784004e-12 -2.6932527e-35
000210 bd bb 1e 80 78 06 cc 3c a5 e0 84 b2 48 79 4b 80
       -2.822413e-39 0.024905428 -1.5468979e-08 -6.93117e-39
000220 9e 6f 3c b7 15 5b de 3c 6c 01 b3 ba 2c c6 87 3a
       -1.1231661e-05 0.02714304 -0.001365704 0.0010358742
000230 da ed c9 ab 3c 85 fb 3d 2a fd a4 12 39 41 b6 a5
       -1.4347926e-12 0.12281272 1.0412265e-27 -3.1616164e-16
000240 6c 31 b6 3d 5d da 40 3d 3b e3 ac ac 2f 2d 2d 3c
       0.08896145 0.047083247 -4.9137617e-12 0.010569855
000250 eb e3 0c 80 6d 40 07 1c fb 2d a2 3c ad 2a 8b 85
       -1.183788e-39 4.475102e-22 0.019797316 -1.3087174e-35
000260 35 11 32 8a a5 74 93 a8 ae 66 49 aa 80 85 84 3a
       -8.5736245e-33 -1.6370865e-14 -1.788801e-13 0.0010110587
000270 0b 40 cf 3d 74 e8 36 3b 18 7b 1e 80 1c ee a6 3c
       0.10119637 0.002790955 -2.799223e-39 0.020377211
000280 d2 73 21 80 5f 31 16 ba 44 e5 61 8f 76 61 24 94
       -3.07212e-39 -0.0005729403 -1.11375114e-29 -8.299105e-27
000290 4a 36 5f 3a 1f 19 22 a7 74 5d 45 b4 b8 b9 46 b4
       0.00085148646 -2.2495634e-15 -1.8381053e-07 -1.8507751e-07
0002a0 ff 5d b0 3c 9b 15 c1 ba 77 85 05 a7 d6 e1 aa b1
       0.021529196 -0.001473117 -1.852981e-15 -4.9733258e-09
0002b0 1f b1 fa 80 4a cb 89 ac 27 63 7b b3 ba 63 24 b1
       -2.3022413e-38 -3.916344e-12 -5.853067e-08 -2.392183e-09
0002c0 16 44 df ac 94 56 1f 80 19 16 27 9d 50 20 49 3d
       -6.3456003e-12 -2.877959e-39 -2.211369e-21 0.04910308
0002d0 8f 32 7f 3c f9 63 b6 3a c6 43 eb 3c cb a4 47 80
       0.015576019 0.0013915292 0.02871884 -6.579437e-39
0002e0 a0 84 e0 3d 03 7f 2e 3d de c4 1b a8 0a 99 10 3e
       0.10962796 0.042601597 -8.646917e-15 0.1412088
0002f0 34 70 35 9c f0 a4 ec 3d e2 de 4a 3d 29 59 d3 3c
       -6.0032895e-22 0.11554897 0.049528964 0.02579935
000300 f0 75 41 2f 5e 58 b4 3d a1 40 9c 3d d7 cd 30 80
       1.7595148e-10 0.08805917 0.076295145 -4.481945e-39
000310 9c d7 19 35 1a d5 ea 3d 9d c3 ba b1 a5 e9 7f 3d
       5.7310695e-07 0.11466427 -5.435551e-09 0.06247868
000320 fb 19 01 ad 7f 25 2e 9e b8 78 c3 3d 3c d2 8a 96
       -7.33857e-12 -9.219237e-21 0.0954451 -2.242778e-25
000330 99 44 51 1a c2 65 35 a3 fc 45 00 b3 44 70 96 39
       4.32756e-23 -9.833578e-18 -2.9865973e-08 0.00028693874
000340 bd d7 4f 39 f4 d1 a8 3d 9e a6 14 a6 9a 6a 03 85
       0.00019821427 0.082431704 -5.1573623e-16 -6.17917e-36
000350 18 93 25 80 7e ee 94 3c ec dd 80 3c ed c4 c6 b6
       -3.45068e-39 0.018180128 0.01573082 -5.923785e-06
000360 a3 53 ac 80 38 93 e0 3d 2f 2e 51 3d 9e ef df aa
       -1.5825709e-38 0.1096558 0.051069435 -3.9779025e-13
000370 1b 6d bd ac 56 99 b4 b9 12 76 43 3b 8a 90 83 80
       -5.3838162e-12 -0.0003444652 0.0029825014 -1.2082301e-38
000380 4f 7a 24 80 eb be 9f 3d ac ae be 94 b5 12 c1 3d
       -3.349954e-39 0.078000866 -1.9253993e-26 0.09427396
000390 36 35 93 b1 d2 14 7a 3d e7 98 70 3b c2 70 c8 3d
       -4.2843125e-09 0.061055012 0.003671223 0.09787132
0003a0 cb 6f 69 80 34 4b 87 b1 d9 b8 58 a2 e6 93 8c 3d
       -9.682831e-39 -3.9375667e-09 -2.9371316e-18 0.06864147
0003b0 a0 c3 ee 3d 5e 9a a6 3d 5c 0b 01 bb e9 53 e3 39
       0.11658406 0.08134912 -0.0019690609 0.00043359332
0003c0 b7 60 41 af ea 77 a3 3d 41 c1 04 1c c3 15 b5 3c
       -1.7587608e-10 0.07981856 4.392491e-22 0.022105103
0003d0 e4 ab 55 99 d3 03 e3 3b c4 7a 01 3e a4 51 cb 3d
       -1.1046555e-23 0.006927946 0.12644488 0.09927681
0003e0 41 8e 39 80 df 40 36 80 8c ce ca 3c ef 24 83 80
       -5.285654e-39 -4.982388e-39 0.024756692 -1.2043699e-38
0003f0 7e 99 0a ad 7e bf bc b0 02 42 9d a6 46 de 62 3d
       -7.878474e-12 -1.3733226e-09 -1.0911955e-15 0.055387758

net.2.running_var f4 [512]
000000 b3 17 04 00 04 00 00 00 04 00 00 00 a7 e0 f4 1c
       3.75844e-40 6e-45 6e-45 1.6204637e-21
000010 77 ea 36 3c 04 00 00 00 15 2c 05 00 4a ff e9 23
       0.011164299 6e-45 4.74991e-40 2.537003e-17
000020 46 c7 2c 24 b0 a3 53 1c 27 1e 99 12 04 00 00 00
       3.7465346e-17 7.0025605e-22 9.663091e-28 6e-45
000030 63 e5 ca 3b 52 21 25 3b 5c 2b 74 11 de 74 09 3a
       0.006191896 0.0025196862 1.9261567e-28 0.000524355
000040 c2 eb 27 3a f7 80 78 3c 04 00 00 00 bd 6b 56 3b
       0.0006405675 0.015167466 6e-45 0.0032718026
000050 28 3e 2d 00 06 bb dc 38 09 75 08 09 18 49 f9 19
       4.154895e-39 0.00010525253 1.6425434e-33 2.5775519e-23
000060 ed 9b 7c 3c 2f b1 91 3b 04 00 00 00 cc ed 93 1c
       0.015418035 0.0044461708 6e-45 9.789113e-22
000070 04 00 00 00 06 eb f1 14 af 01 00 00 32 86 3f 30
       6e-45 2.4427482e-26 6.04e-43 6.96761e-10
000080 25 d0 bc 3a 1f 6e 9b 0e 40 fb 6d 0f 04 00 00 00
       0.0014405294 3.8316493e-30 1.1733391e-29 6e-45
000090 ac 86 d5 3b 04 00 00 00 04 00 00 00 31 23 45 3c
       0.0065162983 6e-45 6e-45 0.012032316
0000a0 01 28 8c 3a 04 00 00 00 eb 1b c8 37 27 b4 7b 3b
       0.0010693074 6e-45 2.3854858e-05 0.003840694
0000b0 36 d1 06 3b 04 00 00 00 35 e7 28 3c 9b dc ac 3a
       0.0020571477 6e-45 0.01030903 0.0013188304
0000c0 a9 db ce 3b 04 00 00 00 04 00 00 00 d8 31 0b 3a
       0.0063128066 6e-45 6e-45 0.00053098565
0000d0 04 00 00 00 04 00 00 00 ab 5c 6d 3b 6f af e0 3b
       6e-45 6e-45 0.0036218564 0.006856851
0000e0 9b 06 75 1d 04 00 00 00 04 00 00 00 e3 3c cb 32
       3.2428895e-21 6e-45 6e-45 2.3659998e-08
0000f0 82 63 f5 32 04 00 00 00 ec 30 ff 05 43 f2 58 1c
       2.8567005e-08 6e-45 2.3998056e-35 7.178152e-22
000100 3c d5 a6 3a 03 94 fd 3b 58 e2 dc 3c bf 00 d2 39
       0.0012728344 0.0077385916 0.026963398 0.00040054877
000110 43 6f 0b 3b 65 44 3c 3b 25 fd 86 3b db 01 c6 3b
       0.0021276034 0.002872729 0.0041195326 0.0060427017
000120 04 00 00 00 5d 03 2f 3b 81 86 8c 31 98 25 5c 3c
       6e-45 0.0026704886 4.0898276e-09 0.013436697
000130 5a 52 67 33 04 00 00 00 37 ed 08 0d 2a 1f 69 22
       5.3858777e-08 6e-45 4.2193773e-31 3.1593886e-18
000140 75 d1 73 3b 62 53 a5 3a ee d8 e0 38 35 03 00 00
       0.0037203704 0.0012613351 0.00010721559 1.15e-42
000150 04 00 00 00 4a 31 23 3a 78 a1 c7 3a 3f 14 09 3c
       6e-45 0.0006225301 0.0015230617 0.008366643
000160 8a dd 02 3c 63 b3 e1 3b e5 55 b7 1e 04 00 00 00
       0.007987389 0.0068878396 1.9411404e-20 6e-45
000170 04 00 00 00 65 db 5c 3b 1a 19 f6 3b 04 00 00 00
       6e-45 0.0033700105 0.0075103166 6e-45
000180 08 c0 3e 00 f3 ca 8a 1a 07 e3 bd 3b b3 94 a7 3b
       5.762689e-39 5.7403344e-23 0.005794886 0.005114162
000190 b7 66 fe 14 5a ce 95 3b 7a e4 da 3a 03 2b 8e 07
       2.568796e-26 0.004571718 0.0016700171 2.1391065e-34
0001a0 04 00 00 00 04 00 00 00 5c 67 58 3a 04 00 00 00
       6e-45 6e-45 0.0008255148 6e-45
0001b0 cd 42 32 3c 1c 9a ed 39 04 00 00 00 04 00 00 00
       0.010880184 0.00045318983 6e-45 6e-45
0001c0 74 2d 2a 3c a0 2a cd 3b 04 00 00 00 04 00 00 00
       0.010386813 0.006261185 6e-45 6e-45
0001d0 ac e3 99 3b 0f 51 bf 07 19 9a fb 39 20 d7 86 3a
       0.00469633 2.8786128e-34 0.00047989262 0.0010287501
0001e0 26 d2 8e 14 04 00 00 00 04 00 00 00 1a be 53 19
       1.4421225e-26 6e-45 6e-45 1.0946835e-23
0001f0 04 00 00 00 c8 8c e7 39 04 00 00 00 c5 eb 06 3b
       6e-45 0.00044164644 6e-45 0.0020587307
000200 8a 3a 63 3c 04 00 00 00 93 f9 5f 1a 04 00 00 00
       0.013868937 6e-45 4.6316924e-23 6e-45
000210 04 00 00 00 58 20 6a 3b 22 0a b5 25 04 00 00 00
       6e-45 0.0035724845 3.140536e-16 6e-45
000220 2e 0b d8 2d f3 b7 94 3a 9c 51 af 36 da 8b be 38
       2.4561322e-11 0.0011346325 5.224907e-06 9.0859554e-05
000230 02 a2 c3 17 82 c1 b8 3c 04 00 00 00 2c d5 ce 09
       1.2642476e-24 0.02255321 6e-45 4.9793162e-33
000240 4f 05 eb 3b 3b b8 69 3b d8 5f 82 19 ee 5d bf 3a
       0.0071722637 0.0035662788 1.3480396e-23 0.0014600137
000250 04 00 00 00 22 00 00 00 9e 18 00 3b 04 00 00 00
       6e-45 4.8e-44 0.0019545923 6e-45
000260 04 00 00 00 27 67 4c 11 00 6b 8a 13 64 6f f1 34
       6e-45 1.6124549e-28 3.4941608e-27 4.4970795e-07
000270 4e f4 2d 3c 74 3d 89 39 04 00 00 00 07 f0 8c 3a
       0.010617329 0.00026176462 6e-45 0.0010752686
000280 04 00 00 00 9e 01 34 37 04 00 00 00 04 00 00 00
       6e-45 1.0729213e-05 6e-45 6e-45
000290 50 97 c5 34 a6 da 5a 0c 55 dc d9 28 ba c4 ba 28
       3.6804204e-07 1.6859906e-31 2.4187393e-14 2.0735465e-14
0002a0 8e 58 fa 3a b8 8c 56 38 c7 10 2d 09 d7 ba f6 22
       0.0019099878 5.115263e-05 2.0832006e-33 6.687626e-18
0002b0 04 00 00 00 4d 63 4b 1a a8 c9 54 27 44 7f 54 21
       6e-45 4.205963e-23 2.9530228e-15 7.199683e-19
0002c0 01 f6 40 16 04 00 00 00 04 00 00 00 a0 74 90 3b
       1.5587262e-25 6e-45 6e-45 0.004408434
0002d0 fc f0 ef 3a 4a 41 98 39 a6 bc 13 3b 04 00 00 00
       0.0018306072 0.00029040343 0.0022542863 6e-45
0002e0 32 a3 1e 3c 8d 9c 52 3b e8 c6 17 13 40 ed 37 3c
       0.0096824635 0.0032136769 1.9156948e-27 0.011225998
0002f0 04 00 00 00 8d 47 89 3c b9 00 76 3b 97 e4 44 3a
       6e-45 0.01675775 0.0037537052 0.0007510869
000300 a1 02 72 1e e4 3f 69 3c 1b 65 32 3c 04 00 00 00
       1.2811917e-20 0.014236424 0.010888363 6e-45
000310 88 da 19 2f 71 6c 27 3c 8a 54 6b 23 d7 fe f3 3b
       1.3992907e-10 0.010218726 1.2757277e-17 0.0074461508
000320 6a d4 ec 19 d4 01 00 00 75 8b 18 3c 04 00 00 00
       2.4487621e-23 6.56e-43 0.009310593 6e-45
000330 07 00 00 00 a3 2b 49 04 c5 aa 08 26 44 1c 01 33
       1e-44 2.3647473e-36 4.7415914e-16 3.006086e-08
000340 58 fb 0f 33 4d 3c 44 3c 7f 5a 26 0c 04 00 00 00
       3.3523378e-08 0.011977267 1.2815408e-31 6e-45
000350 04 00 00 00 47 f0 e2 3a 64 48 4a 3a 9d a4 a7 2c
       6e-45 0.001731404 0.00077164755 4.7647012e-12
000360 04 00 00 00 b7 ea c1 3b f3 f8 cc 3b e4 71 fd 14
       6e-45 0.005917873 0.006255263 2.5591393e-26
000370 ea 18 08 19 81 75 9c 36 8f d7 70 39 04 00 00 00
       7.0360666e-24 4.6628415e-06 0.00022968485 6e-45
000380 04 00 00 00 20 96 e6 3b 04 00 00 00 4e 26 62 3c
       6e-45 0.0070369393 6e-45 0.013803078
000390 e9 a3 f5 22 d5 87 02 3c 69 2b 38 39 9f 76 19 3c
       6.658093e-18 0.007966955 0.00017563779 0.00936666
0003a0 04 00 00 00 3d be 08 21 48 0a 98 03 37 bd bd 3b
       6e-45 4.633037e-19 8.9361175e-37 0.0057903784
0003b0 da 53 aa 3c c6 2a 1b 3c f1 e6 28 38 92 8c 50 37
       0.020791937 0.009470647 4.0269402e-05 1.2430495e-05
0003c0 c5 31 fe 1c c2 bf 65 3c 90 04 00 00 09 dd 39 3b
       1.6821175e-21 0.014022769 1.637e-42 0.0028360507
0003d0 04 00 00 00 3c 0f 18 3a 51 19 32 3c 52 19 cb 3b
       6e-45 0.000580061 0.010870294 0.006198087
0003e0 04 00 00 00 04 00 00 00 6c d8 fd 3a 04 00 00 00
       6e-45 6e-45 0.0019366867 6e-45
0003f0 a8 aa a7 16 cc 23 f2 21 28 68 41 0e 4c a7 df 3a
       2.7088004e-25 1.6408033e-18 2.3839236e-30 0.0017063408
