training_results/training_synergies_results/training_20250607_121807/FCNN_10_PCA.pth (torch, 718081 bytes, 18 tensors)

net.0.weight f4 [512, 4]
0	0xbe06198e	-0.13095686
1	0x3d872e12	0.06600584
2	0xbdc10149	-0.09424073
3	0x3d9dfec3	0.077146076
4	0xa5fdfaae	-4.405837e-16
5	0x24ca94ed	8.7855826e-17
6	0xa5bd1804	-3.2802547e-16
7	0xa61f86d7	-5.534695e-16
8	0x3d8b5481	0.06803227
9	0xbeee2846	-0.465151
10	0x3d8a187e	0.06742953
11	0x3d5517a0	0.052024484
12	0x2d1ba6c6	8.847761e-12
13	0xad95c5c6	-1.7027168e-11
14	0xaea54a29	-7.516505e-11
15	0xae54f6e1	-4.842249e-11
16	0x3e2e5d97	0.17027889
17	0xbccc5a45	-0.024945388
18	0xbd1a31ca	-0.03764514
19	0xbe05abcc	-0.13053817
20	0xa823ab5d	-9.085476e-15
21	0xa81bb7a3	-8.644048e-15
22	0xa89ed591	-1.7634143e-14
23	0xa71fa145	-2.2153107e-15
24	0x3c4aabd5	0.0123700695
25	0x3d6e6076	0.05819746
26	0x3de91f07	0.11382871
27	0xbed3b306	-0.41347522
28	0xa45bfab9	-4.7700426e-17
29	0xa4a73605	-7.251622e-17
30	0xa54a6cf2	-1.7557619e-16
31	0xa511f44a	-1.2659514e-16
32	0xbf1958d7	-0.59901184
33	0x3da0407d	0.078248
34	0xbd27dcf9	-0.04098222
35	0x3eb4a563	0.3528243
36	0x3e91c22a	0.28468448
37	0xbdab33ca	-0.08359487
38	0x3ebdaf98	0.3704803
39	0xbf0f7c1d	-0.56048757
40	0xbec38946	-0.3819067
41	0x3db340c1	0.08752585
42	0xbea7a918	-0.32746196
43	0x3e481134	0.19537812
44	0x3c7b0ce8	0.015322901
45	0xbf044bf8	-0.5167842
46	0x3d491c6f	0.049099382
47	0x3d4712ec	0.04860203
48	0xbe1869ba	-0.14884081
49	0xbd098d00	-0.033581734
50	0x3da7b84d	0.081894495
51	0x3dfa17ff	0.12211608
52	0xbe111b62	-0.14170602
53	0x3c566aa6	0.01308695
54	0xbe8a76f1	-0.2704387
55	0x3eb1a959	0.34699515
56	0xbf22f79a	-0.6365906
57	0xbb86cd90	-0.0041138604
58	0x3ecd7cf1	0.40134385
59	0xbc59fbc1	-0.013304652
60	0x9ef5186b	-2.5950483e-20
61	0x9ee121ba	-2.383675e-20
62	0x9ebc56ef	-1.9941229e-20
63	0x1e43e856	1.037126e-20
64	0x3d2f2368	0.042758375
65	0xbe889539	-0.26676348
66	0xbf0eb703	-0.55748004
67	0x3b7d7fcd	0.0038680912
68	0xbe52b28b	-0.20575921
69	0xbddd0acc	-0.10793075
70	0xbec244ec	-0.37943208
71	0xbc2d83ca	-0.010590503
72	0xbc190408	-0.00933934
73	0xbf129cd5	-0.57270557
74	0x3b324d76	0.0027206815
75	0x3b9d9bbb	0.0048098243
76	0x8370f4de	-7.0810755e-37
77	0x833fab3e	-5.632643e-37
78	0x835c88db	-6.480929e-37
79	0x0306308e	3.94348e-37
80	0x83e3a4b9	-1.3379679e-36
81	0x8375ff91	-7.2292405e-37
82	0x83e55e2c	-1.3481031e-36
83	0x837391b6	-7.157855e-37
84	0xbe077c73	-0.13231067
85	0xb95b4a80	-0.00020913221
86	0xbe8ebaa3	-0.27876768
87	0xbea7ec63	-0.32797536
88	0x3db403b9	0.087897725
89	0x3e0c6d16	0.13713488
90	0xbe3ae543	-0.18251519
91	0x3e034749	0.12820162
92	0x3f091027	0.5354027
93	0x3ca19559	0.019724535
94	0x3c4fbf03	0.012679818
95	0xbe6ec567	-0.2331749
96	0xbd0dd551	-0.034627263
97	0xbe9f6597	-0.31132194
98	0x3d1daf08	0.038497
99	0xbf062128	-0.5239434
100	0xbb692065	-0.0035572287
101	0xbb858a71	-0.0040753414
102	0xbf08dce0	-0.5346203
103	0xbb30a761	-0.0026955234
104	0x3b54eb1e	0.0032488774
105	0x3bedfe71	0.007262998
106	0xbf0dc195	-0.5537351
107	0x3bc91d37	0.006137516
108	0xac8deb82	-4.0336076e-12
109	0xacd473dd	-6.038266e-12
110	0x2b3b4526	6.653171e-13
111	0xac9d1bf9	-4.465314e-12
112	0x3de5da4f	0.1122328
113	0xbc0247c7	-0.007951683
114	0x3e9cb041	0.3060322
115	0xbdfff78a	-0.12498386
116	0xa0b12a3b	-3.0012912e-19
117	0xa067910a	-1.961445e-19
118	0xa11537bf	-5.0556943e-19
119	0x9d8f6aaa	-3.7962073e-21
120	0x0495eec3	3.5249e-36
121	0x84930a25	-3.456885e-36
122	0x8492f5e6	-3.4550257e-36
123	0x8491c81c	-3.4273108e-36
124	0xbf3a866f	-0.7286138
125	0x3ca2c3c3	0.019868737
126	0xbba56520	-0.0050474554
127	0x3e14235c	0.14466614
128	0xbdb0f906	-0.086412475
129	0x3df30bdd	0.11867497
130	0x3ea8f2e4	0.3299781
131	0xbdc4f009	-0.096160956
132	0x3e21751d	0.15767331
133	0x3d0a6830	0.033790767
134	0x3db7548a	0.089516714
135	0xbe8219b1	-0.25410226
136	0x3ef8b91e	0.48578733
137	0x3ee13db7	0.43992397
138	0xbefea253	-0.4973322
139	0x3e5f428f	0.21802734
140	0x85269e9e	-7.834416e-36
141	0x8486c500	-3.1684165e-36
142	0x84b70a35	-4.3032467e-36
143	0x048efb03	3.3614557e-36
144	0xbd8fe847	-0.07026725
145	0xbf2acdd7	-0.66720337
146	0x3d4dcb49	0.050242696
147	0x3d2d6bfc	0.04233931
148	0x3cb752d5	0.022378365
149	0xbf0984f9	-0.53718525
150	0xbedc2803	-0.42999277
151	0xbd13ac37	-0.03605291
152	0xa1b6fb51	-1.2399323e-18
153	0x21c39aa1	1.3254644e-18
154	0x9f81866e	-5.485602e-20
155	0xa1125328	-4.957678e-19
156	0x84bc9f0a	-4.4344642e-36
157	0x842fc166	-2.0659955e-36
158	0x83c5733e	-1.1605078e-36
159	0x038b7e8d	8.19874e-37
160	0x3ca2ec19	0.01988797
161	0xbeb61757	-0.35564682
162	0x3ed3ea4e	0.41389698
163	0x3c43b3a5	0.011944686
164	0x3e7f942e	0.2495887
165	0xbd415dee	-0.04720872
166	0xbd403197	-0.046922293
167	0xbe61188d	-0.21982022
168	0x3edcbbdf	0.43112084
169	0x3f034f95	0.5129331
170	0xbecdb8fc	-0.40180194
171	0x3cc70039	0.024292098
172	0xbe232d4b	-0.15935247
173	0xbda61ec7	-0.08111339
174	0x3efefd71	0.49802735
175	0x3e9a8a4f	0.30183646
176	0xbeab84ce	-0.3349976
177	0x3dfc37d8	0.12315339
178	0x3ec08f83	0.3760949
179	0x3e8e7518	0.2782371
180	0x28ac9ecc	1.9164703e-14
181	0xabf33ea3	-1.7283574e-12
182	0xabe5c839	-1.6327002e-12
183	0xac07c86d	-1.9295913e-12
184	0x0ca3a8b7	2.5215668e-31
185	0x8e21feda	-1.9967489e-30
186	0x8e164fdc	-1.8527378e-30
187	0x8dbcb455	-1.1629808e-30
188	0xbca28f10	-0.019843608
189	0x3eb94bcd	0.36190644
190	0xbcee7857	-0.029110117
191	0xbd121433	-0.035663795
192	0xbed866a0	-0.42265797
193	0xbbd888d0	-0.006608106
194	0xbeb19bc4	-0.34689152
195	0xbe3d743d	-0.18501373
196	0x3e8bb85e	0.27289099
197	0xbe3dc44f	-0.18531917
198	0x3ddf2704	0.108961135
199	0xbe8bc3da	-0.2729786
200	0x2292eb15	3.9822282e-18
201	0xa32459f0	-8.909503e-18
202	0xa1952cb3	-1.0108465e-18
203	0xa3164b77	-8.147497e-18
204	0x3e90cd7c	0.28281772
205	0x3e3d49b3	0.18485145
206	0xbe9d6740	-0.30742836
207	0xbe993a29	-0.29927185
208	0x2dd96e9a	2.471916e-11
209	0x2f2a9ada	1.5516424e-10
210	0xaf808832	-2.3379837e-10
211	0x2f0538c2	1.2116444e-10
212	0x3dc54ec2	0.096341625
213	0x3d22d716	0.039755903
214	0xbe5be86a	-0.21475378
215	0xbe7b29eb	-0.24527709
216	0x3e36acab	0.17839305
217	0x3e1633dc	0.1466822
218	0x3ee55bb8	0.44796538
219	0x3c24803c	0.010040339
220	0x3e5155e8	0.20442927
221	0x3c9f0669	0.019412236
222	0xbeed672f	-0.46367785
223	0xbf1240dc	-0.5713022
224	0xbe500fb7	-0.20318495
225	0x3da085e5	0.07838038
226	0xbd7b5430	-0.061359584
227	0x3df2f135	0.11862413
228	0x2195e066	1.015603e-18
229	0xa1ce7a94	-1.3991549e-18
230	0x211fa532	5.408993e-19
231	0xa27d5a3e	-3.4335668e-18
232	0x83a60fdc	-9.760244e-37
233	0x031c0de0	4.5860207e-37
234	0x840932c2	-1.612758e-36
235	0x83ccb85e	-1.2032371e-36
236	0x18886871	3.5260635e-24
237	0x9883ea67	-3.4099392e-24
238	0x98984002	-3.935571e-24
239	0x99837b37	-1.3594849e-23
240	0x3c270dc9	0.010196158
241	0x3ddce6b2	0.10786189
242	0xbf04a8a7	-0.51819843
243	0x3e0bc8a2	0.13650754
244	0x3981d06d	0.00024760087
245	0xb92fbc88	-0.00016759534
246	0xba32a495	-0.0006814686
247	0xb98778b5	-0.0002583914
248	0xbe962e1e	-0.2933206
249	0xbc275c4c	-0.010214876
250	0x3e1fd274	0.15607625
251	0x3d1d4e69	0.038404856
252	0xbd0daca7	-0.034588482
253	0x3e35f11e	0.1776776
254	0x3eb92a68	0.36165166
255	0xbe0009a7	-0.12503682

net.0.bias f4 [512]
0	0xbe029fd7	-0.12756287
1	0xa4d5c27f	-9.2703514e-17
2	0x3e7af4ff	0.24507521
3	0xae8076c0	-5.84186e-11
4	0xbe03001d	-0.12793012
5	0xa828d137	-9.37124e-15
6	0x3e1f512c	0.15558308
7	0x2385179a	1.4429885e-17
8	0x3d6484dd	0.05579077
9	0xbe85a5c7	-0.2610304
10	0x3dfa5161	0.12222553
11	0x3e6d69b1	0.2318485
12	0xbe402ea4	-0.18767792
13	0xbe87734f	-0.2645516
14	0xbdccd43a	-0.100014165
15	0x9f7e0ca8	-5.379706e-20
16	0x3e4e62bc	0.20154852
17	0x3e9f31a0	0.31092548
18	0x3e60fddd	0.21971841
19	0x83da4195	-1.2827945e-36
20	0x83d119a0	-1.2289799e-36
21	0x3df2d9f9	0.11857981
22	0xbe7166ec	-0.23574418
23	0xbeb93445	-0.3617269
24	0x3ec36c85	0.3816873
25	0x3dfeb80c	0.12437448
26	0x3e2d17ea	0.16903654
27	0xac0269cf	-1.8532847e-12
28	0xbdb0dca1	-0.086358316
29	0xa0545b9a	-1.7987407e-19
30	0x84953c06	-3.5084854e-36
31	0x3ba318b8	0.004977312
32	0x3d00b655	0.031423885
33	0x3daa9a37	0.083301954
34	0xbea8bfcc	-0.3295883
35	0x8527a3a6	-7.88236e-36
36	0x3edaa128	0.42701077
37	0x3e14b889	0.1452352
38	0xa1bc9a95	-1.2780293e-18
39	0x852592b8	-7.785211e-36
40	0xbe665c29	-0.22496094
41	0xbe3d05d6	-0.18459257
42	0xbece7e41	-0.403307
43	0xbe9f4c4b	-0.31112894
44	0xbe790436	-0.24318013
45	0xab980f38	-1.0804474e-12
46	0x8da0073d	-9.862504e-31
47	0xbeb30542	-0.3496495
48	0x3eb0498e	0.34431118
49	0xbe8b1338	-0.271631
50	0xa3849a12	-1.437672e-17
51	0xbe4d3d4a	-0.20042911
52	0x2c420045	2.7569208e-12
53	0x3e6cf5a7	0.23140584
54	0xbe1a1c57	-0.15049873
55	0x3e833f67	0.2563431
56	0xbe3e67c6	-0.18594274
57	0xa2199eef	-2.0819505e-18
58	0x83f5c4cc	-1.4444988e-36
59	0x9984a749	-1.3716046e-23
60	0x3e413dfa	0.18871298
61	0x3a53d03c	0.00080800406
62	0xbe46f389	-0.19428839
63	0xbdc7d1e9	-0.09756834
64	0xbd7886e7	-0.060675528
65	0x3dab823e	0.08374451
66	0x2e51187b	4.754284e-11
67	0xbd8da955	-0.06917063
68	0x3d6ee032	0.058319278
69	0x3e4a5f36	0.19762883
70	0xa79ae959	-4.2996582e-15
71	0x3e17c2c0	0.14820385
72	0x3e747749	0.23873629
73	0xbe65b9cc	-0.22434157
74	0x9f9764ba	-6.4117626e-20
75	0xbd67be66	-0.056578062
76	0x976b3df7	-7.6010806e-25
77	0x3e554829	0.20828308
78	0x3e20a72d	0.15688772
79	0x3e8ecbf5	0.27889982
80	0x3d6eca98	0.058298677
81	0xbd90da96	-0.07072942
82	0x3d3bc2b5	0.045839984
83	0xbd96f5b6	-0.073710844
84	0xbd855055	-0.06509463
85	0xbeb911af	-0.36146304
86	0xbe1c8991	-0.15286852
87	0xbdf0e872	-0.117630854
88	0xbe9b79bc	-0.30366313
89	0xbe75720a	-0.23969284
90	0x3b36c6b9	0.0027889444
91	0x2ba6e682	1.1858988e-12
92	0x1804ea27	1.7178817e-24
93	0xbdf9db06	-0.121999785
94	0xa50df56b	-1.2312951e-16
95	0xac67cf55	-3.2942167e-12
96	0xa56ab5b3	-2.0357827e-16
97	0x3d019744	0.0316384
98	0x89dc5344	-5.3041376e-33
99	0x3dda6e53	0.10665574
100	0xa62d4394	-6.011302e-16
101	0xbdfb6121	-0.12274385
102	0x85245a5f	-7.7278415e-36
103	0xaf0f9786	-1.3059606e-10
104	0x86bb39a0	-7.0426254e-35
105	0x83d3ec3d	-1.2455703e-36
106	0xbeb0f2c9	-0.3456023
107	0xa7b57d49	-5.0373426e-15
108	0xa8db7059	-2.4362607e-14
109	0x8401f96a	-1.5278402e-36
110	0xbe5de2d7	-0.21668564
111	0xa6d2f4e0	-1.4638051e-15
112	0xbebf8769	-0.37407997
113	0x8285be8b	-1.965196e-37
114	0x3e427a82	0.18992046
115	0x9e0b0221	-7.359039e-21
116	0xa09d8598	-2.668524e-19
117	0xa33b2fd5	-1.0147419e-17
118	0x9cf6e782	-1.6338758e-21
119	0xb9503563	-0.00019856314
120	0xbee7c2ed	-0.45265904
121	0x2eb46579	8.2034775e-11
122	0xadbdbe25	-2.1571253e-11
123	0x84948888	-3.4920017e-36
124	0xbc581182	-0.013187768
125	0x896f58f9	-2.8810413e-33
126	0xbe642c7a	-0.22282591
127	0xbe58af6a	-0.21160665
128	0x83c7a43c	-1.1733875e-36
129	0xbde92ab8	-0.11385101
130	0x9c1653b2	-4.973901e-22
131	0xbe827f87	-0.2548792
132	0xbec9b1a5	-0.39393345
133	0x848f30bb	-3.366389e-36
134	0xa83dde05	-1.053975e-14
135	0x3e72bd24	0.23704964
136	0xbe08cd12	-0.13359478
137	0xbe5f09f3	-0.21781139
138	0xa5ae0fb3	-3.0194827e-16
139	0xbeb37a70	-0.3505435
140	0xbca5e7ba	-0.020252097
141	0x8522522f	-7.632298e-36
142	0xbeb30123	-0.34961805
143	0x3d72b390	0.059253275
144	0x8f24ee13	-8.131676e-30
145	0xbf0c2274	-0.5474007
146	0xbda3610e	-0.07977496
147	0xbee0179f	-0.4376802
148	0xbe8f3656	-0.27971143
149	0x85253d4c	-7.769521e-36
150	0x3d91d154	0.07120004
151	0xbe47ee76	-0.1952456
152	0xbe3e12d1	-0.18561865
153	0x3e4a11c7	0.19733344
154	0xa053c39b	-1.7937116e-19
155	0xaa5ef214	-1.9801549e-13
156	0x3e4ea5b4	0.20180398
157	0x3e6659aa	0.22495142
158	0xbb938d7b	-0.00450295
159	0xbeb88837	-0.36041424
160	0x22134485	1.9958489e-18
161	0xa5e4925e	-3.9650878e-16
162	0xbebcea22	-0.3689738
163	0xbe08cc48	-0.13359177
164	0xbee87e15	-0.45408693
165	0xbede71c8	-0.43446183
166	0x3eb44e11	0.3521581
167	0x3e2776e5	0.16353948
168	0x3e2ed0ea	0.17071882
169	0xbe831a99	-0.2560623
170	0xbe1258c9	-0.14291681
171	0xaa48b61c	-1.782675e-13
172	0xa74057fe	-2.6693053e-15
173	0x3e273233	0.16327743
174	0xaf21b3bc	-1.4706719e-10
175	0xbe3b3470	-0.18281722
176	0x852471f2	-7.7321714e-36
177	0xbe06cc3d	-0.13163848
178	0x28fd4221	2.8117321e-14
179	0xbdc2ef0f	-0.09518253
180	0xbe48647f	-0.19569586
181	0xbee7b102	-0.45252234
182	0xbee9f2a4	-0.45692933
183	0x9e6c7a0c	-1.2518975e-20
184	0xbd9b9dfa	-0.07598491
185	0x3ed09177	0.4073598
186	0xbe784068	-0.24243319
187	0x3e46e763	0.19424205
188	0xbd987e66	-0.074459836
189	0x3eab97f3	0.33514366
190	0xa2294eec	-2.2945552e-18
191	0xbde7d2c4	-0.11319497
192	0xbd95cf4c	-0.07314929
193	0x3eb260a4	0.34839356
194	0x9fa48bd0	-6.9688e-20
195	0x9b980dde	-2.5155252e-22
196	0xbe22b1e3	-0.15888171
197	0x997bdc58	-1.3020894e-23
198	0xbe1de114	-0.15417892
199	0xbe7aaa2a	-0.24478975
200	0xbec11d1d	-0.37717524
201	0xab53ead9	-7.5288175e-13
202	0xbec811ea	-0.39076167
203	0x948e65b5	-1.4378452e-26
204	0x3e10e45a	0.14149609
205	0xbe27e6d0	-0.16396642
206	0xa8a35e8c	-1.8137638e-14
207	0x8ef3a56d	-6.0063424e-30
208	0xaeb3a777	-8.169725e-11
209	0x3dde5829	0.10856659
210	0xbe901ff6	-0.28149384
211	0xa061cb16	-1.9125437e-19
212	0xaeeb0d2d	-1.0688903e-10
213	0x966cd3bc	-1.913074e-25
214	0xb1a14783	-4.6938466e-09
215	0xbe9dbb7f	-0.3080711
216	0xad2ed7f8	-9.93871e-12
217	0x85261b25	-7.810268e-36
218	0x3e4a51d9	0.19757785
219	0xaa492f6e	-1.7868842e-13
220	0x8317f69c	-4.4658005e-37
221	0xbd4d1d4c	-0.050076768
222	0x3e3d04f5	0.18458922
223	0x3dddfa5f	0.1083877
224	0x3ea23430	0.3168044
225	0xac3da4c9	-2.694999e-12
226	0xbea538a7	-0.32269785
227	0x3e444088	0.19165242
228	0x8ee1b35c	-5.56395e-30
229	0x8497b5a6	-3.5666747e-36
230	0x3eb261ac	0.34840143
231	0xbe7e1591	-0.24812914
232	0xbec51f34	-0.3850037
233	0xa2645caa	-3.0948818e-18
234	0xbe091632	-0.13387373
235	0xbe94a998	-0.2903564
236	0xbe41ee71	-0.18938614
237	0xbe101fae	-0.14074585
238	0x85255157	-7.7732025e-36
239	0x3bcb1ecd	0.00619874
240	0xbe9af48c	-0.302647
241	0xbe26800b	-0.16259782
242	0x9d361b59	-2.4101638e-21
243	0xbe44093d	-0.19144149
244	0xbe2b6da7	-0.16741048
245	0x86bb397a	-7.0426036e-35
246	0xa4925a61	-6.3470515e-17
247	0xa0889562	-2.313815e-19
248	0x3d61bd78	0.055112332
249	0xbed90afe	-0.423912
250	0x94c82f5d	-2.021352e-26
251	0x9cfc2e60	-1.6687949e-21
252	0xbd95337b	-0.0728521
253	0x3e0911af	0.13385652
254	0x9e616dee	-1.1934134e-20
255	0xa7499565	-2.797534e-15

net.2.weight f4 [512]
0	0x3e54a558	0.20766199
1	0x27b9f260	5.16106e-15
2	0x3e32a662	0.17446283
3	0x321ef2c1	9.252006e-09
4	0x3ea31eac	0.31859338
5	0x2c4270fc	2.7631777e-12
6	0x3e42f682	0.19039348
7	0x26d93d73	1.5074056e-15
8	0x3f02bd97	0.5107054
9	0x3ee7cb10	0.45272112
10	0x3dfca035	0.123352446
11	0x3f4d7ddf	0.8027019
12	0x3e450d23	0.19243293
13	0x3f0633df	0.524229
14	0x3f31a893	0.6939785
15	0xa2010270	-1.748405e-18
16	0x3f482099	0.7817474
17	0x3e906006	0.2819826
18	0x3f421d9e	0.7582644
19	0x8121e456	-2.9734853e-38
20	0x8247e689	-1.4686371e-37
21	0x3e4e7a16	0.2016376
22	0x3e17c197	0.14819942
23	0x3f33e159	0.7026573
24	0x3e6c8545	0.23097713
25	0x3fb6d5db	1.4284014
26	0x3f9c7715	1.2223841
27	0xb0c4e8bf	-1.4327027e-09
28	0x3d83abe4	0.0642927
29	0xa250346e	-2.8217013e-18
30	0x830ebbc6	-4.1945603e-37
31	0x3f733212	0.94998276
32	0x3d393322	0.04521478
33	0x3cbcb70f	0.023036508
34	0x3f0e358b	0.5555045
35	0x84356bd1	-2.1325955e-36
36	0x3ec57164	0.38563073
37	0x3f0bf598	0.5467162
38	0x21e95798	1.581188e-18
39	0x05178b86	7.125612e-36
40	0x3f0d073f	0.5508918
41	0x3ed5fd9e	0.41795057
42	0x3ef358a7	0.47528574
43	0x3e3b8b80	0.18314934
44	0x3de3bacb	0.11119612
45	0xafc2f35b	-3.546131e-10
46	0x90382f73	-3.6324155e-29
47	0x3f44aef9	0.7682949
48	0x3e8679a1	0.2626467
49	0x3e97fb16	0.2968375
50	0x26220d5f	5.622316e-16
51	0x3e047a77	0.12937342
52	0xaf11b036	-1.3250276e-10
53	0x3c96f0a0	0.018425286
54	0x3deb7734	0.114973456
55	0x3ed33377	0.41250202
56	0x3ed1f97a	0.41010648
57	0x251ade5e	1.3432712e-16
58	0x838e38d5	-8.359058e-37
59	0x1b400756	1.5884238e-22
60	0x3ed055ac	0.40690362
61	0x38f4c6a8	0.00011671829
62	0x3f1a490e	0.6026772
63	0x3da39fda	0.07989474
64	0x3dcea602	0.10090257
65	0x3eb397a5	0.35076633
66	0xaeb0aa51	-8.0338076e-11
67	0x3dcb8ea1	0.09939314
68	0x3eb2b122	0.34900767
69	0x3ec451da	0.38343698
70	0xaa947796	-2.637306e-13
71	0x3e580926	0.2109724
72	0x3d6d1167	0.057877924
73	0x3ec31135	0.38099065
74	0x21c76ef1	1.351413e-18
75	0x3e152db3	0.14568214
76	0x9a867f68	-5.562694e-23
77	0x3f49f7b1	0.7889357
78	0x3dfcdcc9	0.12346799
79	0x3ec0e4d1	0.37674573
80	0x3ef5f51c	0.48038566
81	0x3df7358a	0.12070759
82	0x3dc0011a	0.0937521
83	0x3da7b63d	0.08189056
84	0x3e40f1e8	0.1884228
85	0x3f699080	0.91236115
86	0x3f17ec9c	0.5934541
87	0x3e140eb1	0.1445873
88	0x3e92b1f7	0.286514
89	0x3ea3892e	0.31940597
90	0x3d543d22	0.051816113
91	0x29943c60	6.582994e-14
92	0x1869dd27	3.0226198e-24
93	0x3f13019e	0.5742434
94	0x28d3a4dc	2.3497202e-14
95	0x30f43537	1.7768461e-09
96	0xa9178af3	-3.3649255e-14
97	0x3f3d861b	0.74032754
98	0x0d068832	4.1455877e-31
99	0x3f68b846	0.9090618
100	0xac7e9d3a	-3.618285e-12
101	0x3f7018c6	0.937878
102	0x850a2d68	-6.4970686e-36
103	0x32c6d0dc	2.3145212e-08
104	0x873d4416	-1.4238788e-34
105	0x827704c0	-1.8148057e-37
106	0x3fbdf59c	1.4840579
107	0xab396a70	-6.5872915e-13
108	0x2b057085	4.7407244e-13
109	0x834d34ad	-6.0304554e-37
110	0x3eaf8daf	0.34287784
111	0xa9e65ddf	-1.0230336e-13
112	0x3f9d9765	1.2311827
113	0x01b9d6f2	6.82667e-38
114	0x3e7267f2	0.23672464
115	0x222f0c3a	2.3723395e-18
116	0x24557b14	4.6291264e-17
117	0x2711fd2a	2.0260033e-15
118	0x1f5ffd0e	4.743141e-20
119	0x38adad81	8.2816005e-05
120	0x3f48948c	0.78351665
121	0xb01cc6f8	-5.703522e-10
122	0x3206a99c	7.838391e-09
123	0x847dcc40	-2.9833794e-36
124	0x3dc4bd2f	0.096063964
125	0x8b5c9cc2	-4.248839e-32
126	0x3edc3659	0.43010214
127	0x3f87e0f7	1.0615529
128	0x82943423	-2.177657e-37
129	0x3ea2cb38	0.3179567
130	0x21317f87	6.0138714e-19
131	0x3e8b8ba2	0.2725497
132	0x3f49458e	0.7862176
133	0x045060bc	2.44947e-36
134	0x2c878d81	3.852641e-12
135	0x3f8a9731	1.082739
136	0x3df8db5c	0.121512145
137	0x3e9bd815	0.30438295
138	0xa9ba6771	-8.2780035e-14
139	0x3ecce104	0.40015423
140	0x3f27235c	0.6528833
141	0x05b12d19	1.6661566e-35
142	0x3fd4a56f	1.6612986
143	0x3eb56e9b	0.35435948
144	0x91bf6951	-3.0199393e-28
145	0x3f0aa7b5	0.5416215
146	0x3f11d11f	0.5695972
147	0x3f3c8a7a	0.736488
148	0x3edd365f	0.43205544
149	0x0488d6aa	3.2170584e-36
150	0x3ef0db79	0.47042444
151	0x3f028027	0.50976795
152	0x3f0a991e	0.5413989
153	0x3f49a944	0.78773904
154	0xa3f8469c	-2.6918118e-17
155	0x2d35368a	1.0300769e-11
156	0x3f6d5ea4	0.92722535
157	0x3ecf420a	0.4048007
158	0x3de72c11	0.11287702
159	0x3f3a4e7b	0.72776
160	0xa50a18d1	-1.1978e-16
161	0x27ab49bb	4.7541973e-15
162	0x3f194343	0.5986826
163	0x3f0c3013	0.54760855
164	0x3fd1036f	1.6329173
165	0x3f04140e	0.515931
166	0x3e9c2bb0	0.3050208
167	0x3f98a5d8	1.1925611
168	0x3f8900c6	1.0703361
169	0x3f3ed5d7	0.74545044
170	0x3ea7feb0	0.328115
171	0xad946413	-1.6870094e-11
172	0x29eaa446	1.04201844e-13
173	0x3efe149e	0.49625105
174	0x357a630d	9.3276395e-07
175	0x3f20b14d	0.6277054
176	0x05b18fe4	1.6697857e-35
177	0x3e68ecc8	0.22746575
178	0x2c47bda6	2.8384877e-12
179	0x3e8e5a83	0.2780343
180	0x3e9873ed	0.29775944
181	0x3f44785e	0.76746166
182	0x3e1afb28	0.15134871
183	0x2199b0c1	1.041447e-18
184	0x3ea3492b	0.3189176
185	0x3f31284f	0.6920213
186	0x3f525151	0.8215533
187	0x3f26173d	0.6487921
188	0x3e3b3741	0.18282796
189	0x3f92ed76	1.1478717
190	0xa63ed9b6	-6.6214545e-16
191	0x3f60d2d0	0.87821674
192	0x3e07fac7	0.13279258
193	0x3f883dcb	1.0643858
194	0x235b5530	1.1890053e-17
195	0x1f501a46	4.4067446e-20
196	0x3f250c93	0.6447231
197	0x1ea24882	1.7182406e-20
198	0x3ee3cac0	0.44490623
199	0x3edf0817	0.4356086
200	0x3f601092	0.87525284
201	0x2f359e2e	1.6518051e-10
202	0x3e9cb84c	0.30609357
203	0x95d3ecd7	-8.559589e-26
204	0x3f58a5ce	0.84628
205	0x3ea5a229	0.3235028
206	0xaca32958	-4.6373287e-12
207	0x915c2854	-1.7367367e-28
208	0xaf16ddab	-1.3721173e-10
209	0x3ec4019a	0.38282472
210	0x3f0e86de	0.5567454
211	0xa403f1bb	-2.861085e-17
212	0xb30a36b2	-3.2180374e-08
213	0x990172af	-6.692304e-24
214	0xb5a27efe	-1.21069e-06
215	0x3f81bbaf	1.0135401
216	0xb1a37f10	-4.7583697e-09
217	0x82bf1d22	-2.808165e-37
218	0x3ecc616a	0.3991807
219	0xad1144ec	-8.2575995e-12
220	0x0178efb6	4.572239e-38
221	0x3deb8894	0.115006596
222	0x3e592ccd	0.21208496
223	0x3eb2a431	0.34890893
224	0x3ec7894b	0.38971934
225	0xb126ee0b	-2.429149e-09
226	0x3f2f0046	0.6835979
227	0x3e72b3cb	0.23701398
228	0x108a9c6b	5.46724e-29
229	0x84208400	-1.8868521e-36
230	0x3f0418a5	0.51600105
231	0x3e157b30	0.14597774
232	0x3f08ccbf	0.5343742
233	0x2604785c	4.5959817e-16
234	0x3e60558a	0.2190763
235	0x3e116d54	0.14201862
236	0x3eb4f4fe	0.35343164
237	0x3f16ed85	0.58956176
238	0x84cc9bb6	-4.8103167e-36
239	0x3e061cae	0.13096878
240	0x3f45f3f5	0.77325374
241	0x3e5fa223	0.21839194
242	0x23512b1d	1.1339042e-17
243	0x3f17fe2d	0.59372216
244	0x3eabf85c	0.3358792
245	0x0739595f	1.3944117e-34
246	0x2732125c	2.4712415e-15
247	0x235ea8b9	1.20703725e-17
248	0x3c03cfe9	0.008045175
249	0x3e53fa81	0.20701028
250	0x9598e501	-6.1753616e-26
251	0xa094b1fd	-2.5189958e-19
252	0x3bb0bc2b	0.005393525
253	0x3f4b3647	0.79379696
254	0x23f51544	2.657196e-17
255	0x27ca67d5	5.6178838e-15

net.2.bias f4 [512]
0	0xbd11c080	-0.035583973
1	0x388daf18	6.756018e-05
2	0xbcc49e57	-0.024001284
3	0xb7806eea	-1.5310437e-05
4	0x3d55df1e	0.052214734
5	0xb88b80b2	-6.652008e-05
6	0x3d44a37c	0.048007473
7	0x38906d8a	6.886858e-05
8	0x3d5c0982	0.053720005
9	0x3e149cc4	0.14512926
10	0x3d1bc31a	0.03802786
11	0x3d73417c	0.059388623
12	0xbbe9b676	-0.0071323467
13	0x3e25f4b2	0.16206625
14	0x3ddc96f0	0.107709765
15	0xb8418144	-4.6135174e-05
16	0x3e67166d	0.22567149
17	0x3e258242	0.1616297
18	0x3e699455	0.2281049
19	0xb892493c	-6.9754635e-05
20	0x3869c782	5.5737335e-05
21	0x3d6881de	0.056764476
22	0x3c83fbd5	0.016111294
23	0x3dc18e88	0.09451014
24	0x3e1ac145	0.15112789
25	0x3d657a07	0.056024577
26	0x3e829aef	0.2550883
27	0xb8847c3c	-6.317391e-05
28	0x3d12ce04	0.035841003
29	0xb82c145a	-4.102695e-05
30	0xb884c94c	-6.331745e-05
31	0xbe5d4602	-0.21608737
32	0xbd261ccd	-0.04055481
33	0xbbf075cf	-0.0073382626
34	0x3d147d89	0.036252532
35	0x37d6b92d	2.5597017e-05
36	0xbce4bfa9	-0.027923422
37	0x3ed76132	0.42066342
38	0xb892f46a	-7.007348e-05
39	0xb79ad4cd	-1.8457324e-05
40	0x3e2037be	0.15646264
41	0x3e3b3b95	0.18284447
42	0x3dc90099	0.09814567
43	0x3d652e74	0.055952504
44	0xbaae28b0	-0.0013287272
45	0xb82dd012	-4.1440195e-05
46	0xb81b2519	-3.698943e-05
47	0x3d6cf260	0.057848334
48	0x3e22bc19	0.15892066
49	0x3d062da1	0.03275836
50	0x388f32ec	6.828256e-05
51	0x3d62b80c	0.055351302
52	0xb80e6163	-3.3946137e-05
53	0x3b330d24	0.0027321065
54	0x3d12e6c3	0.035864603
55	0x3ebb02f1	0.36525682
56	0x3d08467c	0.033270344
57	0x38746ce6	5.8275553e-05
58	0xb8704755	-5.7286892e-05
59	0x385cdb45	5.2656298e-05
60	0x3dd64674	0.104626566
61	0xb7db711e	-2.6159509e-05
62	0x3d8d3e22	0.068966165
63	0x3d069d5d	0.032864917
64	0x3dcf51f3	0.101230524
65	0xbdae165c	-0.085003585
66	0x381c24b1	3.722747e-05
67	0x39943c76	0.00028273807
68	0x3b3fa602	0.0029243235
69	0x3e61f440	0.2206583
70	0xb783fa17	-1.5732874e-05
71	0xbe126c1c	-0.14299053
72	0x3d0c12b1	0.034197513
73	0x3ddd374b	0.10801562
74	0xb793dad3	-1.7625664e-05
75	0x3d9ee960	0.077593565
76	0x37df7fd9	2.6643205e-05
77	0x3e839942	0.25702864
78	0xbcc85e5b	-0.024459055
79	0x3e1adff8	0.151245
80	0xbd3f20af	-0.04666203
81	0x3bcb0c5e	0.0061965426
82	0x3d897f7a	0.06713767
83	0xbbd5af9e	-0.0065211793
84	0x3ad159df	0.0015972218
85	0x3dccca42	0.09999515
86	0x3e679659	0.22615947
87	0x3d4e386c	0.050346777
88	0x3e79ccec	0.24394578
89	0x3dd4a02b	0.10382112
90	0x3d428408	0.047489196
91	0xb81e91a5	-3.7805778e-05
92	0xb88c6b38	-6.695691e-05
93	0x3ccceb03	0.025014406
94	0x38199ff0	3.6626996e-05
95	0x3863f240	5.434663e-05
96	0x3846e58c	4.742066e-05
97	0x3e838876	0.2569005
98	0xb880ec4a	-6.147528e-05
99	0x3c301f00	0.0107495785
100	0xb7ed1e75	-2.8266784e-05
101	0x3d86603f	0.06561326
102	0x382763e5	3.9908937e-05
103	0x362127e6	2.4014093e-06
104	0xb814500a	-3.5360492e-05
105	0xb88f0344	-6.8193796e-05
106	0x3e166714	0.14687759
107	0x389ac1eb	7.379412e-05
108	0xb837b628	-4.3800246e-05
109	0x3813d480	3.5245437e-05
110	0x3e83554e	0.2565102
111	0xb82ee385	-4.1696727e-05
112	0x3d8f336c	0.0699223
113	0xb898c896	-7.285287e-05
114	0x3dd36ba2	0.10323264
115	0xb76da4f5	-1.4164708e-05
116	0xb8810314	-6.151773e-05
117	0xb7c8455e	-2.387416e-05
118	0xb7803701	-1.5284402e-05
119	0xb8c52a08	-9.401521e-05
120	0x3e21736a	0.15766683
121	0x383f4af4	4.5607754e-05
122	0xb84cac8a	-4.879808e-05
123	0x388f0a26	6.820662e-05
124	0xbe15a5cb	-0.14614026
125	0xb88f6934	-6.838367e-05
126	0x3e5aee96	0.21380076
127	0x3cf741dd	0.030182773
128	0xb88f3134	-6.827936e-05
129	0x3c11f553	0.0089085875
130	0x3870afac	5.7384066e-05
131	0x3e005105	0.12530906
132	0x3e37cfd2	0.17950371
133	0xb86f733b	-5.7089357e-05
134	0xb87342b2	-5.799783e-05
135	0x3ddabc46	0.106804416
136	0x3c91b94a	0.017788548
137	0x3d968d94	0.07351223
138	0x388bdb17	6.668845e-05
139	0x3d93ade0	0.072108984
140	0xbca2a5c4	-0.019854434
141	0x388ec9ad	6.808653e-05
142	0xbd80bb01	-0.06285668
143	0x3cd6bb83	0.02621246
144	0xb83e11f1	-4.531624e-05
145	0x3e80ccc3	0.2515622
146	0x3c08a0a4	0.008339081
147	0x3e4896ad	0.19588728
148	0xbd4b233f	-0.04959416
149	0x371cdebe	9.350186e-06
150	0xbca4dfe0	-0.020126283
151	0x3e70ec9f	0.23527764
152	0x3d649ffb	0.05581663
153	0xbd180cb2	-0.037121482
154	0xb838bf33	-4.4047087e-05
155	0xb76a87ef	-1.3979136e-05
156	0x3eabc099	0.33545378
157	0x3cd3a3f3	0.025835013
158	0xbd0431e1	-0.03227413
159	0x3e182a22	0.14859822
160	0xb7dd921a	-2.6413287e-05
161	0xb80559d7	-3.179334e-05
162	0x3d9a8631	0.07545126
163	0x3e98045b	0.29690823
164	0x3e34fe87	0.1767522
165	0x3d3a2627	0.04544654
166	0x38f992e7	0.00011900608
167	0x3ea4ea95	0.32210222
168	0x3e4999bd	0.19687553
169	0xbbb3e27a	-0.0054896446
170	0x3bee6a9b	0.007275892
171	0xb85befcd	-5.2437e-05
172	0xb845e303	-4.717988e-05
173	0x3ea1a7ee	0.31573433
174	0x38632476	5.4154974e-05
175	0xbd5a168b	-0.053244155
176	0x3892edf0	7.006142e-05
177	0xbc248447	-0.010041303
178	0xb85dee31	-5.291234e-05
179	0x3df9492b	0.12172159
180	0x3e12108d	0.14264126
181	0x3d9dd8ed	0.07707391
182	0x3c7712f6	0.015080204
183	0x389cf0ff	7.483549e-05
184	0x3e11c749	0.14236178
185	0x3e1c3b70	0.15257049
186	0x3d5e4bb2	0.054271407
187	0x3dcf223e	0.10113953
188	0x3da33f10	0.079710126
189	0x3e0a9402	0.13533023
190	0xb8746fdf	-5.827832e-05
191	0x3e68d35c	0.22736877
192	0x3d806903	0.062700294
193	0x3e97c416	0.2964179
194	0x37c80750	2.3845263e-05
195	0x3886d980	6.4301305e-05
196	0x3e21a90e	0.15787145
197	0xb80e87a4	-3.3981763e-05
198	0x3d0fc0ca	0.035095967
199	0x3e5d72b5	0.21625789
200	0x3e3e3283	0.18573956
201	0x386117fe	5.3666525e-05
202	0x3dce6b6a	0.10079081
203	0xb71d3278	-9.36968e-06
204	0x3f02a7fb	0.5103757
205	0x3d43d76b	0.04781286
206	0x388b7b0b	6.650955e-05
207	0x37c5c8be	2.3577708e-05
208	0xb8a40e3a	-7.822779e-05
209	0x3c8476fc	0.016170017
210	0x3df618ca	0.12016447
211	0xb88ec153	-6.807097e-05
212	0xb815c6eb	-3.5709625e-05
213	0xb884c4e3	-6.3309235e-05
214	0xb81d6667	-3.7527087e-05
215	0x3db9cc55	0.09072176
216	0x3890defe	6.9079906e-05
217	0xb844c3d1	-4.691241e-05
218	0x3d3477b4	0.04405947
219	0xb861d650	-5.3843774e-05
220	0x385260cf	5.015806e-05
221	0x3d589129	0.05287281
222	0x3e25c6cf	0.1618912
223	0x3dd2cbb7	0.10292762
224	0x3e9952ed	0.2994608
225	0x388b4f15	6.642767e-05
226	0x3df10e07	0.11770254
227	0x3e5935c2	0.21211913
228	0x38852406	6.348644e-05
229	0x385d4ada	5.2760217e-05
230	0x3dba81e9	0.0910681
231	0x3cb8e27e	0.022568937
232	0x3e73b508	0.23799527
233	0xb762316d	-1.3482158e-05
234	0xbc23abfc	-0.009989735
235	0x3da19a23	0.07890727
236	0x3df59669	0.11991579
237	0x3dd1b4e1	0.10239578
238	0xb73b9d98	-1.1182761e-05
239	0x3d08e039	0.03341696
240	0x3d0aff92	0.033935137
241	0x3c0cb852	0.008588867
242	0x3889aa41	6.564381e-05
243	0x3ce2e23f	0.027695773
244	0x3e8222b2	0.25417095
245	0xb896a13b	-7.182589e-05
246	0xb86ab2d6	-5.59565e-05
247	0xb89305fc	-7.010621e-05
248	0x3b88e530	0.004177712
249	0x3da31264	0.07962492
250	0x387b49e4	5.991188e-05
251	0xb862fb6b	-5.411675e-05
252	0x3a34f256	0.0006902566
253	0x3dc7a06e	0.097473964
254	0x3845290e	4.7006695e-05
255	0x3823e78b	3.907787e-05

net.2.running_mean f4 [512]
0	0xbab61030	-0.0013890322
1	0xa2ecb770	-6.416215e-18
2	0x3e442c58	0.19157541
3	0xababf302	-1.2217729e-12
4	0xbaec7a48	-0.0018041814
5	0xa588b9d1	-2.3718153e-16
6	0x3d7addfc	0.061246857
7	0xa1d7d465	-1.4625187e-18
8	0x3e22b2e9	0.15888561
9	0x3bc1fe4b	0.0059202067
10	0x3dd03d72	0.1016797
11	0x3e2b940a	0.16755691
12	0xbaae50a8	-0.0013299184
13	0x3b9ae639	0.0047271517
14	0x3d448673	0.047979783
15	0x9c58990d	-7.166622e-22
16	0x3d99906a	0.07498248
17	0x3e04693d	0.1293077
18	0x3e04d7ba	0.12972918
19	0x80bba867	-1.7233649e-38
20	0x811a2370	-2.8310758e-38
21	0x3ba765fd	0.0051085935
22	0xbac6f28f	-0.0015178489
23	0x3beded94	0.0072609875
24	0x3daafbce	0.08348809
25	0x3d323e22	0.043516286
26	0x3d8d1b5b	0.06889983
27	0xa9a2163c	-7.198102e-14
28	0x3d923caa	0.07140477
29	0x9dd028f5	-5.509949e-21
30	0x81c2dfd6	-7.1585534e-38
31	0x3d3a77a0	0.04552424
32	0x3e1b9816	0.15194735
33	0x3d85c51e	0.06531738
34	0x3d582c43	0.052776586
35	0x82166354	-1.1048765e-37
36	0x3e910c13	0.28329524
37	0x3d1e6368	0.03866902
38	0x9e8be324	-1.481114e-20
39	0x820454e0	-9.722186e-38
40	0x3c978cba	0.01849972
41	0xbb35f789	-0.002776595
42	0x3c8d2a54	0.017232098
43	0x3da5240d	0.08063517
44	0x3dacec16	0.08443467
45	0xa91bed67	-3.4622827e-14
46	0x8b1e9dca	-3.05484e-32
47	0xbb2eee07	-0.0026692168
48	0x3dbfb7d5	0.09361235
49	0xbb6fb04c	-0.0036573587
50	0xa07bbf72	-2.1323871e-19
51	0xbb707098	-0.0036688205
52	0x2e652eaa	5.2110018e-11
53	0x3d6e937c	0.05824612
54	0x3e431768	0.19051898
55	0x3cb3e42c	0.021959387
56	0xbae53089	-0.0017485778
57	0x9f3c07d4	-3.9817024e-20
58	0x8120895a	-2.9485904e-38
59	0x9690719f	-2.333616e-25
60	0x3e0d2651	0.13784148
61	0x39c9e260	0.0003850637
62	0xbaf550a0	-0.0018716045
63	0x3de226ee	0.110425815
64	0x3cbd7304	0.023126133
65	0x3baa9fe5	0.005207049
66	0x2e5a1616	4.9587077e-11
67	0x3c555b71	0.01302229
68	0xbad7c052	-0.0016460514
69	0x3c24f75e	0.010068743
70	0xa4fd49ab	-1.0984606e-16
71	0x3dc41ca0	0.09575772
72	0x3e0d0a94	0.13773566
73	0x3d635500	0.055500984
74	0x9d671b69	-3.0586766e-21
75	0x3ca323c5	0.019914517
76	0x94f72a44	-2.4957297e-26
77	0x3da0c0fa	0.07849307
78	0x3de14a4b	0.110004984
79	0x3e2765da	0.16347447
80	0x3e12e328	0.14344466
81	0xba8460bf	-0.0010099633
82	0x3ca1f524	0.019770212
83	0x3dc5c3ae	0.096564636
84	0xbb41e3c9	-0.0029585233
85	0x3db3eca8	0.08785373
86	0x3da489d8	0.08034104
87	0x3df10634	0.11768761
88	0x3bc60b86	0.006043854
89	0x3c2e14c6	0.01062507
90	0x3d506632	0.05087871
91	0x2bb82adc	1.3085882e-12
92	0x190d7132	7.312389e-24
93	0x3d02206f	0.031769212
94	0xa22fa2f7	-2.3803195e-18
95	0xaa0bd532	-1.2419647e-13
96	0xa2a98e9c	-4.5958535e-18
97	0x3c8fc4e0	0.017549932
98	0x87589366	-1.629335e-34
99	0x3c416334	0.011803437
100	0xa7063a11	-1.8627714e-15
101	0x3df39ac6	0.11894755
102	0x821682d6	-1.1057808e-37
103	0xac76a995	-3.505284e-12
104	0x83b80103	-1.081478e-36
105	0x810fbc52	-2.6400065e-38
106	0x3c0c70a6	0.008571779
107	0xa4f8e3ab	-1.0793854e-16
108	0xa62cf9c0	-6.001296e-16
109	0x813b7074	-3.4427157e-38
110	0x3cbc3aa8	0.022977188
111	0xa4049576	-2.8749536e-17
112	0x3cd95eee	0.026534524
113	0x802ce994	-4.124554e-39
114	0x3e383033	0.17987137
115	0x9b8ad6ad	-2.2968916e-22
116	0x9de30f12	-6.0101982e-21
117	0xa075da59	-2.0824552e-19
118	0x9a0cd3dc	-2.912246e-23
119	0x393cc1b5	0.00018001239
120	0xbb37ab79	-0.002802579
121	0x2fd0da96	3.7990294e-10
122	0xaae4e884	-4.0662276e-13
123	0x81d21426	-7.717073e-38
124	0x3e40ebd7	0.18839966
125	0x869974b2	-5.772367e-35
126	0x3db66854	0.08906618
127	0xbac8838c	-0.0015297993
128	0x80b74ba4	-1.683303e-38
129	0x3dc835e6	0.09775905
130	0x9b73d2f0	-2.0168646e-22
131	0x3c9720e7	0.018448306
132	0xbb3a51b8	-0.0028430056
133	0x820bac2a	-1.0261516e-37
134	0xa550de0f	-1.811636e-16
135	0x3d1747ad	0.03693359
136	0x3d98b3cb	0.07456168
137	0xb98e7504	-0.00027171534
138	0xa2ff1ed8	-6.9150546e-18
139	0x3de416fd	0.11137197
140	0xbb038397	-0.0020067447
141	0x82196caf	-1.1271855e-37
142	0x384dfb06	4.9109593e-05
143	0x3ac362e6	0.0014906793
144	0x8c9abb12	-2.3840046e-31
145	0x3ce0bcf7	0.027433855
146	0xba16c515	-0.00057514134
147	0x3c9ad00d	0.018898034
148	0x3cec5d2e	0.028853025
149	0x8289df9a	-2.0258682e-37
150	0x3c95f61e	0.018305834
151	0x3e007e4a	0.12548175
152	0xbad3e547	-0.0016166352
153	0x3e04b44e	0.12959406
154	0x9d46e89b	-2.6325336e-21
155	0xa7a5bcb6	-4.60013e-15
156	0x3da27550	0.07932532
157	0x3d51ac4e	0.051189713
158	0x3e3a26c9	0.18178858
159	0x3b944018	0.004524242
160	0x2437e63f	3.9876826e-17
161	0xa3504cd7	-1.1291974e-17
162	0x3d0e7248	0.034776956
163	0x3d5bcc25	0.053661484
164	0x3bad4adb	0.0052884645
165	0xba5d0f9a	-0.0008432806
166	0x3e265bfa	0.16246024
167	0x3d7d5947	0.06185272
168	0x3d3e4387	0.046451118
169	0x3c2ff68b	0.010739933
170	0xbaa80ea8	-0.0012821751
171	0xa771dd2f	-3.3565372e-15
172	0xa480eb25	-5.59095e-17
173	0x3db817c0	0.08988905
174	0xb08295b3	-9.501292e-10
175	0xbb39aee9	-0.0028333014
176	0x82173558	-1.1109037e-37
177	0x3ddd7610	0.10813534
178	0x29f1e451	1.07421565e-13
179	0x3dc00e3a	0.093777135
180	0x3dd45ad0	0.103688836
181	0xbb75e96b	-0.003752316
182	0x3dea498f	0.114398114
183	0x9c2d30d1	-5.730399e-22
184	0x3d600118	0.054688543
185	0x3e754106	0.23950586
186	0x3deef1b7	0.11667197
187	0x3dd815cb	0.10551032
188	0xbacc2e42	-0.0015577751
189	0x3e02c542	0.1277056
190	0x9f526121	-4.4549573e-20
191	0x3dc54e79	0.09634108
192	0x3cc623e6	0.02418704
193	0x3d96a1d4	0.07355085
194	0x9d5e0436	-2.9383632e-21
195	0x99759ba3	-1.2697634e-23
196	0x3d821d31	0.06353224
197	0x99145c61	-7.6700764e-24
198	0x3e2158f8	0.15756595
199	0x3c989911	0.018627675
200	0x3d757886	0.059929393
201	0xa852b6aa	-1.1696951e-14
202	0x3c011314	0.007878084
203	0x91c7922e	-3.1486754e-28
204	0x3d518851	0.051155392
205	0xbb2a10ec	-0.0025950028
206	0xa8469072	-1.10225295e-14
207	0x8c180ed3	-1.1714115e-31
208	0xab55cea6	-7.5959584e-13
209	0x3ce01145	0.027351985
210	0x3c3539aa	0.011061111
211	0x9d5ea10f	-2.946472e-21
212	0xabcaff1a	-1.4423768e-12
213	0x93ab131b	-4.318531e-27
214	0xaf01a3f4	-1.179073e-10
215	0x3d555ba0	0.052089334
216	0xaa8a2c14	-2.454431e-13
217	0x825a9ac7	-1.606053e-37
218	0x3d86e312	0.06586279
219	0xa7321d0a	-2.4718204e-15
220	0x805922d7	-8.185857e-39
221	0x3d9439fb	0.072376214
222	0x3d840ee2	0.06448151
223	0x3e361c80	0.1778431
224	0x3d7818e1	0.0605706
225	0xa98d53c5	-6.2761896e-14
226	0x3d11d19b	0.035600286
227	0x3ccac8a6	0.02475388
228	0x8c1d19bc	-1.2102584e-31
229	0x81fa9650	-9.2051184e-38
230	0x3e32b2d8	0.17451036
231	0xbb65f715	-0.00350899
232	0x3d8702e2	0.06592347
233	0xa0248b1e	-1.393737e-19
234	0xba8ab80d	-0.0010583416
235	0x3e01cc5e	0.12675616
236	0x3b74e75d	0.0037369349
237	0x3c9e1a81	0.019299747
238	0x8212a006	-1.077231e-37
239	0x3e16ab20	0.14713717
240	0x3d109a0a	0.035303153
241	0x3d688b48	0.056773454
242	0x9e9a42d1	-1.6333019e-20
243	0xbb2bfaba	-0.0026241974
244	0x3ba443d7	0.00501297
245	0x83a77dbf	-9.844248e-37
246	0xa160fc9d	-7.6228483e-19
247	0x9d8d9c2e	-3.7483875e-21
248	0x3d70c8b1	0.058785144
249	0x3c3520f4	0.01105522
250	0x927e2f81	-8.020682e-28
251	0x99fa4052	-2.5875373e-23
252	0x3d1c7b85	0.038203735
253	0x3bf82053	0.0075722127
254	0x9f02dc91	-2.771102e-20
255	0xa53b2336	-1.6231594e-16

net.2.running_var f4 [512]
0	0x34ec63f0	4.403114e-07
1	0x053ddf11	8.927708e-36
2	0x3c9ab056	0.018882912
3	0x161ee95b	1.2836772e-25
4	0x34cf82c2	3.8651893e-07
5	0x0a94e999	1.4339751e-32
6	0x3bc7cf5a	0.0060977163
7	0x04ca7286	4.7595145e-36
8	0x3c9d770e	0.019221809
9	0x3a89cc03	0.0010513071
10	0x3c4a2bc8	0.01233954
11	0x3c83e44a	0.016100068
12	0x350d7b89	5.270636e-07
13	0x39f041bd	0.00045825346
14	0x3c27e89c	0.0102483295
15	0x00000023	4.9e-44
16	0x3c12c338	0.008957677
17	0x3c80d8bd	0.015728349
18	0x3c313d90	0.0108179
19	0x00000004	6e-45
20	0x00000004	6e-45
21	0x3a153879	0.0005692314
22	0x372f668f	1.0454692e-05
23	0x3a967b72	0.0011480881
24	0x3c7c814d	0.015411687
25	0x3b4c110c	0.003113809
26	0x3bcb160c	0.0061976966
27	0x12db18df	1.3826974e-27
28	0x3c242de4	0.010020707
29	0x00001fba	1.1381e-41
30	0x00000004	6e-45
31	0x3b3b7652	0.002860446
32	0x3cbb0d66	0.022833537
33	0x3be23e25	0.006904381
34	0x3bf7a96b	0.007558038
35	0x00000004	6e-45
36	0x3d2fc238	0.04290983
37	0x3b5de096	0.0033855787
38	0x0000605b	3.4566e-41
39	0x00000004	6e-45
40	0x3b52991e	0.0032134722
41	0x35730a6d	9.0539726e-07
42	0x3b18dc54	0.0023324685
43	0x3c462f8e	0.012096299
44	0x3c54d872	0.012991058
45	0x1162aaa0	1.7880834e-28
46	0x00000004	6e-45
47	0x360fa97e	2.1407318e-06
48	0x3c574a4e	0.013140274
49	0x35e3a86a	1.6961833e-06
50	0x0012cea1	1.727163e-39
51	0x360d6000	2.1066517e-06
52	0x1d7e1bc4	3.3630975e-21
53	0x3ba1d11c	0.004938258
54	0x3d55f282	0.052233227
55	0x3b6f4891	0.0036511759
56	0x3535469a	6.7530493e-07
57	0x00017369	1.33237e-40
58	0x00000004	6e-45
59	0x00000004	6e-45
60	0x3c8b7d87	0.01702763
61	0x33a79af5	7.80473e-08
62	0x3588e474	1.0199278e-06
63	0x3ca4baba	0.02010857
64	0x3a9442ca	0.0011311409
65	0x39ed283b	0.00045234137
66	0x1b08e0e0	1.1322317e-22
67	0x3b0193ee	0.001977201
68	0x38cfa656	9.901512e-05
69	0x3ae608ab	0.0017550191
70	0x095d6d43	2.6653282e-33
71	0x3baa434a	0.0051960098
72	0x3c2e75c6	0.010648197
73	0x3c0f2c3f	0.008738576
74	0x00000c66	4.448e-42
75	0x3a8deb9c	0.0010827663
76	0x00000004	6e-45
77	0x3c1eb86b	0.009687523
78	0x3c014b66	0.007891512
79	0x3cbc916b	0.02301856
80	0x3c7cca4f	0.0154290935
81	0x34008f82	1.1973137e-07
82	0x3ac8522a	0.0015283276
83	0x3cb35da3	0.021895235
84	0x389281ac	6.985976e-05
85	0x3c49521b	0.012287642
86	0x3c968594	0.018374242
87	0x3c7a6960	0.015283912
88	0x3a112509	0.00055368297
89	0x3acf9d03	0.001583964
90	0x3bb197d1	0.0054197093
91	0x159b0040	6.2604396e-26
92	0x00000004	6e-45
93	0x3bbb9619	0.00572468
94	0x02fa527d	3.6781544e-37
95	0x13389ae3	2.330043e-27
96	0x04f49875	5.7504134e-36
97	0x3a8bfd47	0.0010680341
98	0x00000004	6e-45
99	0x3a9965f8	0.0011703363
100	0x0df1bb14	1.4897809e-30
101	0x3ca8ce62	0.020606223
102	0x00000004	6e-45
103	0x182225b8	2.0957052e-24
104	0x00000004	6e-45
105	0x00000004	6e-45
106	0x39a6e7c7	0.00031834675
107	0x08e1596e	1.356272e-33
108	0x0b5191c0	4.0361586e-32
109	0x00000004	6e-45
110	0x3b64cb7c	0.0034911325
111	0x0683f983	4.964335e-35
112	0x3b000ca8	0.0019538794
113	0x00000004	6e-45
114	0x3d24e212	0.04025466
115	0x0000000f	2.1e-44
116	0x000008d0	3.161e-42
117	0x0028fb0a	3.763476e-39
118	0x00000004	6e-45
119	0x3326e348	3.8856598e-08
120	0x36436838	2.9117928e-06
121	0x1f36bd9e	3.8696847e-20
122	0x150909e1	2.7674723e-26
123	0x00000004	6e-45
124	0x3cfa6f1e	0.030570563
125	0x00000004	6e-45
126	0x3c74bf41	0.014938177
127	0x3525a77a	6.1711e-07
128	0x00000004	6e-45
129	0x3c6d80f4	0.014496077
130	0x0000000e	2e-44
131	0x3b3adace	0.0028511765
132	0x361ff6d3	2.3836517e-06
133	0x00000004	6e-45
134	0x09e80ac8	5.5862107e-33
135	0x3ba3fa22	0.0050041834
136	0x3b99cb45	0.004693421
137	0x397bb563	0.00024004797
138	0x04d86e06	5.0882397e-36
139	0x3c865015	0.016395608
140	0x374ef092	1.2334569e-05
141	0x00000004	6e-45
142	0x3826a09d	3.9727067e-05
143	0x3957a714	0.00020566239
144	0x00000004	6e-45
145	0x3b723df9	0.0036963208
146	0x33945ced	6.90869e-08
147	0x3adad068	0.001669419
148	0x3b8e2b0b	0.004338627
149	0x00000004	6e-45
150	0x3a713db4	0.0009202615
151	0x3cf2ee16	0.029654544
152	0x3512c4fe	5.46759e-07
153	0x3c3646bf	0.011125266
154	0x000000c1	2.7e-43
155	0x0eae7e7e	4.301612e-30
156	0x3c032a13	0.008005637
157	0x3bf50a30	0.007478021
158	0x3ce61c39	0.02808963
159	0x39f88986	0.0004740471
160	0x08c20142	1.1676246e-33
161	0x05e0ed7b	2.1152095e-35
162	0x3ba3ace1	0.004994974
163	0x3c119a1b	0.008886839
164	0x3956a53d	0.00020470186
165	0x399698a1	0.00028723947
166	0x3ceddf04	0.029037006
167	0x3bb550fd	0.005533336
168	0x3ba62d72	0.0050713355
169	0x3adc91af	0.0016828085
170	0x34f05fd8	4.477322e-07
171	0x0da164d2	9.946663e-31
172	0x0888b506	8.227761e-34
173	0x3c3be8e3	0.011469099
174	0x216dd0cc	8.0575064e-19
175	0x35895ac3	1.023371e-06
176	0x00000004	6e-45
177	0x3c81768d	0.0158036
178	0x1491dba3	1.472789e-26
179	0x3cb28348	0.021791115
180	0x3cc3a90b	0.023884317
181	0x3657d6ab	3.216245e-06
182	0x3d0cf2a8	0.034411103
183	0x00000042	9.2e-44
184	0x3c5d998b	0.013525377
185	0x3d04616e	0.03231948
186	0x3c78cc29	0.015185394
187	0x3c3ceee2	0.0115315635
188	0x349bc6ea	2.901573e-07
189	0x3c989ab3	0.018628454
190	0x00028eca	2.34894e-40
191	0x3c6655ad	0.014058513
192	0x3b75f9fe	0.003753304
193	0x3c467ae9	0.012114265
194	0x000007ae	2.755e-42
195	0x00000004	6e-45
196	0x3c1cb148	0.0095637515
197	0x00000004	6e-45
198	0x3d13d3f8	0.03609082
199	0x3b22068c	0.002472314
200	0x3bf9de5f	0.0076253857
201	0x0f992f02	1.5105072e-29
202	0x3a80e230	0.0009833034
203	0x00000004	6e-45
204	0x3b83c886	0.004021707
205	0x353c1471	7.0065204e-07
206	0x1060de5f	4.434752e-29
207	0x00000004	6e-45
208	0x138c6bc5	3.5447238e-27
209	0x3b88dff4	0.004177088
210	0x3ab23acc	0.0013597845
211	0x0000009f	2.23e-43
212	0x15c97128	8.136178e-26
213	0x00000004	6e-45
214	0x1d946840	3.9283066e-21
215	0x3bf18409	0.007370476
216	0x14c5c2f1	1.9968807e-26
217	0x00000004	6e-45
218	0x3ba63c6c	0.005073121
219	0x0cd57303	3.2887066e-31
220	0x00000004	6e-45
221	0x3c5ed26d	0.013599974
222	0x3bc26fa4	0.0059337188
223	0x3cc1fce8	0.023680165
224	0x3c186526	0.009301459
225	0x12b90737	1.167692e-27
226	0x3bb81486	0.005617681
227	0x3b28649a	0.0025694729
228	0x00000004	6e-45
229	0x00000004	6e-45
230	0x3ce5bf53	0.028045332
231	0x37a112fe	1.920154e-05
232	0x3c372538	0.011178307
233	0x0038011f	5.14319e-39
234	0x34aab8f3	3.1799536e-07
235	0x3cb4661a	0.022021342
236	0x3a499650	0.000768994
237	0x3b34bc54	0.0027578073
238	0x00000004	6e-45
239	0x3c8bd04b	0.017067095
240	0x3b4d1938	0.003129555
241	0x3be45557	0.006968181
242	0x00017f08	1.37406e-40
243	0x37507977	1.2426047e-05
244	0x3a90406d	0.0011005529
245	0x00000004	6e-45
246	0x00ba9997	1.71365e-38
247	0x00000480	1.614e-42
248	0x3b5d346c	0.003375317
249	0x3ad09b60	0.0015915446
250	0x00000004	6e-45
251	0x00000004	6e-45
252	0x3aca16a2	0.0015418122
253	0x3a8f6297	0.0010939416
254	0x0002f9da	2.73301e-40
255	0x0abc74d7	1.8147692e-32

net.3.weight f4 [256, 512]
0	0x3d104324	0.03522028
1	0x387f9403	6.0934584e-05
2	0x3c002a34	0.007822562
3	0xb729427b	-1.0088664e-05
4	0x3bcd249e	0.0062604686
5	0xb8740c89	-5.8185808e-05
6	0xbd2a702c	-0.04161088
7	0x386df5a7	5.6733985e-05
8	0xbcc7919e	-0.024361428
9	0xbcd9a9bf	-0.026570199
10	0x3cde7755	0.027156511
11	0x3cac4135	0.021027187
12	0xbc5d2d31	-0.013499544
13	0xbd043af7	-0.032282796
14	0xbd314eba	-0.04328797
15	0xb824f38c	-3.9327468e-05
16	0xbd917891	-0.07103074
17	0x3d1907a0	0.037360787
18	0xbd555b4c	-0.05208902
19	0xb85f0305	-5.3170155e-05
20	0x3846bc76	4.7382397e-05
21	0xbb86ba75	-0.004111583
22	0x3cace658	0.02110593
23	0xbcd410ee	-0.025886979
24	0xbca87867	-0.020565225
25	0x3e85a310	0.2610097
26	0xbecdde1a	-0.40208513
27	0xb8817174	-6.1723316e-05
28	0x3bf6d596	0.0075327856
29	0xb8199010	-3.661221e-05
30	0xb84bc71c	-4.8584407e-05
31	0xbd2c1361	-0.04201067
32	0xbda47684	-0.080304176
33	0xbc502fb5	-0.012706687
34	0x3c7b1f98	0.015327357
35	0x379daeee	1.8797316e-05
36	0xbb4e8a1d	-0.0031515427
37	0xbdb63b0f	-0.08897983
38	0xb874bc51	-5.8349517e-05
39	0xb7194c0b	-9.137216e-06
40	0x3dd19da8	0.10235149
41	0xbcff46a1	-0.031161608
42	0xbdc02c55	-0.09383456
43	0xbd1c2c50	-0.038128197
44	0xbd0f0dfe	-0.034925453
45	0xb812dfc1	-3.50175e-05
46	0xb82d37b6	-4.12983e-05
47	0x3c38ea7c	0.011286374
48	0x3c8e3f8b	0.017364284
49	0xbc532e09	-0.012889394
50	0x3883483b	6.260021e-05
51	0xbd666116	-0.056244932
52	0xb823541f	-3.8940572e-05
53	0xba80331f	-0.000978086
54	0xbcd06013	-0.025436437
55	0xbcd10d24	-0.025518961
56	0xbc5ed77d	-0.013601181
57	0x38641100	5.437527e-05
58	0xb84aab06	-4.831983e-05
59	0x386158d6	5.3726915e-05
60	0x3db1621b	0.0866129
61	0x399f53a2	0.00030389155
62	0x3d345527	0.04402652
63	0xbd1d8a51	-0.038461987
64	0xbd4c5667	-0.049887087
65	0x3c0b54a2	0.008504065
66	0x3828ae05	4.021639e-05
67	0x3d210d20	0.039319158
68	0x3d5ffcb9	0.054684374
69	0xbc09315b	-0.008373584
70	0xb8358c69	-4.328453e-05
71	0xbc841902	-0.016125206
72	0x3c4eb6e3	0.012616846
73	0xbc57275c	-0.013131943
74	0x359ee0c1	1.1837329e-06
75	0xbc640b05	-0.013918643
76	0x37a6f94b	1.9904828e-05
77	0xbd4ee5fc	-0.0505123
78	0x3c1a4ad8	0.009417258
79	0x3d9948d4	0.07484594
80	0xbc92a6b9	-0.017901765
81	0x3c308179	0.010773056
82	0xbb0f39b5	-0.0021854464
83	0xbc143719	-0.009046339
84	0x3d29834a	0.041384973
85	0x3be2e84e	0.0069246655
86	0xbe036117	-0.12830006
87	0xbc1df077	-0.009639851
88	0xbd5a11fd	-0.05323981
89	0x3e0612d8	0.13093126
90	0x3cc240bb	0.023712507
91	0xb8143bfe	-3.534182e-05
92	0xb8942457	-7.063959e-05
93	0x3d8eb3ff	0.06967925
94	0x3808e85a	3.264132e-05
95	0x38738a1a	5.8064332e-05
96	0x37e70d1a	2.7543447e-05
97	0xbdd93481	-0.106057175
98	0xb8644a08	-5.4428383e-05
99	0x3bae143e	0.0053124717
100	0xb8735309	-5.8013047e-05
101	0xbe987f3e	-0.29784578
102	0x381bdfcf	3.7163318e-05
103	0x3697fcdc	4.5295874e-06
104	0xb7e2f5cf	-2.7055763e-05
105	0xb845f16a	-4.7193294e-05
106	0x3de0b82a	0.109726265
107	0x38ad766e	8.271342e-05
108	0xb82f8211	-4.1844385e-05
109	0x386fbd55	5.715837e-05
110	0x3cb2a4fc	0.021807186
111	0xb83683ce	-4.3514934e-05
112	0x3d9d7ad3	0.076894425
113	0xb88a46ce	-6.593541e-05
114	0x3da3e47b	0.080025636
115	0x34376b09	1.7082142e-07
116	0xb852f5a0	-5.0296658e-05
117	0xb7b2a583	-2.1296326e-05
118	0xb7daa485	-2.6064235e-05
119	0xb81c0ddb	-3.7206202e-05
120	0x3c391a3f	0.011297761
121	0x386796ae	5.5215023e-05
122	0xb82c745b	-4.111636e-05
123	0x387fc694	6.0981678e-05
124	0xbc8726f4	-0.016498066
125	0xb879383f	-5.941861e-05
126	0xbd6cfe1b	-0.05785952
127	0xbbf2c20a	-0.007408385
128	0xb881e68a	-6.1941406e-05
129	0xbe2d4b6b	-0.16923301
130	0x387d017f	6.0321294e-05
131	0x3e1ce271	0.15320756
132	0xbc64aa16	-0.013956567
133	0xb8351d9a	-4.318133e-05
134	0xb89596cd	-7.1329625e-05
135	0xbbb84cfc	-0.0056244116
136	0xbca6dcf6	-0.020369034
137	0xbc50681d	-0.012720135
138	0x385e9e67	5.307645e-05
139	0xbd44f397	-0.048083868
140	0x3cd05c10	0.025434524
141	0x3875a0bc	5.8562247e-05
142	0x3aff8bea	0.0019496654
143	0x3d8674b8	0.06565231
144	0xb8411cad	-4.6041492e-05
145	0x3d8f3ba2	0.06993796
146	0xbc08b6af	-0.008344336
147	0x3ca20c78	0.019781336
148	0xbd2d7599	-0.042348478
149	0x365903f9	3.2337832e-06
150	0xbd3c6c58	-0.046001762
151	0xbde84b5a	-0.11342497
152	0xbcc81b67	-0.024427129
153	0x3c4d1ec1	0.012519539
154	0xb8316b11	-4.2299802e-05
155	0xb745cea4	-1.1790227e-05
156	0xbe8b1a94	-0.27168715
157	0xbc027ef3	-0.007964837
158	0xbdba653b	-0.091013394
159	0x3d8d2725	0.06892232
160	0xb7bef542	-2.2763972e-05
161	0xb81559a1	-3.560784e-05
162	0x3d09acf0	0.03361219
163	0x3bd515df	0.0065028514
164	0x3dc37f8f	0.09545814
165	0x3c5d9b03	0.013525727
166	0x3df3b790	0.11900246
167	0xbe8a527f	-0.27016065
168	0xbe38bafe	-0.18040082
169	0x3dd3a49d	0.10334132
170	0xb9d72792	-0.00041037478
171	0xb804e5d3	-3.1685293e-05
172	0xb898ced5	-7.28645e-05
173	0xbc3c478f	-0.01149167
174	0x380085dc	3.0642244e-05
175	0x3ca99a2a	0.020703394
176	0x387bf134	6.00677e-05
177	0x3c5a6924	0.013330732
178	0xb88505fd	-6.3430496e-05
179	0x3d162b5c	0.036662444
180	0x3bc39dd1	0.005969741
181	0x3d00324f	0.031297978
182	0xbd1e6cf8	-0.03867814
183	0x3890eefd	6.91097e-05
184	0x38b322f2	8.541894e-05
185	0xbb039c25	-0.0020082083
186	0xbccf56c4	-0.025309928
187	0x3d9c4a14	0.07631317
188	0x3bb1f076	0.0054302765
189	0xbcce291d	-0.025166089
190	0xb86794bd	-5.5213215e-05
191	0xbeaf9db0	-0.34299994
192	0x3d3839b5	0.04497691
193	0xbc9451f2	-0.01810548
194	0x38170a58	3.601084e-05
195	0x381b8a72	3.7083817e-05
196	0xbd3e7e01	-0.046506885
197	0xb7e1a42e	-2.6898542e-05
198	0xbdef7e12	-0.11693968
199	0xbd7f4c62	-0.062328704
200	0x3dbb0dd6	0.09133498
201	0x3838c1a5	4.4049364e-05
202	0xbd36cfde	-0.04463183
203	0xb700742a	-7.656441e-06
204	0xbe0812c1	-0.13288404
205	0xbbc8f0ad	-0.0061322064
206	0x388b60d0	6.646069e-05
207	0x3784a124	1.5810663e-05
208	0xb890fbbe	-6.913346e-05
209	0x3c9763c0	0.018480182
210	0xbd5b37fa	-0.05352018
211	0xb8439a45	-4.6635298e-05
212	0xb84c4bfb	-4.8708152e-05
213	0xb883c326	-6.282916e-05
214	0xb873bddd	-5.811254e-05
215	0x3d0cc30c	0.0343657
216	0x385106d2	4.9835835e-05
217	0xb89463ad	-7.075756e-05
218	0x3d73a9d4	0.059488133
219	0xb8896cad	-6.5529115e-05
220	0x3842f477	4.648088e-05
221	0xbce8680e	-0.02836993
222	0x3d2e08dc	0.042488918
223	0xbc71a904	-0.014749769
224	0x3c81d1aa	0.015847046
225	0x38905568	6.882363e-05
226	0x3b6050e3	0.00342279
227	0x3d7645b8	0.060125083
228	0x38a2f7b5	7.770901e-05
229	0x3835d6d2	4.335383e-05
230	0x3e1c399a	0.15256348
231	0xbbd6b0dc	-0.006551845
232	0x3e06eff0	0.13177466
233	0xb7893a19	-1.6358726e-05
234	0xba0a7c6b	-0.0005282822
235	0xbd33be75	-0.043882806
236	0xbd51151e	-0.05104553
237	0x3b87c89b	0.004143787
238	0xb68f48d8	-4.2702122e-06
239	0x3c486f05	0.0122335
240	0xbd14ec52	-0.036358185
241	0x395d8c05	0.00021128364
242	0x387975d9	5.947598e-05
243	0x3c80fd30	0.01574573
244	0xbd0e968f	-0.034811553
245	0xb87c9df6	-6.0228595e-05
246	0xb8876aa7	-6.457167e-05
247	0xb883f896	-6.2928695e-05
248	0x3c206181	0.009788872
249	0xbd59fb67	-0.05321827
250	0x388b6393	6.646584e-05
251	0xb8082430	-3.245863e-05
252	0x3ae80fef	0.0017704944
253	0xbcfea036	-0.031082254
254	0x38439967	4.663449e-05
255	0x388ac135	6.6163404e-05
