training_results/training_synergies_results/training_20250607_125337/FCNN_30_PCA.pth (torch, 723265 bytes, 18 tensors)

net.0.weight f4 [512, 4]
0	0x826ddb20	-1.7474896e-37
1	0x82557203	-1.5681488e-37
2	0x837030ec	-7.058582e-37
3	0x82a35fc5	-2.4005666e-37
4	0x96f0d726	-3.890987e-25
5	0x96f9de1a	-4.0368285e-25
6	0x161684fe	1.2158868e-25
7	0x9664f730	-1.8495692e-25
8	0x0381bbad	7.625027e-37
9	0x8256fdfa	-1.5795125e-37
10	0x026808b3	1.7047165e-37
11	0x837efda9	-7.493508e-37
12	0x9947047c	-1.02889645e-23
13	0x98955555	-3.860176e-24
14	0x18aec1de	4.51737e-24
15	0x99a8b94c	-1.7445634e-23
16	0x8635957e	-3.4152146e-35
17	0x85a88346	-1.5846866e-35
18	0x85adf4a1	-1.6358704e-35
19	0x86344c8a	-3.391047e-35
20	0xbf3047ea	-0.6885973
21	0x3cf5604f	0.02995315
22	0xbc788532	-0.015168475
23	0xbd05f7c7	-0.032707002
24	0x00c563ac	1.8127348e-38
25	0x01928436	5.3821643e-38
26	0x8288a95f	-2.0080618e-37
27	0x828734da	-1.9866802e-37
28	0x9815d02a	-1.9362895e-24
29	0x94d3c7ab	-2.138431e-26
30	0x972560ca	-5.343654e-25
31	0x97c239db	-1.2551561e-24
32	0x03690b16	6.848527e-37
33	0x836cad0e	-6.9552824e-37
34	0x842b5fd8	-2.0144963e-36
35	0x03c20822	1.1404162e-36
36	0xbefc8c11	-0.49325612
37	0x3e402eac	0.18767804
38	0xbef344dd	-0.47513476
39	0x3ec61fe8	0.38696218
40	0x0bfdf790	9.7824546e-32
41	0x8dc250ab	-1.1975593e-30
42	0x8ce85c9e	-3.5801002e-31
43	0x8ca846e5	-2.5927167e-31
44	0x3d47926e	0.04872363
45	0x3c6b8267	0.014374352
46	0xbdfa36a4	-0.12217453
47	0x3d2fed8c	0.04295115
48	0x86332ca6	-3.369896e-35
49	0x86bb35fe	-7.0420916e-35
50	0x86bb8c40	-7.054766e-35
51	0x86b9e7f7	-6.993011e-35
52	0x81505f0c	-3.827176e-38
53	0x804884bc	-6.659772e-39
54	0x0205fe60	9.844299e-38
55	0x81b6ec20	-6.7195064e-38
56	0x8308a6fc	-4.0158497e-37
57	0x83594d4d	-6.3859305e-37
58	0x8035b3a0	-4.931719e-39
59	0x8399ba8c	-9.035361e-37
60	0x88b7f9e6	-1.1072663e-33
61	0x8a46b76b	-9.56785e-33
62	0x89b47089	-4.343925e-33
63	0x87a19997	-2.431486e-34
64	0x3b2e96f7	0.0026640275
65	0x3a165be0	0.00057357363
66	0xbf233416	-0.6375135
67	0x3a1aede8	0.00059100846
68	0xbab18992	-0.0013545027
69	0x3b623434	0.0034515979
70	0xbf2935dc	-0.6609781
71	0xb993d0ce	-0.00028193597
72	0xbc98fa4e	-0.018674042
73	0xbb0ef644	-0.0021814266
74	0xbf1569c4	-0.5836451
75	0x3c82f3ee	0.015985455
76	0x8248529c	-1.4717387e-37
77	0x0111a206	2.674854e-38
78	0x81871654	-4.962321e-38
79	0x029eb716	2.33211e-37
80	0x80d30455	-1.9378844e-38
81	0x002be39a	4.030574e-39
82	0x00bdc13e	1.7426231e-38
83	0x81f6671b	-9.051408e-38
84	0x3ee369d9	0.44416693
85	0xbba179ea	-0.0049278634
86	0xbc3c33c8	-0.011486955
87	0xbeafd1d4	-0.34339774
88	0x83562a03	-6.2937175e-37
89	0x8328e9b6	-4.963905e-37
90	0x83020f72	-3.8221297e-37
91	0x838ee635	-8.398863e-37
92	0x014de8ce	3.7819583e-38
93	0x01728bab	4.4548587e-38
94	0x825c01eb	-1.6163598e-37
95	0x02110bf8	1.0656352e-37
96	0x3d344a80	0.04401636
97	0xbea2bf39	-0.31786516
98	0xbf0d809c	-0.5527437
99	0x3c9c1b19	0.01905589
100	0x9aa2395b	-6.709429e-23
101	0x9b28002e	-1.3896692e-22
102	0x1a3ae3ba	3.8647855e-23
103	0x9a2f9c84	-3.6315584e-23
104	0x9f79b685	-5.2878778e-20
105	0xa0030911	-1.1099131e-19
106	0x1fa7c46c	7.1052204e-20
107	0xa08e0d6a	-2.4064612e-19
108	0x3ea9c11a	0.33155137
109	0x3ba743cd	0.005104518
110	0x3e6a0451	0.22853209
111	0xbe8bfa49	-0.2733939
112	0x3e7a1bfc	0.24424738
113	0xbc38b304	-0.011273149
114	0x3b255145	0.0025225442
115	0xbedcca26	-0.43122977
116	0x9fa2138f	-6.8642026e-20
117	0x9f85271d	-5.63924e-20
118	0x1f13e9de	3.132191e-20
119	0xa011a0f4	-1.2335233e-19
120	0x3b250793	0.0025181517
121	0xbad418e2	-0.0016181732
122	0xbf0bb230	-0.5456877
123	0x390d746d	0.0001349018
124	0x3e246dca	0.16057506
125	0x3b0818df	0.0020766777
126	0x3bd1c08a	0.0064011263
127	0xbf1302a7	-0.5742592
128	0x95d391af	-8.545207e-26
129	0x961d73f8	-1.2718952e-25
130	0x945dfad0	-1.1207113e-26
131	0x95995b9f	-6.194076e-26
132	0xbc05dfb2	-0.008171009
133	0x3af3a2c5	0.0018587938
134	0x3eac775b	0.3368481
135	0xbe76d348	-0.24104035
136	0x3e312b8e	0.17301771
137	0xbd7725a1	-0.06033862
138	0x3d55c4b7	0.052189555
139	0x3ee2f56c	0.44327867
140	0x838c89f8	-8.2601365e-37
141	0x83c3c08a	-1.1505275e-36
142	0x8329d296	-4.9906377e-37
143	0x84548704	-2.4982476e-36
144	0x3daf82d5	0.08569876
145	0xbbf7ba88	-0.007560078
146	0x3b1f12c2	0.0024272655
147	0x3f162f29	0.5866571
148	0x0396b410	8.857548e-37
149	0x83af65ae	-1.030892e-36
150	0x02ba7d2d	2.740209e-37
151	0x839817bc	-8.939206e-37
152	0xad3aa79e	-1.0610094e-11
153	0xacb0f6e5	-5.0296317e-12
154	0x2d37a963	1.0439957e-11
155	0xacdf35df	-6.344022e-12
156	0x04979bcf	3.5643017e-36
157	0x85a9acec	-1.5956205e-35
158	0x859eb2e7	-1.4923967e-35
159	0x849f6cf6	-3.7480785e-36
160	0x1abbe2d3	7.770784e-23
161	0x9a7d5146	-5.2384826e-23
162	0x1ada5379	9.0297544e-23
163	0x9b1d02cb	-1.2987638e-22
164	0x2183b992	8.926025e-19
165	0xa2d96938	-5.8929373e-18
166	0x21150c5f	5.0499537e-19
167	0xa33beb65	-1.0187137e-17
168	0x83c7a5dd	-1.1734249e-36
169	0x02389c82	1.3563101e-37
170	0x02ea263e	3.440516e-37
171	0x8402d2b7	-1.5378182e-36
172	0x3ec1aebe	0.3782863
173	0xbea38db9	-0.31944063
174	0xbed0b795	-0.40765062
175	0x3e7c0ee9	0.24615063
176	0x3e1520fc	0.14563364
177	0x3db8fb3d	0.09032295
178	0xbe30e88e	-0.17276213
179	0xbe5efd60	-0.21776342
180	0x8997c683	-3.6538607e-33
181	0x0eea5725	5.776937e-30
182	0x090c8170	1.6912748e-33
183	0x8927b779	-2.0188162e-33
184	0x288349f3	1.4575992e-14
185	0xa7d3f3d3	-5.882862e-15
186	0xa836810c	-1.0131012e-14
187	0xa8ab807a	-1.9040532e-14
188	0xa9ac8faa	-7.663256e-14
189	0xab790d9b	-8.848145e-13
190	0xabb9fad8	-1.3214664e-12
191	0x2b320a29	6.3252404e-13
192	0x30831eb9	9.540236e-10
193	0xb0795e31	-9.0719526e-10
194	0xafdd8cb6	-4.0299647e-10
195	0xb0de53e7	-1.6176472e-09
196	0x396960b1	0.00022256632
197	0x3e0a9d7d	0.1353664
198	0xbf0ece79	-0.557838
199	0xbc4bf4a6	-0.012448465
200	0x3a145f3f	0.0005659945
201	0xbefc5f01	-0.49291232
202	0xbb86fca1	-0.004119471
203	0x3ca06c91	0.019583018
204	0x2f81a4a8	2.3581959e-10
205	0xac32c383	-2.5403852e-12
206	0xaf043e72	-1.2027515e-10
207	0xaf9047f1	-2.6244565e-10
208	0x3ea4fb06	0.32222766
209	0xbeb24611	-0.3481908
210	0x3e954baa	0.2915929
211	0xbe4b7fd5	-0.19872983
212	0x8507935c	-6.374735e-36
213	0x850471e1	-6.2275264e-36
214	0x852198e2	-7.598264e-36
215	0x04de2f26	5.2235248e-36
216	0xb007acbb	-4.935818e-10
217	0xafdfb7b8	-4.0694004e-10
218	0x2f0943fe	1.2484233e-10
219	0xae2f10aa	-3.9805194e-11
220	0x8504596c	-6.2230344e-36
221	0x85056094	-6.2713685e-36
222	0x84cf4089	-4.8724732e-36
223	0x84f339a4	-5.718196e-36
224	0x09b40867	4.3341325e-33
225	0x89988ab2	-3.6723097e-33
226	0x8a0cf190	-6.786188e-33
227	0x89fbcd39	-6.0619042e-33
228	0xbf0e8dda	-0.556852
229	0xbbdf3ae0	-0.0068124384
230	0x3ae92c46	0.0017789684
231	0x3eab7a22	0.33491617
232	0x9fb17bc5	-7.5167175e-20
233	0x9fdd5251	-9.373332e-20
234	0x1fdefd14	9.443934e-20
235	0xa08b556e	-2.3604049e-19
236	0x08c42ae2	1.1806403e-33
237	0x8ebf87e1	-4.7215982e-30
238	0x088a283a	8.31503e-34
239	0x893b5802	-2.2550687e-33
240	0x3e688f30	0.22710872
241	0x3ecfbcd8	0.40573764
242	0x3e932c70	0.2874484
243	0xbe738dbc	-0.23784536
244	0x3d8ae52a	0.06781991
245	0xbd54a911	-0.051919047
246	0xbe9acd73	-0.3023487
247	0xbe37c05e	-0.17944476
248	0x9e326670	-9.444425e-21
249	0x9d810eac	-3.4161186e-21
250	0x1cafa0f2	1.1622132e-21
251	0x9ea9852e	-1.7948653e-20
252	0x9681da73	-2.0978935e-25
253	0x95170af7	-3.0502857e-26
254	0x95be9285	-7.6971556e-26
255	0x96b5b16c	-2.9354096e-25

net.0.bias f4 [512]
0	0x837fb348	-7.514357e-37
1	0x985da99b	-2.864921e-24
2	0x83e2b107	-1.332373e-36
3	0x99716858	-1.248048e-23
4	0x862103c5	-3.0283504e-35
5	0x3e2c3241	0.16816045
6	0x824ce554	-1.5053367e-37
7	0x980d2a4e	-1.8245181e-24
8	0x848fdd37	-3.3822292e-36
9	0xbe371cd0	-0.17882085
10	0x8d1541c0	-4.5993314e-31
11	0xbd0da917	-0.034585085
12	0x86bb5ff7	-7.048259e-35
13	0x82c22997	-2.852961e-37
14	0x8409d465	-1.62018e-36
15	0x8a24f16e	-7.941721e-33
16	0x3e1b35fe	0.15157315
17	0x3e524844	0.2053538
18	0x3e922dbb	0.28550515
19	0x83909c01	-8.499376e-37
20	0x8259833d	-1.5980306e-37
21	0xbddf37ea	-0.10899337
22	0x8386631d	-7.898567e-37
23	0x82e9674e	-3.4295567e-37
24	0x3e4b0cc5	0.1982909
25	0x9a3ee6b1	-3.947743e-23
26	0x9fe51f65	-9.703721e-20
27	0xbeaca168	-0.33716893
28	0x3e43257e	0.19057271
29	0xa062c809	-1.9209131e-19
30	0x3e1a03ff	0.15040587
31	0x3d04062c	0.03223245
32	0x9608cb99	-1.1050237e-25
33	0xbe934765	-0.28765407
34	0xbedb8cde	-0.4288091
35	0x8495b928	-3.519977e-36
36	0xbe8648ea	-0.26227504
37	0x83a1bfe5	-9.506786e-37
38	0xad58730f	-1.2303727e-11
39	0x85b109f8	-1.6648662e-35
40	0x1b852648	2.2027743e-22
41	0xa35f2417	-1.20964965e-17
42	0x840772a3	-1.5921812e-36
43	0xbed9d7c1	-0.4254742
44	0x3e099af5	0.13438018
45	0x8f7f37f7	-1.2583249e-29
46	0xa8801260	-1.4218824e-14
47	0xab975253	-1.0752045e-12
48	0xafd6a40c	-3.9042936e-10
49	0x3d45e5e2	0.048314936
50	0x3e3c2bfb	0.18376152
51	0xaf4793d3	-1.8151462e-10
52	0xbd8d3dab	-0.06896528
53	0x85249f51	-7.740505e-36
54	0xaf7c9ebf	-2.2975664e-10
55	0x85257590	-7.7798555e-36
56	0x8a7f047c	-1.2278647e-32
57	0x3b8fc4ce	0.0043874746
58	0xa0c1cd76	-3.2831434e-19
59	0x89c0c807	-4.6410423e-33
60	0xbeb2885b	-0.34869656
61	0x3cdc3c56	0.02688424
62	0x9e863949	-1.4211494e-20
63	0x967ffbb1	-2.0678156e-25
64	0x838bd577	-8.218695e-37
65	0x1a17cefa	3.1393262e-23
66	0xbe1aa4d8	-0.15101945
67	0x3e8632da	0.26210672
68	0xa393a743	-1.600861e-17
69	0x83b14e2c	-1.0421072e-36
70	0x82f69e53	-3.6237325e-37
71	0x3ea86e19	0.32896498
72	0x832e3383	-5.1193137e-37
73	0x852360e6	-7.6820206e-36
74	0x84131d7b	-1.7293304e-36
75	0x91032bbd	-1.0347556e-28
76	0x3e57dbe1	0.21079971
77	0xbd878307	-0.06616788
78	0x83047ad0	-3.8932295e-37
79	0x9892d0ae	-3.795083e-24
80	0x8637a959	-3.4542892e-35
81	0x9125d8e3	-1.3083038e-28
82	0x835ba371	-6.4545937e-37
83	0x87761e7a	-1.8515939e-34
84	0x3df1bd91	0.11803735
85	0x86380e7b	-3.4617192e-35
86	0x93b9f576	-4.694261e-27
87	0xbe53f693	-0.2069953
88	0xa5670fb3	-2.0041375e-16
89	0xaa380137	-1.6342904e-13
90	0xbe0242c0	-0.12720776
91	0x85221582	-7.621154e-36
92	0x999812e4	-1.5724062e-23
93	0x8493807d	-3.467753e-36
94	0xabaf7165	-1.2465971e-12
95	0x85fe1b60	-2.3896101e-35
96	0x84879a9f	-3.1880345e-36
97	0xbe911e9a	-0.2834366
98	0x9f999a75	-6.505355e-20
99	0xbeda6ab9	-0.42659548
100	0x8baf41b1	-6.750639e-32
101	0x9a9db75a	-6.52299e-23
102	0x82fbdf8b	-3.7009443e-37
103	0x9dbfed8d	-5.08029e-21
104	0x9bd41193	-3.5083815e-22
105	0xbe35ef35	-0.17767031
106	0xbdf33f22	-0.11877276
107	0x8fa1cc01	-1.5954405e-29
108	0xbe355871	-0.17709519
109	0x19b6e573	1.8911033e-23
110	0x8ccbe5cb	-3.1415404e-31
111	0xbeb9a96d	-0.36262074
112	0xbea229e8	-0.31672597
113	0xbe560112	-0.20898846
114	0x98f95b7d	-6.445737e-24
115	0xbe292710	-0.16518807
116	0xa881c0e7	-1.4405535e-14
117	0x8525f364	-7.8029665e-36
118	0x9905a370	-6.908945e-24
119	0x3e32590c	0.17416781
120	0x84036ee1	-1.5449889e-36
121	0x8b395a35	-3.5697568e-32
122	0x82b41920	-2.6463044e-37
123	0xaea51307	-7.506711e-11
124	0x85248034	-7.73479e-36
125	0xa13e72ef	-6.4526617e-19
126	0x9d037bf3	-1.7401786e-21
127	0xbdb9f912	-0.090807095
128	0xbe65e956	-0.22452292
129	0xab1fb3c8	-5.6737644e-13
130	0x8215f9bc	-1.1018461e-37
131	0xaf331b4e	-1.6289656e-10
132	0xbe813648	-0.25236726
133	0x83bc1750	-1.1054999e-36
134	0x9e134d2c	-7.798074e-21
135	0x3df6fe96	0.12060277
136	0x848c8336	-3.303434e-36
137	0x85b09e74	-1.6609167e-35
138	0x88760b58	-7.4041267e-34
139	0x8f302ee9	-8.6865045e-30
140	0x85248a4e	-7.7366455e-36
141	0x9b1c7188	-1.2940701e-22
142	0x3ea109bf	0.31452748
143	0xbdc3a471	-0.09552849
144	0x99b7ff9d	-1.9024998e-23
145	0x3e4added	0.1981122
146	0x973f56e0	-6.182508e-25
147	0x833d1928	-5.5570986e-37
148	0x833c48ac	-5.5331658e-37
149	0x93bf7fd1	-4.8341215e-27
150	0xa14b118b	-6.8802293e-19
151	0xbecf0614	-0.40434325
152	0x3e4f2ec6	0.20232686
153	0x3e94f8f7	0.29096195
154	0xa820c914	-8.925386e-15
155	0x982c875a	-2.2298814e-24
156	0xa015f193	-1.2700721e-19
157	0xbe807ccd	-0.25095215
158	0x9d254141	-2.1871304e-21
159	0x88d6f352	-1.2936861e-33
160	0x90eaa498	-9.255032e-29
161	0xa2c5a496	-5.357122e-18
162	0xa486c184	-5.8441065e-17
163	0x838de847	-8.340563e-37
164	0x1860d85a	2.9060551e-24
165	0x96ab1ad2	-2.7643466e-25
166	0x0b1b3f84	2.9899698e-32
167	0x8ed84eb2	-5.3323892e-30
168	0xbe77907a	-0.24176207
169	0x3ddc8ad8	0.1076867
170	0x834a35ee	-5.9424373e-37
171	0x9fc82202	-8.4759556e-20
172	0x848a4453	-3.250639e-36
173	0xa88a0023	-1.5321137e-14
174	0x9b269597	-1.3779533e-22
175	0xa084d4a3	-2.250238e-19
176	0x8522b94d	-7.651238e-36
177	0x3e5e8f81	0.2173443
178	0x84a65337	-3.9102833e-36
179	0xbe0a8333	-0.13526611
180	0xbec2d666	-0.38054198
181	0x8ab24568	-1.7166884e-32
182	0x836f2114	-7.027376e-37
183	0xa3d9280b	-2.3544146e-17
184	0xa7a3d3e0	-4.5471304e-15
185	0xbf0cdc59	-0.55023724
186	0xbec4e0b0	-0.38452673
187	0x3d49071d	0.04907905
188	0xa109b397	-4.665509e-19
189	0xbdb363df	-0.08759283
190	0x8a7ffd50	-1.2325446e-32
191	0xae859c72	-6.07593e-11
192	0x8525d426	-7.797228e-36
193	0x86bb43c1	-7.044114e-35
194	0x83bff452	-1.1282064e-36
195	0x8985e8ec	-3.2237624e-33
196	0x1a942e71	6.1286395e-23
197	0xbdd1305b	-0.10214301
198	0x8bf099df	-9.2676157e-32
199	0x3e57e128	0.21081984
200	0xa115911f	-5.067523e-19
201	0x3e34283d	0.17593475
202	0x90224050	-3.199841e-29
203	0x85b1623c	-1.6681086e-35
204	0xa3411fad	-1.04692586e-17
205	0x848e5cf4	-3.3469404e-36
206	0x93bd2e01	-4.775567e-27
207	0x86378674	-3.4517255e-35
208	0x836800e1	-6.817968e-37
209	0x3ebef2d8	0.3729465
210	0xab6b2446	-8.353911e-13
211	0x8ab64e79	-1.755548e-32
212	0xa08f5e08	-2.4287367e-19
213	0x3e046916	0.12930712
214	0xab922754	-1.038484e-12
215	0x948ff2fd	-1.4535152e-26
216	0x85b0e695	-1.6635663e-35
217	0xbe4d56aa	-0.20052591
218	0x9c4f7e8c	-6.8654113e-22
219	0x940b8fd8	-7.046075e-27
220	0xbe4c01be	-0.1992254
221	0x8f6dda8a	-1.1727091e-29
222	0x8feee7c3	-2.3557883e-29
223	0x9229b584	-5.3550732e-28
224	0xbe1d96ee	-0.15389606
225	0x97a34d5b	-1.0553155e-24
226	0x9562b614	-4.578397e-26
227	0xbd99bb12	-0.07506384
228	0xbead3f53	-0.33837375
229	0x99ca2c06	-2.0904091e-23
230	0xa018d401	-1.2945047e-19
231	0x3d9ead2a	0.07747872
232	0x866ccedf	-4.4538652e-35
233	0xbe5a8146	-0.21338376
234	0x8e381821	-2.2691369e-30
235	0xbe0cc002	-0.1374512
236	0x3e4b8e58	0.19878519
237	0x9b8456f2	-2.1893755e-22
238	0x3e668f2a	0.2251555
239	0xbe292e50	-0.16521573
240	0x863754e2	-3.4480837e-35
241	0x3e735a17	0.23764835
242	0x8490b4d5	-3.4020305e-36
243	0x3eb6faa1	0.3573809
244	0x3e88a910	0.26691484
245	0xaacf9054	-3.6870734e-13
246	0x9cc0f46c	-1.2768676e-21
247	0xbedf471c	-0.4360894
248	0x3c768f3f	0.015048801
249	0x3e6df04b	0.23236196
250	0xbec2beed	-0.3803629
251	0x86376398	-3.4491645e-35
252	0x998c50b2	-1.4508253e-23
253	0xbe56b3c1	-0.20967008
254	0x85b071d4	-1.6592774e-35
255	0x9b977ea0	-2.5062684e-22

net.2.weight f4 [512]
0	0x81be8c0e	-6.9995946e-38
1	0x19fcf8e8	2.6156722e-23
2	0x04006c48	1.5096048e-36
3	0x1c0d95b6	4.6846483e-22
4	0x06244f25	3.0903118e-35
5	0x3ea2dcb4	0.31809008
6	0x0004fdf2	4.5844e-40
7	0x1b5149c9	1.7311916e-22
8	0x84771ca1	-2.9047856e-36
9	0x3ea064ff	0.31327054
10	0x0fd4df6f	2.0990877e-29
11	0x3d1ba1b2	0.037996
12	0x06b27fd9	6.7144013e-35
13	0x81a92b51	-6.214295e-38
14	0x040490ad	1.5582957e-36
15	0x8e09567f	-1.69282e-30
16	0x3fd27667	1.6442384
17	0x3f9e67e9	1.2375461
18	0x3f346ac5	0.7047542
19	0x024232df	1.4267468e-37
20	0x00b66f4d	1.6753987e-38
21	0x3f0b8b87	0.54509777
22	0x026f99a8	1.7603044e-37
23	0x00039c8e	3.31668e-40
24	0x3ef0cae0	0.4702978
25	0x1b8453a4	2.189162e-22
26	0xa1d67df2	-1.4534542e-18
27	0x3e6b0e23	0.22954611
28	0x3f1b39bd	0.60634977
29	0x23374b64	9.9364145e-18
30	0x3e9a7be3	0.30172643
31	0x3eea4fcb	0.45764002
32	0x1a06a7f0	2.784621e-23
33	0x3e060f47	0.13091765
34	0x3e074bf8	0.13212574
35	0x048ab681	3.2611247e-36
36	0x3f387d30	0.7206602
37	0x03a33888	9.593258e-37
38	0x2fc79c71	3.6309047e-10
39	0x85b347ee	-1.6859502e-35
40	0x1cad4157	1.146507e-21
41	0xa73718dd	-2.540983e-15
42	0x840ece04	-1.6786618e-36
43	0x3eca5ece	0.39525455
44	0x3d44e165	0.048066515
45	0x8ba72d17	-6.4393904e-32
46	0x2b736e7a	8.648426e-13
47	0xb087a685	-9.86987e-10
48	0x323941f2	1.07834115e-08
49	0x3e9c89d2	0.305739
50	0x3f62e56f	0.8863134
51	0x34513c5b	1.9486599e-07
52	0x3e0cc2a7	0.13746129
53	0x05225483	7.632726e-36
54	0xb1c1ea6e	-5.643691e-09
55	0x852503eb	-7.758982e-36
56	0x0dcb0da0	1.2514121e-30
57	0x3f5121fe	0.8169249
58	0xa3366872	-9.888357e-18
59	0x8c219672	-1.2448262e-31
60	0x3eabc1d1	0.33546308
61	0x3eac6753	0.3367258
62	0x228f9a1d	3.89234e-18
63	0x9a25b44d	-3.4266846e-23
64	0x035d1fce	6.4982573e-37
65	0x1a347620	3.7318548e-23
66	0x3e0c1992	0.1368163
67	0x3e0aaf09	0.13543333
68	0xa6e172e1	-1.5643649e-15
69	0x03f06e08	1.4131194e-36
70	0x035d26d3	6.499063e-37
71	0x3edf4bff	0.43612668
72	0x81a11361	-5.9169867e-38
73	0x052056ae	7.5390844e-36
74	0x040942cd	1.6134946e-36
75	0x1275b02f	7.752553e-28
76	0x3e421dab	0.1895663
77	0x3ee91e2b	0.4553083
78	0x031a8b85	4.5416693e-37
79	0x19c033f3	1.9873317e-23
80	0x86b97e0f	-6.977449e-35
81	0x94a0e231	-1.6245088e-26
82	0x0357331d	6.3241497e-37
83	0x0ab6f240	1.7617087e-32
84	0x3f7dbd74	0.9911721
85	0x063796fe	3.4529406e-35
86	0x94cc1b2b	-2.0609452e-26
87	0x3f926a89	1.1438762
88	0xa9e64fdf	-1.0227907e-13
89	0xad6992e4	-1.3277133e-11
90	0x3e871d7f	0.2638969
91	0x0522176e	7.621507e-36
92	0x1d4b7bd3	2.6930842e-21
93	0x8496ce3f	-3.5454238e-36
94	0xb0366c72	-6.6365324e-10
95	0x06bb4f8f	7.045848e-35
96	0x046c6dc4	2.7792069e-36
97	0x3eaec82f	0.34137103
98	0xa0f3c9f8	-4.1299453e-19
99	0x3f0c4e42	0.5480691
100	0x0ef50ae5	6.0407654e-30
101	0x1dab00a1	4.5263973e-21
102	0x023db742	1.3938119e-37
103	0x9ff050b8	-1.0177749e-19
104	0x9f5ec872	-4.7176133e-20
105	0x3dd2d017	0.10293596
106	0x3e03e257	0.1287931
107	0x13f2abf6	6.1258955e-27
108	0x3e761f2a	0.24035326
109	0x9a2b8eec	-3.5477423e-23
110	0x916bb142	-1.8592853e-28
111	0x3f17ec2d	0.5934475
112	0x3f2684aa	0.6504618
113	0x3d7abef4	0.061217263
114	0x1b18d824	1.2642984e-22
115	0x3e9a171b	0.30095753
116	0x2c724722	3.4429755e-12
117	0x04410316	2.2688458e-36
118	0x1620f3fc	1.3001685e-25
119	0x3da20103	0.07910349
120	0x03ea4c71	1.3770834e-36
121	0x8f141211	-7.300443e-30
122	0x8030843a	-4.455538e-39
123	0xb307bcc4	-3.160382e-08
124	0x05268225	7.829186e-36
125	0xa553fe84	-1.8387566e-16
126	0x2023332a	1.3823566e-19
127	0x3cb9b69b	0.02267008
128	0x3f0a4abf	0.54020303
129	0x2a34ec30	1.6069156e-13
130	0x019d5e1c	5.780773e-38
131	0x3411be82	1.3573484e-07
132	0x3e4fa99e	0.20279548
133	0x041f4296	1.8720935e-36
134	0x9fecabd6	-1.00234166e-19
135	0x3d84b8a6	0.064805314
136	0x045d8e43	2.6043749e-36
137	0x05b3ab32	1.6895966e-35
138	0x8ab336b7	-1.7257654e-32
139	0x1308a676	1.7247685e-27
140	0x052d368f	8.144442e-36
141	0x1faa9173	7.2238426e-20
142	0x3f529d22	0.82271016
143	0x3e77f1d5	0.24213345
144	0x9ce81ad3	-1.5359406e-21
145	0x3eb28fbd	0.3487529
146	0x185a4072	2.8208376e-24
147	0x81813765	-4.7466603e-38
148	0x83353b96	-5.325952e-37
149	0x956cc4a7	-4.7814952e-26
150	0xa4caa70e	-8.788654e-17
151	0x3f86a381	1.0518647
152	0x3ec01f1b	0.37523732
153	0x3f10596f	0.56386465
154	0x2c33402c	2.5473052e-12
155	0x9c01b56c	-4.2917e-22
156	0x22a1c7fd	4.3850883e-18
157	0x3e543215	0.2072223
158	0xa18c7286	-9.517083e-19
159	0x0b95d082	5.770644e-32
160	0x1420e42a	8.122933e-27
161	0xa40ce42f	-3.055094e-17
162	0x28f8bb3a	2.7614728e-14
163	0x024cb1da	1.5038594e-37
164	0x1953194d	1.0913554e-23
165	0x18bbfdff	4.8594838e-24
166	0x8b1d7bd3	-3.0330255e-32
167	0x91d0bd09	-3.2933116e-28
168	0x3ea3056b	0.3184007
169	0x3e81922e	0.2530684
170	0x81b72e1e	-6.728976e-38
171	0xa39cbae1	-1.69927e-17
172	0x851040ab	-6.782725e-36
173	0x2a3b6e82	1.6647277e-13
174	0x9ee80b79	-2.45687e-20
175	0x244441ae	4.2556358e-17
176	0x0503de11	6.2003776e-36
177	0x3f2320da	0.63722
178	0x046e2b6d	2.7996706e-36
179	0x3f4a7139	0.79079014
180	0x3da1a9bd	0.07893703
181	0x8ebe1f72	-4.6868897e-30
182	0x82f1f28c	-3.5550982e-37
183	0x282148ff	8.953124e-15
184	0x2b720473	8.5981846e-13
185	0x3fc2579b	1.5182985
186	0x3e982be8	0.29720998
187	0x3e312836	0.17300496
188	0xa30b616f	-7.5558375e-18
189	0x3e6501fe	0.22364041
190	0x8d4f19b4	-6.381774e-31
191	0x32124c88	8.51572e-09
192	0x051613d0	7.056605e-36
193	0x09df24c4	5.371987e-33
194	0x839b34bc	-9.122188e-37
195	0x0c764c19	1.897405e-31
196	0x1b7777a9	2.0470025e-22
197	0x3e7fd73a	0.24984446
198	0x9017c3f9	-2.993047e-29
199	0x3fb0bfcd	1.3808533
200	0xa3bd9d50	-2.0558045e-17
201	0x3e9a8c7d	0.3018531
202	0x13312177	2.235704e-27
203	0x06374943	3.44723e-35
204	0xa69f54c2	-1.1055815e-15
205	0x84d24211	-4.9431435e-36
206	0x17283855	5.435483e-25
207	0x06bac88a	7.026009e-35
208	0x833d4ee3	-5.5632666e-37
209	0x3ef5394c	0.47895277
210	0x30972167	1.099619e-09
211	0x8e490e4e	-2.478205e-30
212	0xa30d3eaf	-7.656899e-18
213	0x3eb04532	0.34427792
214	0xace62c3b	-6.5419037e-12
215	0x18251317	2.1335388e-24
216	0x86377f40	-3.4511963e-35
217	0x3ec86638	0.39140487
218	0x1e27c65a	8.8819245e-21
219	0x169ade18	2.5020203e-25
220	0x3f535d50	0.8256426
221	0x86054f22	-2.5072657e-35
222	0x93d9a0d0	-5.4937075e-27
223	0x9443185f	-9.8497904e-27
224	0x3dee89ec	0.116474
225	0x1b554546	1.764133e-22
226	0x19ca2af5	2.090366e-23
227	0x3cd58a72	0.026066992
228	0x3ea85bde	0.3288259
229	0x9a1818c2	-3.1452862e-23
230	0xa42add3c	-3.7050267e-17
231	0x3e0a5fa5	0.13513048
232	0x873d16b9	-1.4225457e-34
233	0x3f05c51b	0.52253884
234	0x1253ec06	6.687078e-28
235	0x3f011903	0.5042879
236	0x3e264e6c	0.16240853
237	0x1f78d779	5.2694278e-20
238	0x3f60ff0a	0.8788916
239	0x3e494953	0.19656877
240	0x06baca4e	7.0262684e-35
241	0x3ed2f94d	0.41205826
242	0x04a4964b	3.8694237e-36
243	0x3e8afaeb	0.2714456
244	0x3f6a0fa2	0.91430104
245	0xb076f82a	-8.984694e-10
246	0x1fc430a0	8.308967e-20
247	0x3f8b0d60	1.0863457
248	0x3de4facc	0.11180648
249	0x3f2451ea	0.6418749
250	0x3f5f1792	0.8714534
251	0x06bb9479	7.0559743e-35
252	0x1db064a2	4.6690864e-21
253	0x3edb3221	0.42811683
254	0x85b34cba	-1.6861264e-35
255	0x1f4b4fff	4.3053093e-20

net.2.bias f4 [512]
0	0xb5469153	-7.397222e-07
1	0x36d903d2	6.4675487e-06
2	0x368ebc81	4.2538745e-06
3	0x36cb8b9d	6.0661246e-06
4	0x341a723f	1.438393e-07
5	0x3da3f3dc	0.08005497
6	0xb542f5b9	-7.2628205e-07
7	0xb6a57637	-4.931145e-06
8	0xb4ae7d4a	-3.2501185e-07
9	0x3dec238e	0.11530219
10	0xb5e249c8	-1.6859785e-06
11	0x3c5db458	0.013531767
12	0x35cf3a71	1.543971e-06
13	0x3538a4af	6.878499e-07
14	0x36ef5d07	7.133585e-06
15	0x3666156c	3.428514e-06
16	0x3e523470	0.20527816
17	0x3ea39d46	0.31955928
18	0x3e0d5c16	0.13804659
19	0x36b5d58e	5.4190814e-06
20	0x3604f38a	1.9811291e-06
21	0x3dcd279d	0.10017321
22	0xb68205de	-3.874985e-06
23	0xb656b210	-3.199213e-06
24	0x3e67c4a8	0.22633612
25	0x36cb14ab	6.0522775e-06
26	0x3676a959	3.675543e-06
27	0x3d908a49	0.07057626
28	0x3e6a7ad8	0.22898424
29	0x35c38ea4	1.4570146e-06
30	0x3eac8f8e	0.33703274
31	0x3cd01724	0.02540166
32	0x36846c4f	3.9465153e-06
33	0x3c066189	0.008201965
34	0x3bd954a4	0.0066324044
35	0xb4f9cc28	-4.6528407e-07
36	0x3d682f50	0.056685746
37	0x34466990	1.847859e-07
38	0xb5800b24	-9.539986e-07
39	0xb5e99a75	-1.7404806e-06
40	0xb5326c3b	-6.6467663e-07
41	0xb603e33b	-1.9652787e-06
42	0x3490365d	2.6861645e-07
43	0x3d064ea2	0.032789834
44	0x3c8782c2	0.016541842
45	0x348fa448	2.6755356e-07
46	0xb5718b4a	-8.998219e-07
47	0xb670e619	-3.5896721e-06
48	0x35cf86c4	1.5461924e-06
49	0x3e2bff7d	0.1679668
50	0x3e5d9351	0.21638228
51	0x342fde42	1.6379002e-07
52	0x3ca9e536	0.02073918
53	0xb64c62b9	-3.0455833e-06
54	0xb56cdc7f	-8.8237715e-07
55	0xb68cba7c	-4.194035e-06
56	0x335928df	5.056142e-08
57	0xbdb7c1ec	-0.089725345
58	0xb6b09a6d	-5.2631863e-06
59	0x35f4cdaa	1.8239273e-06
60	0x3e6819a3	0.2266603
61	0xbb27402b	-0.0025520425
62	0x362e3360	2.5957925e-06
63	0xb626054b	-2.4739008e-06
64	0xb630741f	-2.6293635e-06
65	0x36d859d4	6.447759e-06
66	0x3d2818ea	0.041039385
67	0x3dbbe165	0.0917385
68	0x35c4e732	1.4670425e-06
69	0xb6da68a4	-6.509088e-06
70	0x35bd0607	1.4083352e-06
71	0x3dcd85c7	0.10035282
72	0x35de00ca	1.6540519e-06
73	0x36625d76	3.3731026e-06
74	0xb4e32df1	-4.2315472e-07
75	0xb60aabdf	-2.0663645e-06
76	0x3d52406f	0.05133098
77	0xbd80230f	-0.06256687
78	0xb43be029	-1.7497281e-07
79	0x36b64fb0	5.4332995e-06
80	0xb4dd5dce	-4.123271e-07
81	0xb68d9d71	-4.220456e-06
82	0xb6220c44	-2.414702e-06
83	0xb5e40074	-1.6987456e-06
84	0x3e26fb14	0.16306716
85	0x36809a33	3.8326484e-06
86	0x3518cf7a	5.692633e-07
87	0x3ddaeb1f	0.10689377
88	0x35eeabdf	1.7782403e-06
89	0xb5a43783	-1.2235108e-06
90	0xbe17267d	-0.14760776
91	0xb587fb3f	-1.0131406e-06
92	0x369990fd	4.576634e-06
93	0xb609bd95	-2.0524942e-06
94	0x3562a8f2	8.443741e-07
95	0x36cf31db	6.1748847e-06
96	0xb64d6dfe	-3.0611404e-06
97	0x3d971625	0.073772706
98	0x36fba79e	7.499896e-06
99	0x3d9180bf	0.071046345
100	0xb5a90a68	-1.259451e-06
101	0x363345da	2.6713737e-06
102	0xb57a9655	-9.335102e-07
103	0x3529c7b4	6.324801e-07
104	0xb6c26296	-5.7931275e-06
105	0x3d0eed6b	0.03489439
106	0xbc36ea79	-0.011164301
107	0x370fc487	8.569222e-06
108	0x3e2a82aa	0.16651407
109	0x35a9391c	1.2608102e-06
110	0x34a6388f	3.096106e-07
111	0x3d4b2d4d	0.04960375
112	0x3e0fdd7b	0.14049332
113	0xbc446803	-0.011987689
114	0xb4e08706	-4.1821494e-07
115	0x3de70e45	0.112820186
116	0xb4c1663e	-3.6023442e-07
117	0x35edda74	1.7721454e-06
118	0xb5f0e9fe	-1.7949494e-06
119	0x3da73a0e	0.0816537
120	0x36513b36	3.1177892e-06
121	0xb6bad2a1	-5.5677524e-06
122	0xb686f088	-4.0215127e-06
123	0xb588e4fa	-1.019943e-06
124	0x36bddb53	5.6581716e-06
125	0x3615d545	2.232687e-06
126	0xb592fc41	-1.0951263e-06
127	0xbb4e9a21	-0.0031524973
128	0x3d4ee41b	0.050510507
129	0xb65267b3	-3.13528e-06
130	0x359cc740	1.1680895e-06
131	0xb5b879b8	-1.3744493e-06
132	0x3dd8a108	0.10577589
133	0xb5b2ad37	-1.3312446e-06
134	0xb487c112	-2.5286187e-07
135	0x3d5918cb	0.05300216
136	0xb5c8590e	-1.492708e-06
137	0x3578987f	9.260911e-07
138	0xb56da3a0	-8.8527486e-07
139	0x3645e1a6	2.9486632e-06
140	0xb51bb141	-5.799994e-07
141	0x365586a4	3.1817845e-06
142	0x3e5a323b	0.21308224
143	0x3da3e506	0.08002667
144	0xb622c408	-2.4253986e-06
145	0x3e782c3f	0.24235629
146	0x35eedf33	1.7797341e-06
147	0xb681e7ca	-3.8714834e-06
148	0x3555a83e	7.959351e-07
149	0xb64eb5cd	-3.0802214e-06
150	0x360cf235	2.1002609e-06
151	0xbdc06e00	-0.09395981
152	0x3de870c0	0.1134963
153	0x3e7932d8	0.24335802
154	0x35c6fb74	1.4825332e-06
155	0xb4ca5625	-3.768811e-07
156	0xb5e178b1	-1.6798932e-06
157	0x3d096f81	0.033553604
158	0x3029de60	6.1797856e-10
159	0x3616de3b	2.2481097e-06
160	0xb3a961b4	-7.887448e-08
161	0x3501fd2a	4.8424647e-07
162	0xb614d81e	-2.2179515e-06
163	0x35b574ef	1.3519583e-06
164	0x35a7ab82	1.2492385e-06
165	0xb496d271	-2.8092794e-07
166	0xb6a82f9a	-5.0123317e-06
167	0xb595b2de	-1.1153422e-06
168	0x3dfe6d3e	0.1242318
169	0x3d16cb00	0.03681469
170	0x356aeb8d	8.7514564e-07
171	0xb67ebe33	-3.795966e-06
172	0x35f9fd3d	1.8625648e-06
173	0x36c38980	5.82746e-06
174	0x3607ae5f	2.0218065e-06
175	0xb4e89127	-4.331898e-07
176	0x35a8ed0f	1.2585969e-06
177	0x3e041760	0.12899542
178	0x368ff6de	4.290471e-06
179	0x3e268b97	0.16264187
180	0x3c2e472d	0.010637087
181	0xb547ccfd	-7.4431574e-07
182	0xb559fe75	-8.1209083e-07
183	0xb594c56d	-1.1084318e-06
184	0x3503e6d3	4.9137196e-07
185	0x3e7ba24b	0.24573629
186	0x3daf81d4	0.085696846
187	0x3cd5006f	0.026001183
188	0x36a6d7b8	4.9722985e-06
189	0x3b3ecddc	0.00291144
190	0x36ca6d25	6.032775e-06
191	0xb575fce0	-9.1637594e-07
192	0x35a2ec03	1.2138629e-06
193	0x352ac010	6.360942e-07
194	0xb6cbd95b	-6.075175e-06
195	0xb52d2335	-6.4498755e-07
196	0x36284920	2.5076515e-06
197	0x3dbd3ee4	0.09240511
198	0x368ee1a4	4.258198e-06
199	0x3e5cbdc6	0.21556768
200	0xb5b897c0	-1.3753233e-06
201	0x3e110f0f	0.141659
202	0x332a3262	3.9627032e-08
203	0xb5f2e15d	-1.8095994e-06
204	0x36621308	3.3687702e-06
205	0xb627b870	-2.4992296e-06
206	0x35860ef8	9.988134e-07
207	0x35e7fef6	1.7285045e-06
208	0x365a4351	3.2523715e-06
209	0x3e82f1df	0.25575158
210	0x36b068ac	5.257394e-06
211	0x36056f2f	1.9883262e-06
212	0xb61b067d	-2.3100577e-06
213	0x3e2a6b68	0.16642535
214	0x35d8ea4f	1.6161447e-06
215	0x361e1396	2.3555235e-06
216	0xb4bf21a9	-3.5601013e-07
217	0x3deb32d7	0.11484306
218	0x36cfc857	6.1924034e-06
219	0xb59e9bf2	-1.1817303e-06
220	0x3e68981a	0.22714272
221	0xb3651641	-5.3338457e-08
222	0xb5a9c054	-1.2647456e-06
223	0xb5fc693e	-1.8806093e-06
224	0x3da33bd2	0.07970394
225	0xb6458a57	-2.9435812e-06
226	0x3623021d	2.4290123e-06
227	0x3bab928a	0.0052359747
228	0x3ca6634d	0.020311022
229	0x35f4484a	1.8200456e-06
230	0xb5bd8ec4	-1.4123148e-06
231	0x3da9bf7b	0.08288475
232	0x3697c76b	4.523366e-06
233	0xbc8abb7a	-0.016935099
234	0x34f83cd4	4.6237858e-07
235	0xbd26099d	-0.04053651
236	0x3ddd1026	0.10794096
237	0xb628cad1	-2.5152005e-06
238	0x3e804627	0.25053522
239	0x3cfd6f13	0.030936753
240	0xb525f808	-6.1828223e-07
241	0x3e26a23d	0.16272826
242	0xb5ec9870	-1.7627735e-06
243	0x3e474d54	0.19463092
244	0x3d5cb7a1	0.05388606
245	0xb4d1dc4a	-3.9089565e-07
246	0xb5b56627	-1.3515281e-06
247	0x3e2e4d80	0.17021751
248	0x3c58eb26	0.0132396575
249	0x3e4eaa89	0.20182241
250	0x3bbb23e7	0.005711067
251	0x358a5354	1.0306053e-06
252	0x35e03aea	1.6706447e-06
253	0x3df4cdc3	0.119533084
254	0xb4146782	-1.382123e-07
255	0xb66657fd	-3.4323887e-06

net.2.running_mean f4 [512]
0	0x808dc165	-1.3018182e-38
1	0x951d55d3	-3.17736e-26
2	0x80a67c21	-1.5289221e-38
3	0x96995cc7	-2.4777034e-25
4	0x83744014	-7.1778713e-37
5	0x3dba7c0f	0.091056935
6	0x8023e944	-3.297922e-39
7	0x95255db8	-3.3395416e-26
8	0x81475834	-3.661381e-38
9	0x3cc93105	0.024559507
10	0x8a6edd29	-1.1500879e-32
11	0x3b340b1b	0.002747244
12	0x8414bfff	-1.7485477e-36
13	0x801ff03a	-2.933077e-39
14	0x81065e0e	-2.4679394e-38
15	0x8734a78c	-1.3590933e-34
16	0x3d5bdc94	0.053677157
17	0x3da19740	0.07890177
18	0x3e06f286	0.13178453
19	0x8053d3b0	-7.698285e-39
20	0x8016a7a7	-2.080523e-39
21	0x3c9c3500	0.019068241
22	0x80c21a34	-1.7825486e-38
23	0x8023aa64	-3.275367e-39
24	0x3d9c27e4	0.07624796
25	0x97a94959	-1.0939885e-24
26	0x9d424dc7	-2.5715896e-21
27	0x3bfbd448	0.007685218
28	0x3d84b749	0.06480271
29	0x9d5a076d	-2.8855899e-21
30	0x3d63cd7b	0.055615883
31	0xb9cff8be	-0.00039667444
32	0x932d7810	-2.1894865e-27
33	0xbb07757a	-0.0020669387
34	0x3c8bfa61	0.017087163
35	0x819da65a	-5.7911394e-38
36	0x3e0c6494	0.13710243
37	0x809d6571	-1.4454563e-38
38	0xaa34d9cd	-1.6062776e-13
39	0x82cab33e	-2.9784112e-37
40	0x1b65799f	1.8981734e-22
41	0xa0672e2f	-1.9581742e-19
42	0x810dae36	-2.60226e-38
43	0xbb3c31a7	-0.0028716119
44	0x3d16d4c3	0.036824
45	0x8c0aae2d	-1.0683547e-31
46	0xa59f8e06	-2.7678342e-16
47	0xa8924c77	-1.6242417e-14
48	0xad87980c	-1.5415245e-11
49	0x3c75078f	0.014955415
50	0x3de80403	0.1132889
51	0xac63d44e	-3.2376493e-12
52	0x3d099fdd	0.033599723
53	0x8222e6b2	-1.1968087e-37
54	0xaca6e162	-4.7430263e-12
55	0x826822cc	-1.7054654e-37
56	0x877b17b0	-1.8890102e-34
57	0x3ddd8111	0.10815633
58	0x9db435b6	-4.770114e-21
59	0x8aa721ea	-1.6094272e-32
60	0x3da1222c	0.07867846
61	0xbaceeee2	-0.0015787745
62	0x9ba8cc6e	-2.7925378e-22
63	0x93be3b24	-4.802106e-27
64	0x80579304	-8.042427e-39
65	0x1a1a3308	3.1887676e-23
66	0x3db0afb7	0.08627265
67	0x3dff9c6d	0.12481008
68	0xa09e81af	-2.6852059e-19
69	0x8079d08c	-1.1186908e-38
70	0x804f7249	-7.296002e-39
71	0x3e04903e	0.12945649
72	0x8043ad79	-6.215209e-39
73	0x827c4b31	-1.8535615e-37
74	0x813ced10	-3.470023e-38
75	0x8e210a5a	-1.9849766e-30
76	0x3dcb575f	0.09928774
77	0xbb1014bd	-0.0021985017
78	0x80426a34	-6.099241e-39
79	0x16a2c07b	2.6293984e-25
80	0x831cb7ee	-4.605542e-37
81	0x8e01bc40	-1.5991117e-30
82	0x80827ea5	-1.1984046e-38
83	0x849af622	-3.6431263e-36
84	0x3ceadfd6	0.028671186
85	0x8360a810	-6.602061e-37
86	0x9074b01f	-4.8256194e-29
87	0x3df457d2	0.11930813
88	0xa2a40e21	-4.446725e-18
89	0xa805556c	-7.401506e-15
90	0x3dde8afc	0.10866353
91	0x820151c6	-9.500891e-38
92	0x96ab21f0	-2.7647958e-25
93	0x818b5f6a	-5.119745e-38
94	0xa89d14cf	-1.7439526e-14
95	0x831eaf3a	-4.6633177e-37
96	0x81bb8337	-6.8881235e-38
97	0x3d193e56	0.037412964
98	0x9cb8d75c	-1.2231768e-21
99	0x3ccd9b86	0.025098573
100	0x88e82ee2	-1.3974014e-33
101	0x98076883	-1.7501106e-24
102	0x8026ff6d	-3.581378e-39
103	0x9aeda736	-9.8291046e-23
104	0x991c0e6c	-8.0679234e-24
105	0x3cc4659f	0.023974238
106	0x3dd6f214	0.104953915
107	0x8cb46678	-2.7795062e-31
108	0x3d897a08	0.06712729
109	0x19afcc43	1.8177077e-23
110	0x8a92a53e	-1.4121446e-32
111	0x3df4103b	0.11917158
112	0x3d8768bf	0.066117756
113	0x3c91bdfb	0.017790785
114	0x95fcc4e7	-1.02092647e-25
115	0x3cc25231	0.023720833
116	0xa6032fb6	-4.5514415e-16
117	0x81e04530	-8.2383884e-38
118	0x95aa8384	-6.886995e-26
119	0x3cbb2b0d	0.022847677
120	0x8138b64a	-3.3926249e-38
121	0x898eea18	-3.4405397e-33
122	0x802d45dd	-4.15766e-39
123	0xabdd6afc	-1.5732689e-12
124	0x823be0b3	-1.3803076e-37
125	0x9e7bef46	-1.333731e-20
126	0x9a1529fc	-3.0846393e-23
127	0x3cd51666	0.026011657
128	0x3a64a4f6	0.0008722091
129	0xa7d5d4f8	-5.9350277e-15
130	0x801acdc9	-2.461545e-39
131	0xac0d842b	-2.0110673e-12
132	0x3b358c44	0.0027702013
133	0x81029810	-2.3986328e-38
134	0x9acd5989	-8.4930665e-23
135	0x3d403d70	0.04693359
136	0x81a453ed	-6.0364513e-38
137	0x82ca0d51	-2.9688876e-37
138	0x85589faa	-1.0185597e-35
139	0x8c500c41	-1.6027425e-31
140	0x8215e993	-1.1013824e-37
141	0x9984603a	-1.3687346e-23
142	0x3d831700	0.06400871
143	0x3c9dc8e8	0.019260839
144	0x96a61138	-2.6829613e-25
145	0x3db55a40	0.088551044
146	0x93dfb918	-5.647563e-27
147	0x803a7250	-5.367466e-39
148	0x8079c667	-1.1183268e-38
149	0x9107a6f4	-1.0701069e-28
150	0x9df50018	-6.4851057e-21
151	0x3c1f14a6	0.009709513
152	0x3db74861	0.08949352
153	0x3e2981b5	0.16553386
154	0xa533d793	-1.5598814e-16
155	0x959a4b26	-6.231867e-26
156	0x9cb23808	-1.1793536e-21
157	0xbb2e7421	-0.0026619511
158	0x9a9eb8bc	-6.564572e-23
159	0x867e846e	-4.7869384e-35
160	0x8dec15e4	-1.4549893e-30
161	0x9f6472d4	-4.837586e-20
162	0xa227733c	-2.2693725e-18
163	0x809fc46c	-1.4672307e-38
164	0x1915a34f	7.736099e-24
165	0x9370ded0	-3.0402114e-27
166	0x0b0121a5	2.4869808e-32
167	0x8bf0ac7c	-9.2704163e-32
168	0x3ba94ea7	0.005166847
169	0x3bd1ae51	0.006398954
170	0x80a6f10f	-1.5331168e-38
171	0x9c9e9914	-1.0495133e-21
172	0x8206237c	-9.854949e-38
173	0xa5e52271	-3.9748506e-16
174	0x985b14fc	-2.8315681e-24
175	0x9ee909b2	-2.4673844e-20
176	0x828cfe41	-2.0717086e-37
177	0x3cf11553	0.029429113
178	0x812b5256	-3.1466813e-38
179	0x3dfc3934	0.12315598
180	0x3ba7afa0	0.0051173717
181	0x880994b7	-4.140175e-34
182	0x809d72d4	-1.4459365e-38
183	0xa0bb3977	-3.171706e-19
184	0xa4c45622	-8.5147365e-17
185	0x3b6b54cd	0.00359087
186	0x3bdde95b	0.006772203
187	0x3c0adf60	0.008476108
188	0x22025cff	1.7667517e-18
189	0xbb09ed92	-0.0021046144
190	0x873c08bb	-1.4146114e-34
191	0xabc3eb1e	-1.3920841e-12
192	0x828cac89	-2.0670181e-37
193	0x83cedb60	-1.2157958e-36
194	0x8092897e	-1.3457305e-38
195	0x867ae91c	-4.7191036e-35
196	0x1a9fd88f	6.611073e-23
197	0x3d479491	0.04872567
198	0x89673d2c	-2.7834376e-33
199	0x3da886b8	0.082288206
200	0x9e2ee56e	-9.258928e-21
201	0x3c86c025	0.016449044
202	0x8e04d984	-1.6374986e-30
203	0x82e6b22e	-3.3897733e-37
204	0xa0529edf	-1.7840258e-19
205	0x81561162	-3.9318064e-38
206	0x90f6f96a	-9.7414175e-29
207	0x8364416c	-6.707828e-37
208	0x804b5f46	-6.92184e-39
209	0x3e13e17b	0.14441483
210	0xa9b5eb7e	-8.078866e-14
211	0x8792be30	-2.207942e-34
212	0x9da07931	-4.2476956e-21
213	0x3b938814	0.0045023058
214	0xa84853c8	-1.1120397e-14
215	0x91a4317c	-2.5905135e-28
216	0x82cb1369	-2.983931e-37
217	0x3c314d5b	0.010821666
218	0x9994fcec	-1.5404996e-23
219	0x90e3222f	-8.958838e-29
220	0x3da6960c	0.08134088
221	0x8c18f8d0	-1.1784528e-31
222	0x8d1a9b5f	-4.7641935e-31
223	0x1365531c	2.894484e-27
224	0x3d5b76b4	0.05358
225	0x94ede4c1	-2.4021112e-26
226	0x930cb4bd	-1.7759595e-27
227	0x3b4acba6	0.0030944138
228	0x3cfe75e6	0.031062078
229	0x9680042d	-2.068215e-25
230	0x9d5de587	-2.936777e-21
231	0x3d24161d	0.04006015
232	0x836fab7f	-7.0432655e-37
233	0x3ddbef1c	0.10738966
234	0x8ca74593	-2.5772298e-31
235	0x3c86c8de	0.016453203
236	0x3daf308d	0.08554182
237	0x98b549a4	-4.686176e-24
238	0x3e0ab7fc	0.13546747
239	0x3b2a97cc	0.002603042
240	0x833ad995	-5.491026e-37
241	0x3df7a52e	0.120920524
242	0x81a34ee3	-5.998994e-38
243	0x3d99d06f	0.07510459
244	0x3dea038b	0.11426457
245	0xaa6aa6d8	-2.084126e-13
246	0x99d454f0	-2.1954592e-23
247	0x3d9e6c62	0.07735516
248	0xb81082ea	-3.44542e-05
249	0x3e12fe14	0.14354736
250	0x3d1f8d45	0.038953084
251	0x8375c7d5	-7.2228425e-37
252	0x96d43294	-3.4282367e-25
253	0x3d9586b9	0.07301087
254	0x8273d506	-1.7913955e-37
255	0x98524f96	-2.7182044e-24

net.2.running_var f4 [512]
0	0x00000004	6e-45
1	0x00000004	6e-45
2	0x00000004	6e-45
3	0x00000004	6e-45
4	0x00000004	6e-45
5	0x3bbd911b	0.00578512
6	0x00000004	6e-45
7	0x00000004	6e-45
8	0x00000004	6e-45
9	0x3b734930	0.003712248
10	0x00000004	6e-45
11	0x38ac0146	8.201836e-05
12	0x00000004	6e-45
13	0x00000004	6e-45
14	0x00000004	6e-45
15	0x00000004	6e-45
16	0x3b9b39be	0.004737108
17	0x3c0aeecf	0.008479788
18	0x3c87d406	0.016580593
19	0x00000004	6e-45
20	0x00000004	6e-45
21	0x3b4a2bb1	0.0030848796
22	0x00000004	6e-45
23	0x00000004	6e-45
24	0x3c165275	0.009174933
25	0x00000004	6e-45
26	0x0000026c	8.69e-43
27	0x3a936682	0.001124576
28	0x3bf61852	0.0075102234
29	0x000000e7	3.24e-43
30	0x3b96ea46	0.0046055643
31	0x38b7e7d3	8.7693006e-05
32	0x00000004	6e-45
33	0x3802bddb	3.1171232e-05
34	0x3ab370e1	0.0013690257
35	0x00000004	6e-45
36	0x3ca24057	0.01980607
37	0x00000004	6e-45
38	0x1362152e	2.8535653e-27
39	0x00000004	6e-45
40	0x00000004	6e-45
41	0x00101870	1.478134e-39
42	0x00000004	6e-45
43	0x38cd01b2	9.7754775e-05
44	0x3b19ab7b	0.0023448158
45	0x00000004	6e-45
46	0x09d398e1	5.094017e-33
47	0x10c64c48	7.821476e-29
48	0x1a403d42	3.9754153e-23
49	0x3a796f20	0.0009515155
50	0x3c03ca28	0.008043803
51	0x17917569	9.400044e-25
52	0x3bb6add2	0.00557492
53	0x00000004	6e-45
54	0x19159e1b	7.7350486e-24
55	0x00000004	6e-45
56	0x00000004	6e-45
57	0x3c4becc5	0.012446587
58	0x00000270	8.74e-43
59	0x00000004	6e-45
60	0x3cbdadfd	0.023154253
61	0x3769f2bd	1.3944399e-05
62	0x00000004	6e-45
63	0x00000004	6e-45
64	0x00000004	6e-45
65	0x00000004	6e-45
66	0x3c0779e2	0.008268805
67	0x3c77c4a2	0.0151225645
68	0x0031a3a7	4.558647e-39
69	0x00000004	6e-45
70	0x00000004	6e-45
71	0x3c8a374e	0.016872074
72	0x00000004	6e-45
73	0x00000004	6e-45
74	0x00000004	6e-45
75	0x00000004	6e-45
76	0x3c1a0468	0.009400465
77	0x372fc118	1.0475771e-05
78	0x00000004	6e-45
79	0x00000004	6e-45
80	0x00000004	6e-45
81	0x00000004	6e-45
82	0x00000004	6e-45
83	0x00000004	6e-45
84	0x3b239560	0.002496086
85	0x00000004	6e-45
86	0x00000004	6e-45
87	0x3cbe48ff	0.023228167
88	0x0436f5fe	2.1506951e-36
89	0x10115bb3	2.866685e-29
90	0x3cc41d41	0.02393973
91	0x00000004	6e-45
92	0x00000004	6e-45
93	0x00000004	6e-45
94	0x104eac45	4.0759048e-29
95	0x00000004	6e-45
96	0x00000004	6e-45
97	0x3b8336eb	0.0040043495
98	0x00000048	1.01e-43
99	0x3aea1bd0	0.0017861072
100	0x00000004	6e-45
101	0x00000004	6e-45
102	0x00000004	6e-45
103	0x00000004	6e-45
104	0x00000004	6e-45
105	0x3b300d4b	0.0026863392
106	0x3c889ec7	0.016677273
107	0x00000004	6e-45
108	0x3c2692e1	0.010166855
109	0x00000004	6e-45
110	0x00000004	6e-45
111	0x3c8d2296	0.017228406
112	0x3c10143e	0.008793889
113	0x3abd0129	0.0014419901
114	0x00000004	6e-45
115	0x3b6b4984	0.0035901973
116	0x0ba836e8	6.479386e-32
117	0x00000004	6e-45
118	0x00000004	6e-45
119	0x3b12e627	0.0022415014
120	0x00000004	6e-45
121	0x00000004	6e-45
122	0x00000004	6e-45
123	0x1689ac17	2.2242148e-25
124	0x00000004	6e-45
125	0x00005bcc	3.293e-41
126	0x00000004	6e-45
127	0x3af10c92	0.0018390587
128	0x3972d78b	0.00023159214
129	0x0ab5820f	1.7478589e-32
130	0x00000004	6e-45
131	0x16af6d54	2.834177e-25
132	0x3985dfc6	0.0002553446
133	0x00000004	6e-45
134	0x00000004	6e-45
135	0x3b57815a	0.0032883496
136	0x00000004	6e-45
137	0x00000004	6e-45
138	0x00000004	6e-45
139	0x00000004	6e-45
140	0x00000004	6e-45
141	0x00000004	6e-45
142	0x3c1d01a4	0.009582911
143	0x3b34cca8	0.0027587805
144	0x00000004	6e-45
145	0x3c0b06ef	0.00848554
146	0x00000004	6e-45
147	0x00000004	6e-45
148	0x00000004	6e-45
149	0x00000004	6e-45
150	0x000004f6	1.78e-42
151	0x39f3028f	0.00046350478
152	0x3c0a0074	0.00842296
153	0x3c8f174d	0.017467165
154	0x089fd7c6	9.6201925e-34
155	0x00000004	6e-45
156	0x00000004	6e-45
157	0x3567fd18	8.6422506e-07
158	0x00000004	6e-45
159	0x00000004	6e-45
160	0x00000004	6e-45
161	0x00001e08	1.0773e-41
162	0x03a03ebc	9.418358e-37
163	0x00000004	6e-45
164	0x00000004	6e-45
165	0x00000004	6e-45
166	0x00000004	6e-45
167	0x00000004	6e-45
168	0x3a1c285b	0.0005956941
169	0x3a3bb278	0.0007160078
170	0x00000004	6e-45
171	0x0000005f	1.33e-43
172	0x00000004	6e-45
173	0x0badd5ae	6.6958686e-32
174	0x00000004	6e-45
175	0x0004295c	3.82179e-40
176	0x00000004	6e-45
177	0x3b7eef55	0.0038899977
178	0x00000004	6e-45
179	0x3cb59b07	0.02216865
180	0x3a0c42a1	0.00053505047
181	0x00000004	6e-45
182	0x00000004	6e-45
183	0x0081df1b	1.1926814e-38
184	0x083abb27	5.6192336e-34
185	0x392dcbd7	0.00016574502
186	0x3a3650ff	0.00069548184
187	0x3a57256b	0.0008207175
188	0x0484c4b4	3.1213694e-36
189	0x37c3e970	2.3354514e-05
190	0x00000004	6e-45
191	0x166ab290	1.8958714e-25
192	0x00000004	6e-45
193	0x00000004	6e-45
194	0x00000004	6e-45
195	0x00000004	6e-45
196	0x00000004	6e-45
197	0x3bc48ce6	0.0059982417
198	0x00000004	6e-45
199	0x3c0fe324	0.008782182
200	0x000020f4	1.1821e-41
201	0x3aeae22c	0.0017920188
202	0x00000004	6e-45
203	0x00000004	6e-45
204	0x000e82a6	1.332565e-39
205	0x00000004	6e-45
206	0x00000004	6e-45
207	0x00000004	6e-45
208	0x00000004	6e-45
209	0x3ca7cb92	0.020482812
210	0x135980fc	2.7452845e-27
211	0x00000004	6e-45
212	0x0000031c	1.115e-42
213	0x3a26884f	0.0006352709
214	0x107909a3	4.9114015e-29
215	0x00000004	6e-45
216	0x00000004	6e-45
217	0x3ab18ec3	0.0013546575
218	0x00000004	6e-45
219	0x00000004	6e-45
220	0x3c6eaced	0.014567596
221	0x00000004	6e-45
222	0x00000004	6e-45
223	0x00000004	6e-45
224	0x3bb3dc49	0.0054889065
225	0x00000004	6e-45
226	0x00000004	6e-45
227	0x38cdbc51	9.8102384e-05
228	0x3b8f0d78	0.0043656193
229	0x00000004	6e-45
230	0x0000018d	5.56e-43
231	0x3b81e091	0.003963538
232	0x00000004	6e-45
233	0x3c3d9ee6	0.011573529
234	0x00000004	6e-45
235	0x3ab8f809	0.0014112006
236	0x3bf5d349	0.007501994
237	0x00000004	6e-45
238	0x3c3e843c	0.011628207
239	0x3a1c0e3a	0.00059530477
240	0x00000004	6e-45
241	0x3c8114ff	0.015757082
242	0x00000004	6e-45
243	0x3c4098ad	0.011755151
244	0x3c5d9394	0.013523955
245	0x14bf9194	1.9343492e-26
246	0x00000004	6e-45
247	0x3c79c30e	0.015244259
248	0x36c1ac07	5.771875e-06
249	0x3c54b1b3	0.01298182
250	0x3b82eaba	0.0039952667
251	0x00000004	6e-45
252	0x00000004	6e-45
253	0x3c471c0c	0.012152683
254	0x00000004	6e-45
255	0x00000004	6e-45

net.3.weight f4 [256, 512]
0	0xb2973960	-1.7604805e-08
1	0x371fed9c	9.532461e-06
2	0xb5e08fd6	-1.6731162e-06
3	0x373121c6	1.0557886e-05
4	0xb689868f	-4.098583e-06
5	0xbd16d4a5	-0.036823887
6	0xb618198a	-2.266463e-06
7	0xb718c25b	-9.105158e-06
8	0x368641ac	4.0011564e-06
9	0xbcb26695	-0.02177743
10	0x3630db57	2.6353716e-06
11	0xbcba93ff	-0.022775648
12	0x3718c338	9.105359e-06
13	0x3700b266	7.670931e-06
14	0x3709f06a	8.221812e-06
15	0x36e4204f	6.7986907e-06
16	0xbe60e163	-0.21960978
17	0x3e0ec791	0.13943316
18	0x3d4b0d42	0.04957319
19	0x3706b824	8.029896e-06
20	0xb73ad0a8	-1.11350455e-05
21	0xbd17cd4f	-0.037061032
22	0xb6e50ff3	-6.8265886e-06
23	0xb6535508	-3.1490945e-06
24	0xbc070c23	-0.00824264
25	0x3729f9e1	1.0131364e-05
26	0x37389d2f	1.1003852e-05
27	0xbcb22037	-0.021743877
28	0x3b7816c7	0.0037855373
29	0x362415e2	2.4450642e-06
30	0xbcf896a8	-0.030345276
31	0x3d45122e	0.04811304
32	0x36c7a298	5.9495906e-06
33	0xbb31f462	-0.002715372
34	0x3ca2da17	0.019879384
35	0x368289d4	3.890347e-06
36	0xbd29dcb9	-0.041470263
37	0x3730c51a	1.0536309e-05
38	0x3718450e	9.075984e-06
39	0xb7096a36	-8.1905655e-06
40	0x3666eb63	3.4409684e-06
41	0xb71c85a5	-9.329441e-06
42	0x367978e4	3.717426e-06
43	0xbb5ab57a	-0.0033372329
44	0x3b48d0ca	0.0030642026
45	0xb6752827	-3.6531217e-06
46	0xb71ee0c1	-9.4698635e-06
47	0xb6732a48	-3.6234433e-06
48	0xb72afdfc	-1.0191925e-05
49	0x3daedafd	0.085378624
50	0x3d8193c3	0.063270114
51	0x3715aed9	8.921802e-06
52	0x3a99919b	0.0011716367
53	0xb6cf2c2e	-6.174224e-06
54	0x360313e0	1.953209e-06
55	0xb69d7c8f	-4.693465e-06
56	0x3736b86a	1.0890983e-05
57	0xbd47ca08	-0.048776656
58	0xb7027021	-7.774711e-06
59	0x37231e1b	9.722567e-06
60	0xbddaff96	-0.106932804
61	0xbc30f78e	-0.010801209
62	0x36904b61	4.3003097e-06
63	0xb6ed9d6c	-7.0814767e-06
64	0xb6592e4c	-3.2362468e-06
65	0x372568a6	9.859132e-06
66	0xbb67b1f3	-0.0035353869
67	0xbcc55186	-0.024086725
68	0x37216bc4	9.621439e-06
69	0xb72693b5	-9.928762e-06
70	0xb549fcfe	-7.5246487e-07
71	0x3d901118	0.070345104
72	0x370b132a	8.289508e-06
73	0x362035b4	2.3873117e-06
74	0x3738ae9c	1.1007909e-05
75	0xb6fa2477	-7.4548257e-06
76	0x3c57e07c	0.01317608
77	0x3d47a970	0.048745573
78	0xb658d59f	-3.2310852e-06
79	0x372c6870	1.0276315e-05
80	0x367d781e	3.7769855e-06
81	0xb6ff43ad	-7.6074707e-06
82	0xb6ca865d	-6.035711e-06
83	0x3741c2c8	1.15490475e-05
84	0xbe0e689f	-0.13907097
85	0x368da420	4.221234e-06
86	0xb6164d88	-2.239687e-06
87	0x3d8a6ab0	0.0675863
88	0x36c037b4	5.7285306e-06
89	0x3737bb83	1.09513085e-05
90	0x3dd3a278	0.10333723
91	0xb7095132	-8.184741e-06
92	0x3688541d	4.062908e-06
93	0xb71ade2f	-9.230846e-06
94	0x36727b1a	3.6132465e-06
95	0x3721afe1	9.637298e-06
96	0xb68b1a66	-4.145596e-06
97	0x3d4e5d02	0.050381668
98	0x376fcfdc	1.4293906e-05
99	0xbdf2853f	-0.11841821
100	0xb71ddefd	-9.409848e-06
101	0x370a0f21	8.228963e-06
102	0xb7024ada	-7.766032e-06
103	0x36945216	4.4203e-06
104	0xb72e4ca1	-1.038905e-05
105	0xbd0325b9	-0.032018397
106	0x3b7235a1	0.0036958235
107	0x366ce6ec	3.5301155e-06
108	0xbb29b72e	-0.0025896537
109	0x37228439	9.686738e-06
110	0x3713eb03	8.816601e-06
111	0xbd743282	-0.05961848
112	0xbbaf3781	-0.0053471928
113	0x3b6e6e4f	0.0036381667
114	0x36757c8f	3.6580348e-06
115	0x3c7cccfa	0.01542973
116	0xb69df678	-4.7076574e-06
117	0xb48c395d	-2.611877e-07
118	0xb6c9f6b5	-6.0189873e-06
119	0xbd1451bf	-0.03621077
120	0x3691974f	4.3389514e-06
121	0xb65e884e	-3.3159918e-06
122	0xb6c94f68	-5.999511e-06
123	0xb7277fa6	-9.983696e-06
124	0x36adf7ff	5.1846723e-06
125	0x36d1a9ed	6.2484673e-06
126	0x3735c04e	1.0833215e-05
127	0xbb995117	-0.004678856
128	0x3db07796	0.08616559
129	0x36a55d1e	4.9282235e-06
130	0x370c7dc1	8.37393e-06
131	0x37185de4	9.081767e-06
132	0x3d5a5068	0.053299338
133	0x373141c1	1.0565332e-05
134	0x35ed4f6c	1.7680991e-06
135	0xbd01da59	-0.031702373
136	0xb71badce	-9.279187e-06
137	0x371afa50	9.237396e-06
138	0xb7237eb0	-9.745054e-06
139	0x36cafbfe	6.049405e-06
140	0xb683e857	-3.931152e-06
141	0xb72f8af5	-1.0463166e-05
142	0xbd6d389a	-0.057915308
143	0xbcca8064	-0.024719425
144	0xb6fb763a	-7.4941463e-06
145	0xbdeede64	-0.116635114
146	0x36b5db74	5.419768e-06
147	0xb68565a2	-3.9755405e-06
148	0x367bcf5c	3.7522614e-06
149	0xb701f301	-7.745578e-06
150	0x36f77708	7.3750307e-06
151	0x3d2ac866	0.04169502
152	0xbdb421df	-0.08795523
153	0x3d2b2810	0.041786253
154	0x372cc8f3	1.0298786e-05
155	0xb678d26a	-3.7077357e-06
156	0xb7186999	-9.084492e-06
157	0xbbcd1988	-0.006259147
158	0xb682ab8b	-3.894272e-06
159	0x3718fac6	9.118294e-06
160	0xb682f0f6	-3.9023535e-06
161	0x3696e432	4.496914e-06
162	0x3692edf6	4.3788414e-06
163	0x370fcb1e	8.570756e-06
164	0xb7402408	-1.1452481e-05
165	0xb66e4f21	-3.5510823e-06
166	0xb6e1446c	-6.713488e-06
167	0xb606bfe3	-2.0079249e-06
168	0xbd236f07	-0.039900806
169	0x3d336fb7	0.04380771
170	0x371cfc67	9.357092e-06
171	0x368836cb	4.0594946e-06
172	0x37069afd	8.023108e-06
173	0x372267aa	9.680089e-06
174	0xb566b14e	-8.593969e-07
175	0x372d044f	1.0312607e-05
176	0x36f7f10f	7.3892365e-06
177	0xbd7e206a	-0.06204263
178	0xb608cd96	-2.0385246e-06
179	0xbcac8b9c	-0.021062665
180	0x3a0b5608	0.0005315249
181	0x374c0b70	1.21620105e-05
182	0xb708e1c6	-8.158799e-06
183	0x34fa1d22	4.6587326e-07
184	0xb67c731d	-3.761793e-06
185	0x3d0995dc	0.033590183
186	0x3e3a76af	0.18209337
187	0x3cde3e46	0.027129304
188	0x37244377	9.79087e-06
189	0x3c84013f	0.016113875
190	0x37104567	8.599228e-06
191	0xb6849fee	-3.952525e-06
192	0x3665ea3b	3.426e-06
193	0x37296529	1.0096738e-05
194	0xb6f606dc	-7.33217e-06
195	0x373b84f6	1.1177026e-05
196	0x36a51adf	4.9205114e-06
197	0xbbfff588	-0.007811252
198	0x369427ca	4.4153758e-06
199	0x3e453849	0.19259752
200	0xb7110206	-8.643145e-06
201	0xbcccd81f	-0.025005398
202	0xb6748844	-3.643815e-06
203	0xb71cbaf8	-9.341857e-06
204	0xb73beb00	-1.1200784e-05
205	0x36d9b49e	6.4881306e-06
206	0xb7206e2b	-9.562394e-06
207	0x3708e678	8.159892e-06
208	0x36eaed3c	7.001361e-06
209	0x3ae12b79	0.0017179094
210	0x370471ff	7.894355e-06
211	0x35c6b792	1.4805576e-06
212	0xb7160ec8	-8.944138e-06
213	0x3c02dbe3	0.007986995
214	0x36ae7897	5.1996426e-06
215	0x37141f96	8.828842e-06
216	0xb70d8308	-8.434763e-06
217	0xbd67effd	-0.056625355
218	0x372cc66b	1.0298197e-05
219	0xb6824392	-3.882168e-06
220	0x3d909625	0.07059888
221	0x3734ea50	1.0783391e-05
222	0xb720d6f6	-9.586793e-06
223	0x37028fed	7.782114e-06
224	0xbc9934f1	-0.018702002
225	0xb6e423ae	-6.799083e-06
226	0x370293c0	7.783005e-06
227	0x3a228b6c	0.0006200585
228	0xbb3200b0	-0.0027161054
229	0x36855ea1	3.974725e-06
230	0xb71d4697	-9.374365e-06
231	0xbd172de7	-0.03690901
232	0x36a79dac	4.9953433e-06
233	0xb9ecbd44	-0.00045154442
234	0xb7383336	-1.0979178e-05
235	0xbe28295c	-0.16422027
236	0x3c1bedc9	0.009517142
237	0xb70ab3dc	-8.267318e-06
238	0x3d21b849	0.03948239
239	0x3c9cfba7	0.019162966
240	0xb722e1ef	-9.708557e-06
241	0x3c43bd8e	0.011947049
242	0x370972c1	8.192555e-06
243	0xb8b3818a	-8.559514e-05
244	0x3dd79dfb	0.10528179
245	0xb697b90c	-4.521693e-06
246	0xb729d49b	-1.0122686e-05
247	0x3dea98c9	0.11454923
248	0x3cf66571	0.030077668
249	0x3d32b484	0.043629184
250	0x3cac85a9	0.021059828
251	0x369bf14b	4.64745e-06
252	0x3677a809	3.6903677e-06
253	0x3d48c5a1	0.0490166
254	0xb686a8aa	-4.0131463e-06
255	0xb687f0d4	-4.0513496e-06
