training_results/training_synergies_results/training_20250610_174333/FCNN_45_PCA.pth (torch, 727610 bytes, 18 tensors)

net.0.weight f4 [512, 4]
00000000: c3cf 853e 3229 3cbc 7a2b 153c c894 34be
00000010: 7c54 3586 a2e7 8d05 c890 3586 4195 3686
00000020: b3b6 153c a5a2 c63d 74da d23e 5b13 16be
00000030: 608a 63bd e6b9 b7bd 594a 07bf e2a5 863c
00000040: 045f b13e 05b3 273e 424a 64be a6b7 d73d
00000050: 7308 8683 87d0 6c83 2998 9483 5b76 7383
00000060: 1bb2 09bf 9967 4fbc eefd 3abc d372 a33e
00000070: 75be 4d3e ba8f 94be 895e fe3c 1abe b4be
00000080: 76e3 1784 eedc 0884 265d 0884 a1e7 0a84
00000090: c0d6 bb14 d291 7a14 693b 4895 52bc 9a95
000000a0: 3824 0f9b 9cb9 b61d c60b c19b 9090 2c25
000000b0: 26c3 a3bb a77d 32bf 7404 e23c 62bb 833c
000000c0: 029d b23c 2827 19bd 0eed 19be d355 8a3d
000000d0: e049 fd00 e873 8d84 aa07 cd02 a49f 9483
000000e0: cdac f783 9144 0c84 3a44 7183 805b d183
000000f0: 3726 a93d ddaf a1bd 0d5b e93d 465e 2fbe
00000100: f200 2783 c079 9604 df95 7c03 0606 8684
00000110: 909f b13e b702 9ebe 122a 1cbe b7b8 40bc
00000120: 16ad cebd 8c1a f43d c049 8abe db7c 613c
00000130: 0511 693b 0391 c63c 0865 0e3f 367e 123d
00000140: bc7f 8405 bd23 a785 6404 a685 4841 a185
00000150: baf1 883e 7956 983e dcd8 b0be a167 a3be
00000160: 6df8 f882 50ce f882 7611 b682 adc4 ac82
00000170: 3372 643c 78da 29bb 7e9f 2dbd b303 ddbd
00000180: 0ac2 4c83 f925 fb83 632b ee83 53e8 d983
00000190: 4a8a 923c 5d82 49be cf04 873e c378 5dbe
000001a0: a7b2 2b3e 29f3 dcbe e9b4 a3be 0abb db3e
000001b0: 7eb9 0f84 f073 1384 3380 1484 7b1c 1584
000001c0: 2da3 d2bd 5518 803e 516e 423e 3770 48be
000001d0: 2ab2 de3d e010 e7be 7775 d5bd 1768 453e
000001e0: 6bf0 07be 8e33 ad3d 1d62 2a3e 9bc7 4e3e
000001f0: d40c 5b04 d8c0 7304 2be5 fe84 2917 9502
00000200: e463 1dbc da0a 513b 912a 6c3c f124 5e3e
00000210: 6a92 d13d 5c0b 95bc 47c1 fd3e 2d58 a4be
00000220: 4a97 1c3e 67d4 b0bd ef16 ec3d 815d 52be
00000230: 27c9 df3c ef17 4f3e f78d 04bf d91c a83a
00000240: 53db ae97 67f6 a217 7589 c317 911f a098
00000250: da6f 563e 3733 1e3e d2d8 58bd 6319 09be
00000260: 6eb4 a03e 4c09 b7be d0a6 ab3e 0fa2 4dbe
00000270: 098a a53d c624 6fbe bb18 02bf 48c3 93bd
00000280: 4ac6 c13e 229d 1d3d 4662 5dbd 8b1a 31be
00000290: 2d5e 613e 0190 64be 6387 3a3e ff15 88be
000002a0: 9845 048b a40f 928a aab4 df8a 104f 188a
000002b0: 35fe 5d3d 934a b4bd 3480 0abe bbfb b23d
000002c0: b3e3 6cbd 3651 96bd adb9 c03d a7b9 a43d
000002d0: b661 8718 42d3 7e17 d88c be17 aaf5 8596
000002e0: 7f56 103a fed8 593a e16c 26bf a9d3 aabb
000002f0: 007c a43d b770 8cbd 4266 733e d0cf d7ba
00000300: f8b5 f1bc af73 883e 5bb3 3f3c 5f43 3fbe
00000310: 9f0e b2bc b02e 09be 6af1 d23d 3413 023f
00000320: 989a 9d81 09e2 e304 86dd d004 fc81 1585
00000330: f9a2 e73d 21c9 87bd c9da b4bd 8b31 7abe
00000340: 02c6 4684 75b2 5c84 db00 f883 2620 8184
00000350: f77c 41be 5be9 a13d d2d4 cdbe ac21 8a3e
00000360: 14fd 32bc 1699 853c caaa a9be c71d cb3e
00000370: edf7 283e 7f9f cbbd 20fd c13e 48f0 d8be
00000380: ae2d a2bc c3ef 143e 1d00 753e 65eb cf3d
00000390: 12c8 273b 287c fa3d ba57 42bc 4a25 8abc
000003a0: 0157 73ba f018 2a3e 3c99 edbd 32cd 9dbd
000003b0: 8b5d 5bbb 5c93 2dbb 4771 bb3b e1cd 8a3e
000003c0: 86d2 99be 140c 8cbe 8b25 043c a576 b23e
000003d0: 50b9 5a85 6428 7085 6bf1 cb84 b0bb da84
000003e0: 8bd5 d23b 71aa 153f 97d9 b0ba da28 233d
000003f0: c462 083b 9690 6439 a87c 9cba 2126 90ba
0.26135072 -0.011484431 0.009104604 -0.1763488 -3.4104386e-35 1.3344665e-35 -3.4148685e-35 -3.434005e-35
0.009137797 0.09698991 0.41182292 -0.14655821 -0.055551887 -0.08971004 -0.5284782 0.016436521
0.34642804 0.16376884 -0.22293952 0.10533075 -7.877752e-37 -6.9593544e-37 -8.7335925e-37 -7.1547147e-37
-0.5378739 -0.012658977 -0.011413081 0.3192354 0.20092185 -0.29015905 0.031050937 -0.35301286
-1.785441e-36 -1.608817e-36 -1.6029495e-36 -1.632818e-36 1.8966879e-26 1.26505325e-26 -4.0436545e-26 -6.249722e-26
-1.1840386e-22 4.8366914e-21 -3.193678e-22 1.4967602e-16 -0.0049976287 -0.6972298 0.027590014 0.016080562
0.021803383 -0.037390858 -0.15031835 0.06754651 2.3260882e-38 -3.3255384e-36 3.0126442e-37 -8.73531e-37
-1.4557028e-36 -1.6488405e-36 -7.0901855e-37 -1.2304923e-36 0.08259242 -0.078948714 0.1139432 -0.17125806
-4.9077974e-37 3.537664e-36 7.4228188e-37 -3.150878e-36 0.3469205 -0.30861446 -0.15250424 -0.011762789
-0.10091607 0.11919126 -0.27009392 0.013762678 0.0035563123 0.024239069 0.5562291 0.035764895
1.2460143e-35 -1.5717733e-35 -1.5612178e-35 -1.5164348e-35 0.26746923 0.29753473 -0.3454045 -0.31915
-3.6582914e-37 -3.6558742e-37 -2.6752519e-37 -2.5386015e-37 0.013943243 -0.002591757 -0.04238843 -0.10791721
-6.017296e-37 -1.4761172e-36 -1.3998344e-36 -1.2807453e-36 0.017888207 -0.19678636 0.26370856 -0.21628098
0.16767369 -0.43154266 -0.3197396 0.42916137 -1.6894743e-36 -1.7333003e-36 -1.7456183e-36 -1.7527943e-36
-0.102850296 0.25018564 0.18987395 -0.19574057 0.10873826 -0.45130062 -0.10422795 0.19277988
-0.13275306 0.08457099 0.1663899 0.20193331 2.5749217e-36 2.8653062e-36 -5.992557e-36 2.1906876e-37
-0.009606335 0.0031897337 0.0144144455 0.2169378 0.102330044 -0.018193893 0.4956152 -0.32098523
0.15292087 -0.086342625 0.11527812 -0.20543481 0.027317597 0.20223974 -0.5177912 0.001282598
-1.1299852e-24 1.0531205e-24 1.2636279e-24 -4.1390905e-24 0.20941105 0.15449224 -0.05294115 -0.1338859
0.31387657 -0.3574928 0.33525705 -0.20081352 0.08082969 -0.23353872 -0.50818986 -0.07214981
0.37846595 0.03847993 -0.0540488 -0.17295282 0.22008581 -0.22320558 0.18215708 -0.26579282
-2.5474632e-32 -1.4065172e-32 -2.1542077e-32 -7.333404e-33 0.05419751 -0.088032864 -0.13525468 0.0873942
-0.05783434 -0.073397085 0.09410415 0.08043223 3.4995345e-24 8.233847e-25 1.2314016e-24 -2.1642345e-25
0.0005506053 0.00083102274 -0.65009886 -0.00521322 0.080314636 -0.06857436 0.23769477 -0.0016465131
-0.029505715 0.2665076 0.0117004765 -0.18678044 -0.021735488 -0.13396716 0.10299952 0.5081055
-5.789452e-38 5.3575024e-36 4.9104002e-36 -7.029821e-36 0.113103814 -0.06630159 -0.088307925 -0.24432962
-2.3365709e-36 -2.594282e-36 -1.4576326e-36 -3.0357278e-36 -0.18895327 0.07905837 -0.40201432 0.26978815
-0.010924596 0.016308349 -0.33138114 0.39671156 0.16500826 -0.09942531 0.37888432 -0.4237082
-0.019797172 0.14544587 0.23925824 0.1015232 0.002560143 0.12230712 -0.011861736 -0.016863484
-0.0009282679 0.16611075 -0.11601493 -0.077051535 -0.0033472504 -0.0026485538 0.005720291 0.27110198
-0.3004343 -0.27352965 0.008065592 0.34856144 -1.0284347e-35 -1.1292164e-35 -4.7946778e-36 -5.1423917e-36
0.0064341477 0.584632 -0.0013492581 0.03983388 0.0020810822 0.00021797637 -0.0011939006 -0.0010997691

net.0.bias f4 [512]
00000000: 7b3e 51be 4fa5 3786 8d85 8f3c 2c5d f73d
00000010: 4d26 1dbe 5e47 d182 f281 3e3d b756 70bd
00000020: c3fb f883 abb6 b395 4346 7ba5 fa40 7b3e
00000030: eeb5 a83d 9d91 9984 1b87 0d84 97ea b93d
00000040: 3170 9984 d5c6 c3bd 5b17 5fbd 5047 52be
00000050: e091 b085 68dd 0fbd 21f2 8182 7653 883c
00000060: 2ef8 ee83 4cd1 2bbd 0914 62be ce7d 0f84
00000070: 4163 fdbd fe21 9b3d e3c6 2fbe b69f 6084
00000080: 5329 c2bd c8fd 9139 ffd5 eebd 92af 1bbe
00000090: 96e6 6398 c406 1cbe 03dc d3bd a657 763e
000000a0: b412 07be ee79 0c3e 2016 ab89 0144 ac3d
000000b0: b72b a83c 1e3e 1b17 196f 6e3e 05c7 bdbb
000000c0: f04c 54bc 7073 b4be 7742 b185 24a0 ac3c
000000d0: 36b6 8c84 7aa8 9b3d 5a92 a3be 4e25 26be
000000e0: c750 19be db11 2cbd 2b23 e6bd 0b0a 7abe
000000f0: da9e 81be 4303 b185 1a80 94be 829f 79ba
00000100: 7db3 fcbb 9c13 2285 fde3 693d f84c 7ebd
00000110: 6507 58be 3c7b 8e3d f119 e0bd 9af6 10be
00000120: b573 f13d 4d6d 3786 46eb 1e3e 8c50 253e
00000130: e86b 1bbe 2a15 0d3e 9564 c4ae 843a e283
00000140: 094b 1b3e c079 0ebd 18f7 2c83 cd4c 173e
00000150: d759 3ebe 606e 9e3e 911d f23d 2ab3 c13d
00000160: b4c6 183e 24b5 8c82 ad53 8e9e d147 3c87
00000170: f68f bdbe aa9d babe 5943 1b88 4a32 2fa6
00000180: 8fa6 debd c29b d3be f76b a1be a133 af3d
00000190: 31a7 c083 7abc 7683 6294 ea83 2688 24bc
000001a0: 1399 f292 5d64 673e b410 f5be a046 e33d
000001b0: 9df5 2783 e613 8fbe 33c2 6abe 9517 843e
000001c0: c6b2 7ebd 5063 1284 a2ef 4a3e 1af4 483c
000001d0: 34c1 95be fb4a 09bd a150 8183 d272 42be
000001e0: 88b8 373c 788d a8be 173d 92be 0f7c 9c3e
000001f0: 6cb4 0e8c e303 cb3d 9509 953e f46c 763c
00000200: 4760 8399 9383 c7bd 5a04 8a34 bb47 7b3e
00000210: 4830 8684 ef79 e83d e214 ebbb 948f bc08
00000220: 4f3f 4f3d ba32 b1a0 3847 3483 acb9 3621
00000230: 8566 22be 9c64 95be 6012 fabd a372 eb83
00000240: 7fae 8a88 c3b8 6cbe 821f f183 7d2b e73d
00000250: f671 b183 f195 b1be 9bd5 e03d cd10 acbd
00000260: e42e 2005 8739 8dbd f80e 6a3e 0f29 02be
00000270: 4e07 af3d 6e70 b185 1e93 803c d1cd 97be
00000280: 8c0a b23d 5ec8 9e0b 871f 179c 6671 2385
00000290: 3899 acbe 1b8d 363e c5bf 983d 14b8 103e
000002a0: 6050 07be a6a3 203e c308 e783 90d0 05b0
000002b0: 8719 9eb1 9fd7 9d3e 4a12 113e 8828 793c
000002c0: 3088 3dbd 9492 20be 1fde 50a6 a75b 9f3e
000002d0: abd5 75bd 0c4d c8be f0d1 0784 10c0 f983
000002e0: 4069 4d3d 0213 c53d b9e0 8884 166e ebbd
000002f0: adf4 103e 1476 0dbe ae35 85bc 469c 0d3e
00000300: 6578 bd3e c80a 18bd b3b4 e7be 6ca1 3e3e
00000310: 478f c7bd 36dc 00bf 075d 84be c009 103e
00000320: 6cc7 23be 4d8d 9484 63d9 1f3e 2a05 8a85
00000330: 37ab 7eaa c275 56bd 82ef 7382 3981 c2be
00000340: a2ad fc83 800c 843e ec5e fa83 dc33 0c04
00000350: e540 70be c0ee 893d b68c 8e3c de0d bb86
00000360: 0fe6 e583 3368 ab3e b539 8d3e 71d1 9cbd
00000370: 4756 5819 0e4c dabe 7846 b185 77a2 aa8a
00000380: d88a 193d 63d6 ac3e 65ae 39be bcd3 533e
00000390: 3cca c395 efb5 03be af1c 653e 5caf 053d
000003a0: c2e1 62be 1e41 5eb2 f315 30be 9f7e 62bd
000003b0: 61b4 18bd 1799 49a1 11cb 953c 80ee fb16
000003c0: a450 9ebe d46e bdbe a61f 273d 448e 36bd
000003d0: 2e08 023e b4a8 243e dbfe b23e 7c4a 3c3e
000003e0: 5870 953e 87b7 3786 faab 73bd 5436 b7be
000003f0: c53c 0d3e 1863 d5be 94ec 8905 8b6d b53d
-0.2043399 -3.4539924e-35 0.017519737 0.12078318 -0.15346642 -3.0750753e-37 0.046510644 -0.058676448
-1.4633932e-36 -7.2585723e-26 -2.1794585e-16 0.24536505 0.08237825 -3.6103852e-36 -1.6636508e-36 0.090779476
-3.607316e-36 -0.095594086 -0.054465633 -0.20535016 -1.6604546e-35 -0.03512326 -1.9093822e-37 0.01664136
-1.4045362e-36 -0.041947648 -0.22077955 -1.6867336e-36 -0.12372447 0.07574843 -0.17165713 -2.640441e-36
-0.09480538 0.00027845637 -0.1166191 -0.15203694 -2.9455478e-24 -0.15236956 -0.10344698 0.24056873
-0.13190728 0.13718387 -4.118756e-33 0.08411408 0.020528657 5.0161604e-25 0.23284568 -0.0057915472
-0.012957796 -0.35244322 -1.6669415e-35 0.021072455 -3.3081176e-36 0.07600494 -0.31947595 -0.16225168
-0.1497222 -0.042009216 -0.112371765 -0.24417894 -0.25316507 -1.6646198e-35 -0.29003984 -0.00095223647
-0.0077118264 -7.620805e-36 0.057102192 -0.062085122 -0.21096571 0.06957099 -0.10942448 -0.14156571
0.117896475 -3.4498776e-35 0.15519437 0.16144007 -0.15177882 0.13777605 -8.930915e-11 -1.3296521e-36
0.15165342 -0.03478408 -5.0829907e-37 0.14775391 -0.18588959 0.30943584 0.118220456 0.09458001
0.14919549 -2.067512e-37 -1.5069442e-20 -1.4164653e-34 -0.37023896 -0.36448413 -4.6722783e-34 -6.0783476e-16
-0.10871612 -0.4132977 -0.31527683 0.08554769 -1.1323131e-36 -7.2509263e-37 -1.3787351e-36 -0.010042226
-1.5310083e-27 0.2259688 -0.47864306 0.11097455 -4.935884e-37 -0.2794487 -0.22925644 0.25799242
-0.06218221 -1.720782e-36 0.19817975 0.01226523 -0.29248965 -0.033518773 -7.60045e-37 -0.18989113
0.011213429 -0.32920432 -0.28562233 0.305634 -1.0993576e-31 0.09912851 0.29108873 0.015040625
-1.3583969e-23 -0.09741893 2.570767e-07 0.24539082 -3.1547588e-36 0.11351382 -0.0071741203 1.13485935e-33
0.050597485 -3.0018534e-19 -5.2979e-37 6.1909733e-19 -0.1585942 -0.2917832 -0.12210536 -1.3838378e-36
-8.346597e-34 -0.23117356 -1.4171941e-36 0.112875916 -1.0429289e-36 -0.3468471 0.10978242 -0.08401642
7.531776e-36 -0.06895738 0.22857273 -0.12710975 0.08546315 -1.66863e-35 0.015695151 -0.29649213
0.08693418 6.1160865e-32 -5.0002457e-22 -7.685051e-36 -0.33710647 0.17827265 0.07458452 0.1413272
-0.13214254 0.15687427 -1.3578971e-36 -4.8681503e-10 -4.6013073e-09 0.30828568 0.14167133 0.015207417
-0.046272457 -0.15680915 -7.2465527e-16 0.31124613 -0.060018223 -0.39121282 -1.5965572e-36 -1.4679e-36
0.050149202 0.09622766 -3.217982e-36 -0.114956066 0.14155836 -0.13814574 -0.016260948 0.13829145
0.37005916 -0.037119657 -0.4525505 0.18616265 -0.09744125 -0.50336015 -0.25852224 0.1406622
-0.15994042 -3.4924397e-36 0.1561027 -1.2979355e-35 -2.2619134e-13 -0.052358396 -1.7921556e-37 -0.37989214
-1.4851093e-36 0.25790787 -1.4715472e-36 1.6480734e-36 -0.23462255 0.06734991 0.01740108 -7.036196e-35
-1.3512229e-36 0.33477935 0.2758309 -0.07657135 1.1184362e-23 -0.4263615 -1.6670886e-35 -1.6431517e-32
0.037485927 0.33757314 -0.18132932 0.20686239 -7.907894e-26 -0.12862371 0.22374223 0.03263794
-0.22156432 -1.2936907e-08 -0.17195873 -0.055296537 -0.037281398 -6.830406e-19 0.018285306 4.0701752e-25
-0.309209 -0.36998618 0.040801667 -0.04456927 0.12698433 0.1607998 0.34960064 0.18387789
0.29187274 -3.455331e-35 -0.05949018 -0.35783637 0.13792713 -0.41677165 1.2970323e-35 0.08858784

net.2.weight f4 [512]
00000000: 7390 e53e 0335 3886 56fb bc3e 397f 8f3f
00000010: 82a1 8d3e f3c1 3383 b54f 4b3f 8845 0e3f
00000020: ec75 9803 96f7 f699 ce3a 419f a59b 7f3f
00000030: e0ef 093d 5c22 2c05 2ff7 a003 20af 2c3d
00000040: d8fd d503 d3ad 833e 0c83 aa3e 4c49 173f
00000050: 8e1a ac85 eb4d fe3e a394 8002 9857 5f3e
00000060: f2bd dd82 ac04 123e a300 de3e b6ca 0783
00000070: 0d87 b33d 5012 8c3e b959 883d f0bb e684
00000080: bf91 153e eb3f f13e fc0b 2a3e b219 503f
00000090: 4728 581a 0c74 853e 4871 b93e 3915 393f
000000a0: 0925 053f 1d01 0f3e a767 738e 4c9b 1c3d
000000b0: 3a70 ca3c 89cb ee98 9300 903f 69e2 353e
000000c0: a90a eb3d d742 0c3f 05e6 b085 605a 743e
000000d0: c521 9984 455f 733e 212e 113f 32de 113f
000000e0: ee94 ee3d 6785 793d 72b6 b63e ef69 973f
000000f0: 5d53 0d3f 9f4e 3886 c3ba 6d3f 2ad5 d8b9
00000100: 7ff9 2c3e b4c2 2705 7e09 013e cbe2 333e
00000110: cebd f73e ffd4 4b3d 367d 943e ca2b a73e
00000120: 26ef 2b3d 6104 bb86 19dd 193f 1a26 863f
00000130: 67b3 ca3e 8084 313e 7661 1eb6 5c2d 8302
00000140: 6eeb c63e 8ad0 ab3d 8795 9804 80f0 7f3f
00000150: fa89 353f 2f0e f83e b8b8 de3e f332 1f3d
00000160: 4c13 4a3f 44f3 5983 6277 f7a1 be42 5808
00000170: adc4 163f 5d47 223f 9a2d 910b 079f ef21
00000180: e66c b43e 96c3 963e e065 083f 6f0b 8b3f
00000190: 4a36 fe03 d57c bc82 84e9 2703 423a 573d
000001a0: a259 aa96 5462 8f3f 56ef da3f 38a6 9a3f
000001b0: f2df 4a02 d354 cf3e 6aa7 c43e 30b9 0c3f
000001c0: 359b 023e ba8c d002 bfd1 883e c08d 733d
000001d0: 7ce9 ca3e ee5c d23d aefe c582 e6a2 973e
000001e0: 0240 b53d c7f4 ad3e 7a13 073f d0af 043f
000001f0: b5e2 5691 9d83 f33e be63 993e 9323 693c
00000200: 67be 561a e74d 3e3f 4222 1a3a bda6 5c3e
00000210: b46b 9104 23c5 a33e f55a 373e 6868 888a
00000220: 8ad2 0a3f a906 991e d5ac 8e81 8825 0423
00000230: 0386 c63e 9fab 6f3f 62f7 283e c647 4583
00000240: fea3 188c bbe4 403f 20f3 bb02 b952 133f
00000250: e239 af02 4fc6 9c3e 7076 583f c3d6 bb3d
00000260: 7155 e703 947a 6f3e 1f44 ea3d 39d9 8f3e
00000270: 465f 673f 9f71 3886 1007 ae3e 42c6 b13e
00000280: c84b b03d 198f 268d 4f68 131f 1398 2585
00000290: c575 e83e f002 793f da00 013f 75c2 773f
000002a0: e5d1 043f fa17 9b3f 61bf 9183 5348 1033
000002b0: 44b9 b0af 377d 903e 79f1 cf3e c559 273f
000002c0: 34e5 903b 5e51 4c3f abc1 a6ab ca74 693e
000002d0: 4d20 493e 8fee c83f 2af2 a102 88ad a703
000002e0: 12bb 833f f187 123d b86a 9904 1d4b 053d
000002f0: 0658 9f3f 9590 083e 2b2d 5e3f 6a7a 1a3e
00000300: 6ae6 1f3f d77f 993d 0512 2f3f c1b6 b23f
00000310: 26b9 513f 076e 1f3f 4f3b 3b3f 38a7 d03e
00000320: ee15 f13e 5d10 1683 3fc6 f53e 0d5a ae85
00000330: f1ac 1db1 1490 7d3e caef 9b83 ccb7 7b3e
00000340: 960e 3d82 f017 0c3f f6f8 4a03 07d6 1a83
00000350: d4e8 4b3e 92b8 423d 9d60 143f 48ea 268b
00000360: f653 9c84 afcd 163f 4614 3d3f a451 e83e
00000370: 2c76 ae9b 9402 3e3f 3ef7 3786 4234 c78a
00000380: 6857 ba3d 0b7c 3f3e c99e 383e 8d98 683f
00000390: c3de d919 506b 8c3f 47d7 ad3d 2a92 ec3e
000003a0: f71a 543e e574 c2b0 c285 ea3e 48fa 903e
000003b0: fca7 393d 9d3b dea5 f03e df3d 6cce 6f18
000003c0: 3e6f cd3e 84ff 1b3f e2de 623d b9ca c13e
000003d0: 3b71 9c3e b691 ae3e 52b6 003f 7412 e53e
000003e0: 4791 ee3e 11ef bd07 d025 0a3d cd36 513f
000003f0: 5473 cd3e cffb 253f 07c7 1604 7e86 8f3d
0.44836769 -3.46455e-35 0.36910504 1.12107 0.27662283 -5.2826015e-37 0.794185 0.55574846
8.960831e-37 -2.5535803e-23 -4.0917982e-20 0.9984687 0.03367603 8.093712e-36 9.460705e-37 0.0421592
1.25772945e-36 0.25718555 0.33303106 0.5909622 -1.6184557e-35 0.49668822 1.8893223e-37 0.21810758
-3.2582055e-37 0.14259595 0.4335986 -3.9905635e-37 0.08765993 0.2735772 0.06657738 -5.4245333e-36
0.14606379 0.47119078 0.16606134 0.8128921 4.470029e-23 0.260651 0.3621924 0.7229801
0.52009636 0.13965268 -3.000197e-30 0.03823404 0.024711717 -6.1727076e-24 1.1250175 0.1776215
0.11476643 0.5478949 -1.6635456e-35 0.238626 -3.600114e-36 0.23766811 0.5671101 0.5697967
0.116495 0.060918238 0.3568607 1.1829203 0.5520533 -3.4664315e-35 0.928631 -0.0004135755
0.1689205 7.8880636e-36 0.12601277 0.17566983 0.48386997 0.049763676 0.29001778 0.32650596
0.041976117 -7.0348016e-35 0.60102993 1.0480378 0.39589998 0.17335701 -2.3600564e-06 1.9274755e-37
0.38851494 0.08389385 3.5872347e-36 0.9997635 0.7091366 0.4844832 0.43500304 0.03886695
0.78935695 -6.4049824e-37 -1.6768971e-18 6.507859e-34 0.58893853 0.6339014 5.592058e-32 1.6237364e-18
0.35239333 0.29446095 0.5328045 1.0862864 1.4941242e-36 -2.7695767e-37 4.934495e-37 0.052545793
-2.7521548e-25 1.1201882 1.710429 1.2081976 1.4904885e-37 0.40494403 0.38408977 0.54970074
0.1275452 3.0643626e-37 0.26722524 0.059461355 0.3963126 0.10271631 -2.9092727e-37 0.2961647
0.08850099 0.33975813 0.52764094 0.5183077 -1.6951483e-28 0.4756135 0.2995891 0.014229673
4.440797e-23 0.7433762 0.00058797386 0.2154798 3.4188246e-36 0.3198634 0.17905791 -1.3135597e-32
0.5422751 1.620226e-20 -5.2410564e-38 7.163682e-18 0.38774118 0.9362125 0.16500619 -5.797549e-37
-1.1759004e-31 0.75349015 2.7616727e-37 0.575481 2.5747162e-37 0.30620047 0.8455572 0.09171822
1.3596576e-36 0.23386604 0.11438774 0.28095415 0.9037975 -3.469003e-35 0.33989763 0.3472157
0.08608204 -5.1324947e-31 3.1214743e-20 -7.786194e-36 0.4540235 0.9727011 0.50391924 0.9678109
0.51882774 1.2116692 -8.5662725e-37 3.359339e-08 -3.2145853e-10 0.2822053 0.40613917 0.6537135
0.0044218544 0.79811656 -1.1848763e-12 0.22798458 0.19641228 1.5697802 2.379582e-37 9.855219e-37
1.0291464 0.035774175 3.6068133e-36 0.032542337 1.2448738 0.13336404 0.8678767 0.1508576
0.6246096 0.07495087 0.6838687 1.3962022 0.8192314 0.62277263 0.7313737 0.40752578
0.47087044 -4.4099822e-37 0.48002812 -1.6395961e-35 -2.2944813e-09 0.24761993 -9.165134e-37 0.24581832
-1.3889713e-37 0.54724026 5.964826e-37 -4.5502224e-37 0.19913036 0.0475393 0.5795992 -3.214669e-32
-3.675253e-36 0.589076 0.7385906 0.45374787 -2.8862252e-22 0.74222684 -3.460012e-35 -1.918266e-32
0.09098703 0.18699662 0.18029322 0.90857774 2.2527247e-23 1.0970249 0.084883265 0.46205264
0.20713411 -1.4148581e-09 0.45805174 0.2831595 0.045326218 -3.8551257e-16 0.10900676 3.0994242e-24
0.40123934 0.6093676 0.05538834 0.37849978 0.30555138 0.34095544 0.502782 0.4474064
0.46595213 2.857807e-34 0.033727467 0.81724244 0.4012705 0.64837354 1.7723804e-36 0.07008074

net.2.bias f4 [512]
00000000: 20e1 a43d 4211 e1b5 1c17 913c 2786 373d
00000010: 7860 e93d 711b 9b35 bdc5 283c 3b22 023c
00000020: a8c6 a9b5 ac3e 09b6 5291 bfb5 f501 5d3e
00000030: 5cbe 403d 3b78 2f36 a978 a5b5 a552 b83a
00000040: dd58 13b6 e622 93bc 7c9a 783d 122f c13d
00000050: 901a c035 1425 4b3e 138d a935 5589 093d
00000060: 5a03 b2b5 7354 cb3d 4768 843e dd6f ca35
00000070: 1639 3a3d 118b 1b3e 013c aa3c b397 f735
00000080: 6d5e c4bc 4fc8 3f3d f1e7 603c 8cad 6e3c
00000090: b09a a535 0f1d 143e 75a8 e83d 50e3 843e
000000a0: 83ec 2dbd 42dd 76bd 702b 04b6 5191 6c3b
000000b0: b9c2 5ebc a4b5 f7b5 361f df3d 4108 a2bc
000000c0: 98cb af3c 346d f83c be9c b4b5 63f8 fd3c
000000d0: 0ed5 c6b5 d0db f13d 928f 2c3e 29db 093e
000000e0: e669 023d 1816 1b3d 91f4 f33d 78c4 08be
000000f0: 2f3e 183e 814f 33b6 a8f6 bb3e 4d24 8d3d
00000100: 2518 593d 1289 14b6 cb0a babd 76da 95bb
00000110: 54d0 103e 4003 27bd b74e cd3d 8854 dabc
00000120: a561 2dbd 5221 26b6 47d6 1a3e 37a2 8e3e
00000130: 904e 203d a122 6e3c 16eb 13b5 19bd a735
00000140: 7615 9b3d 32e4 9b3d 1d56 bb35 efcc 283e
00000150: 6770 a1bc 5a22 bc3d 0931 373e a386 8b3d
00000160: 137b 2b3e fa99 2bb5 a9b2 a6b5 47ce e7b5
00000170: 858a 4f3e 4128 283e fcb5 ee34 2dc0 3636
00000180: 984f 323e 35f6 a5bc db63 86bd a3a3 373e
00000190: 316e d8b5 43a2 c035 eb5c 2fb6 b332 bcbd
000001a0: d5d7 07b5 082b 103e ce0d 613d c926 ad3b
000001b0: 40ef 8bb5 6416 463e f07a 803d 26ff a23d
000001c0: ac25 143e 29a6 f2b4 05a8 d4bc 3742 68bd
000001d0: 475a 393d 62cc e63c 05fb 59b5 6f75 c13d
000001e0: e2a7 bbbd d271 683e 5ad5 aebb c99f 7c3e
000001f0: 50e2 d535 125d 243e 09e2 263e fcb4 2b3c
00000200: d584 aa35 c116 d43d c2c3 8aba 7e1b 8a3d
00000210: 2fae 39b6 f7eb 893d 1206 e93b 8c4c f8b5
00000220: 6611 d2bc 9842 6db8 18a0 b9b5 fa36 b935
00000230: 1e81 343e 03a3 cc3d 5437 1b3d a34a aa35
00000240: f884 c7b5 355a d33c f9a7 e434 091e 9c3e
00000250: 6601 c835 c690 273d a627 143e a512 da3c
00000260: 0b26 c3b5 af94 053e c954 2bb9 7381 0cbd
00000270: 0cba 4cbd 43f3 6135 0366 06be 1777 5a3d
00000280: 9a7d 283b 1570 d5b5 7d44 6935 7eca a5b5
00000290: 5e75 3c3e 27fa 203e 6dc2 993c de95 7abc
000002a0: dcf1 a33d c811 1f3e 50fa 9c35 d3a8 a5b8
000002b0: 82a0 6e36 064c 2a3e b4ac 4d3e aad3 db3a
000002c0: c9d3 7f38 f9c4 093e 191c 7435 f7d4 ad3d
000002d0: 4a91 663d ec5c 153e bedc 74b8 574a 39b6
000002e0: 7a85 3ebd 1574 0abc bfa1 1b36 e4e8 3a3b
000002f0: 280e 423e c44b 3ebd 188d 323e e2f6 de3c
00000300: 701a 393e 3324 373d 41eb 353e e34c 023e
00000310: 46ae 963d c41f 253e 4f58 b93d fe45 663e
00000320: d393 053e 4e14 1cb6 dd96 6e3e 201e b535
00000330: b285 afb5 9ea0 a13d 8a62 c535 b858 7d3d
00000340: 7f3e a735 fb85 723e 80ae ccb5 18ea 1935
00000350: e1fd ad3c f20c f53c 3e10 3a3d 2c9b 7835
00000360: 60ee 59b5 b464 cc3d 0d42 993d d18e 613e
00000370: 6ce5 d1b5 f89a 143e 6657 4536 ddef 6a38
00000380: ee87 253d b4d8 cb3d 61bc 823c 8dc6 b93d
00000390: 34a2 0c36 ef91 813d dec1 663d ba93 c73d
000003a0: bd66 eb3d ff1d a03c d515 373e 136f d93d
000003b0: c1a5 c43c 15b4 d8b5 2f67 debb 7d43 1cb6
000003c0: a8e8 ea3d 8ef0 543d 37f9 9b3d 257b 643c
000003d0: bfe9 133d a2cb 823e cbe6 493e 7f95 6a3e
000003e0: a365 0dbc b17c 2b36 9fad 783c 2f97 9e3d
000003f0: 05d9 263e 3a23 603e e0f3 2635 81cd 863c
0.08050752 -1.6768829e-06 0.017711215 0.044805672 0.11395353 1.1556386e-06 0.010301051 0.0079427315
-1.2649298e-06 -2.045107e-06 -1.4272903e-06 0.21582778 0.04705654 2.6147015e-06 -1.2328575e-06 0.0014062716
-2.1956432e-06 -0.017960977 0.060694203 0.09432806 1.4312845e-06 0.19838363 1.2632539e-06 0.033578236
-1.3263009e-06 0.09928217 0.25860807 1.5082729e-06 0.045464598 0.15189768 0.020780565 1.8447084e-06
-0.023970807 0.04682189 0.013727174 0.014567744 1.2338478e-06 0.1446421 0.11360256 0.25954676
-0.042461883 -0.0602696 -1.9694817e-06 0.0036097358 -0.01359623 -1.8455798e-06 0.10894625 -0.019779326
0.021459386 0.03032551 -1.3456663e-06 0.03100223 -1.4814157e-06 0.11809504 0.16851643 0.13462509
0.031839274 0.037862867 0.11911882 -0.13356197 0.14867471 -2.6719356e-06 0.3671162 0.068916894
0.05300154 -2.2133504e-06 -0.0908409 -0.0045731617 0.14141971 -0.040774584 0.10024779 -0.026651636
-0.04232945 -2.4755323e-06 0.15120803 0.27858135 0.039137423 0.014534623 -5.510386e-07 1.2497504e-06
0.07572453 0.07611884 1.3957648e-06 0.16484426 -0.019706918 0.091862395 0.17889799 0.06812789
0.16746168 -6.392653e-07 -1.2419961e-06 -1.7270876e-06 0.20267685 0.16421606 4.4463366e-07 2.7231974e-06
0.17413175 -0.020259002 -0.06562015 0.17933516 -1.6125324e-06 1.4352339e-06 -2.6131117e-06 -0.091893576
-5.0605496e-07 0.14078915 0.054944806 0.0052841646 -1.0425938e-06 0.19344479 0.062734485 0.07958822
0.14467496 -4.519691e-07 -0.025959024 -0.056703772 0.04525211 0.02817363 -8.120408e-07 0.09446227
-0.091628805 0.22699669 -0.005335492 0.24670328 1.5935602e-06 0.16051129 0.16297163 0.010480162
1.2704646e-06 0.103559025 -0.0010586905 0.06743525 -2.7668536e-06 0.0673446 0.0071113193 -1.8499718e-06
-0.025643062 -5.6567224e-05 -1.3830168e-06 1.3799574e-06 0.1762738 0.099920295 0.037894562 1.2687709e-06
-1.4865354e-06 0.02579985 4.2590526e-07 0.30491665 1.4901568e-06 0.04090955 0.1446825 0.026620219
-1.4539704e-06 0.13045 -0.00016339416 -0.03430314 -0.049982116 8.4173024e-07 -0.13124852 0.05333623
0.002570963 -1.5902357e-06 8.689893e-07 -1.2352391e-06 0.18404147 0.15720426 0.018769467 -0.01529452
0.080051154 0.15534127 1.1695756e-06 -7.899259e-05 3.5558191e-06 0.16630563 0.20085412 0.0016771455
6.0993978e-05 0.13454045 9.093797e-07 0.084878854 0.056290902 0.14586228 -5.8379715e-05 -2.761042e-06
-0.046514012 -0.008450528 2.3190948e-06 0.0028520161 0.18950713 -0.046458974 0.17436635 0.027217332
0.18076491 0.044712257 0.17765523 0.12724642 0.07357459 0.16125399 0.09050047 0.22487637
0.13044672 -2.325763e-06 0.23299737 1.3494318e-06 -1.3077427e-06 0.078919634 1.4706322e-06 0.061852187
1.2460658e-06 0.23683922 -1.5249971e-06 5.733759e-07 0.021239223 0.0299134 0.045425646 9.2613004e-07
-8.118568e-07 0.09980145 0.07483301 0.22027136 -1.5638484e-06 0.14512241 2.940616e-06 5.6013338e-05
0.040412836 0.09953442 0.015958967 0.09071074 2.095604e-06 0.06326663 0.05633723 0.097449735
0.11494205 0.019545553 0.17879422 0.10616889 0.024004819 -1.6145665e-06 -0.006787203 -2.3285095e-06
0.11470157 0.051987223 0.07615893 0.013945376 0.03611159 0.25545985 0.19716947 0.2290859
-0.008630189 2.5553566e-06 0.015178113 0.0774368 0.16293724 0.21888438 6.2194704e-07 0.016455414

net.2.running_mean f4 [512]
00000000: 39b7 0bbb 014d 7c83 2393 303e 600d 1f3d
00000010: 3f94 503d bdd0 a880 626d 053e 0180 30bb
00000020: e006 6181 32d9 b892 ebea c3a1 23e7 1b3e
00000030: 41ab 813d c25e 8a81 f8e6 4581 e532 5d3d
00000040: cf22 4b81 9e54 433c 7f45 1db9 804a 0d3e
00000050: bb36 e682 faf7 0e3c eac0 4980 8f0a 23b8
00000060: 418f 3981 4f09 513c 0a55 303d 141a 7581
00000070: 6854 053d e242 d73d 2dfe 273d 3111 1381
00000080: bdbe 403d 262b 083e c4e4 90ba 1b2d 25bb
00000090: 5487 6a95 30ac 123c 2568 023d 1147 a13d
000000a0: a33c ac3c 0658 aa3d a4d4 c487 421a 973d
000000b0: 2982 893d 0865 2818 74a4 be3d 17fa cb3d
000000c0: 3344 233d 8ec1 1b3d 9a49 6482 21cd 0cba
000000d0: d8ff c381 fc5b d43d c0fa ce3b e28e 803c
000000e0: 4f16 b73d 450a 8c3c 4e78 a5ba 628d 943b
000000f0: 1ec0 cb3b 89d0 c082 6b16 b33d 42fa 37b6
00000100: a8fe 603d 5158 1782 ac23 a73d ee3a a43d
00000110: 76b6 553c c9db 423d b044 f83b 753d 9c3d
00000120: de72 493d b21a 7e83 f840 4e3d 5eed 7c3d
00000130: e5ef a83a d214 f73d 1eda 80ac 3062 7180
00000140: 708b 783c cca2 913c f6c4 0a81 cad8 be3d
00000150: a64c 293b 4c6c 1a3e 6779 803b adb9 9a3d
00000160: 1520 2d3d ff97 8780 5d7c 889b 36e2 6b84
00000170: 52ee 8d3c 9c38 e03d d57a bd85 be33 72a2
00000180: cdbd 893c e234 4bbb c949 6fbb 77d3 913c
00000190: d39b f680 f780 c080 3215 1781 942b c83d
000001a0: a006 1690 64d5 be3d 5df0 37b9 fa03 fe3c
000001b0: f5c6 9480 f831 733d d912 893c 0f8e 3b3e
000001c0: f6c5 00ba eddc 0d81 ffdb 883d 6cdb 8e3d
000001d0: 70d5 56bb 30d8 083d ce42 a480 5461 cdb9
000001e0: b60d 343e e103 773d 46aa e73b 6920 d43d
000001f0: 20da 868a 5b2d b13c e19a 613d 5403 dc3c
00000200: b5b5 7296 06fb 283d 91e1 463b 872f 333d
00000210: c281 5581 bbbd 9a3d 9905 da3d cfbc 050a
00000220: f574 18ba 3a57 531d a9f2 af80 8c44 9421
00000230: 23dd 053d 10c9 113d fea9 aaba 17f6 b380
00000240: 908e 4685 f663 f1ba 9496 f080 4869 063d
00000250: 7531 de80 3b33 adba 9579 153d faa1 483d
00000260: aeb4 0b05 282d a93c 29b9 1f3e d37f 8a3d
00000270: 55f9 b43b a5c8 de82 2e20 dd3d e78a 2abb
00000280: 6c43 0b3e 5a73 4a0d 8b74 0e99 3718 4a82
00000290: 8987 333c c794 da3d e699 9fb9 9bb1 433c
000002a0: 668b e93a 5293 803d 4582 2081 7396 37ad
000002b0: cb30 112f 0a71 553e d2a0 743c 921c c9ba
000002c0: 6d7b 5fb9 548c f13d 7d2e 3fa3 fa0e 153e
000002d0: 92e9 3b3d 97a4 f83a 4652 1181 1a92 2e81
000002e0: ac68 813c 798b 0d3d 4281 5881 afbb 12ba
000002f0: ddc1 503d 1b03 893d 05f6 8e3c 96bf 9d3d
00000300: 16d1 013e 52df ca3c f5a8 5b3b 5edf 953d
00000310: 50e2 b13d 5a8a 0f3c e667 deba a2c0 103c
00000320: 28fc 14bb faa3 f781 f67c 203d fcfc 9282
00000330: 8576 c8a7 0120 623d 7935 0981 7029 cd3d
00000340: f25f 0381 1b2d fd3c ec86 b280 f215 8004
00000350: 1be2 f33c acc1 863d 96a5 d1b9 b726 8084
00000360: 733d 0881 4566 a23d 80e3 d53d b8f2 b63c
00000370: e1bf ab1a fe61 c73b 9e12 c282 a6bf 8987
00000380: 58cc b83d e625 313e 01be 17bb fdb4 e23d
00000390: 69f5 9992 78ce e63d cdf2 cf3d bf96 863d
000003a0: 3e68 9d3d eab1 ebaf 5ce8 5d3c b806 143d
000003b0: 8198 1c3a f369 6a9e ae42 023e b906 1a17
000003c0: b3fe af3d e4d8 c03c 8073 903d 4a90 ac3c
000003d0: ceb2 2b3d e6c9 4e3c 17a1 443d a69b 923d
000003e0: 5da8 1e3e ac6e f983 f1fb fc3c f1b5 af3d
000003f0: 366a 073e e9b1 c23d 323b 9905 59a2 843d
-0.0021318926 -7.414454e-37 0.17243628 0.038831115 0.05092263 -1.5503245e-38 0.13030007 -0.0026931765
-4.1330906e-38 -1.1665575e-27 -1.3275896e-18 0.1522489 0.06331492 -5.0829165e-38 -3.6348897e-38 0.054003615
-3.7310185e-38 0.01192203 -0.00014998576 0.1379795 -3.3826876e-37 0.008726114 -6.773196e-39 -3.8872062e-05
-3.4081913e-38 0.012758567 0.04304985 -4.5018103e-38 0.0325512 0.10510804 0.041013885 -2.701197e-38
0.047056902 0.1329771 -0.0011054506 -0.0025203887 -4.736268e-26 0.0089521855 0.0318376 0.07874883
0.021025008 0.083175704 -2.9615781e-34 0.07378055 0.06714279 2.1764499e-24 0.09308711 0.0995981
0.03985996 0.038026385 -1.6771917e-37 -0.0005371143 -7.1998805e-38 0.10369107 0.006316513 0.015693132
0.08939802 0.01709474 -0.0012624355 0.0045334557 0.0062179705 -2.8331558e-37 0.0874451 -2.7414794e-06
0.05493036 -1.1119074e-37 0.08161101 0.080190524 0.01304399 0.047572885 0.0075765476 0.076289095
0.04918181 -7.4674536e-37 0.050354928 0.06174981 0.0012888877 0.12064518 -3.6621947e-12 -1.0412634e-38
0.015169963 0.017777823 -2.548791e-38 0.09318693 0.002583304 0.15080374 0.0039207223 0.07554946
0.042266924 -1.2452318e-38 -2.257968e-22 -2.7727988e-36 0.017325554 0.109482974 -1.7818596e-35 -3.2824508e-18
0.016814137 -0.0031006862 -0.0036512485 0.01780103 -2.2647431e-38 -1.7678679e-38 -2.7749527e-38 0.09773937
-2.9587388e-29 0.09318045 -0.00017541782 0.031007756 -1.3663026e-38 0.059373826 0.01673262 0.1831591
-0.0004912311 -2.6056116e-38 0.06682586 0.06975445 -0.0032781027 0.033409297 -1.5084986e-38 -0.00039173162
0.17583355 0.060306434 0.0070698587 0.10357744 -1.298578e-32 0.021628072 0.055079345 0.026857056
-1.9605941e-25 0.04125502 0.003034685 0.043746497 -3.9215018e-38 0.075557195 0.10645599 6.439228e-33
-0.0005815768 2.7970713e-21 -1.6158262e-38 1.0047014e-18 0.032681596 0.03559214 -0.0013020632 -1.6526834e-38
-9.3361e-36 -0.0018416632 -2.2094536e-38 0.032815248 -2.0405222e-38 -0.001321412 0.036492903 0.048982598
6.568934e-36 0.020651415 0.15597977 0.06762662 0.0055228868 -3.2735133e-37 0.107971534 -0.0026022734
0.13599938 6.2384905e-31 -7.3647636e-24 -1.4847565e-37 0.010957607 0.10672908 -0.00030441507 0.0119442
0.0017818033 0.06278099 -2.9480823e-38 -1.0435752e-11 1.3205008e-10 0.20843902 0.014930921 -0.0015343598
-0.00021312917 0.117943436 -1.0363975e-17 0.14556494 0.045877047 0.001896995 -2.6691322e-38 -3.2063575e-38
0.015796982 0.03455684 -3.9765672e-38 -0.0005597425 0.050966132 0.066900454 0.017451296 0.07702558
0.12677416 0.02476469 0.0033517454 0.073179945 0.08685744 0.008761013 -0.001696822 0.00883499
-0.0022733305 -9.0968765e-38 0.039181672 -2.1597978e-37 -5.563965e-15 0.055206303 -2.520129e-38 0.10017669
-2.4129737e-38 0.030905297 -1.6395119e-38 3.011281e-36 0.029770901 0.06579909 -0.00039986958 -3.012821e-36
-2.5023343e-38 0.079296626 0.10443783 0.022332534 7.103394e-23 0.0060846796 -2.8516424e-37 -2.072611e-34
0.090233505 0.17299613 -0.0023154023 0.11069677 -9.716156e-28 0.112698495 0.101537324 0.06571721
0.07685898 -4.2872667e-10 0.013544168 0.03613922 0.00059736526 -1.2409767e-20 0.12720749 4.976857e-25
0.08593502 0.023540922 0.0705328 0.021064896 0.04191857 0.0126213785 0.04800519 0.07158594
0.15493913 -1.4660314e-36 0.030881854 0.085796244 0.1322411 0.0950659 1.4409796e-35 0.06476278

net.2.running_var f4 [512]
00000000: b06e 9336 0400 0000 7b65 093d 22b6 483b
00000010: ae16 bb3b 0400 0000 837a 693c 216e de36
00000020: 0400 0000 0400 0000 fa25 9402 51d9 763c
00000030: a3a1 5b3b 0400 0000 0400 0000 1d57 533b
00000040: 0400 0000 753a f13a d1cc 8d38 98af f23c
00000050: 0400 0000 61a7 673a 0400 0000 4eb8 0137
00000060: 0400 0000 c93b e53a de9e fd3b 0400 0000
00000070: 8dc7 833b b49a 463c 6e46 563b 0400 0000
00000080: 1e97 223b d319 f33c 772f d937 d241 d637
00000090: 0400 0000 a39f 713a 4cf2 9c3b 1804 173c
000000a0: becc 393b d131 0d3c 0400 0000 536a 9b3b
000000b0: e560 e63a 0400 0000 3c77 2c3c 9bd9 133c
000000c0: 1892 9f3b 980d 7c3b 0400 0000 cab1 f837
000000d0: 0400 0000 23b0 5d3c 4eba 0c3a ce10 093b
000000e0: 4929 3c3c 6ef7 3a3a 871c e136 158e 0039
000000f0: a872 313a 0400 0000 6d82 903c ce2b ee31
00000100: ebea 983b 0400 0000 28be 5e3b cf59 203c
00000110: a9d9 df3a 6ff3 183b 3f4f a03a 86e7 c03b
00000120: 04a5 213b 0400 0000 a5f6 903b b987 a93b
00000130: 4efd ea38 cbab 733c f120 1119 0400 0000
00000140: 966d 0a3b 485a 8b3a 0400 0000 d137 b73b
00000150: d169 a439 f168 973c 0ec5 193a 8111 753b
00000160: 1047 8d3b 0400 0000 0400 0000 0400 0000
00000170: e897 cb3a c85f b83c 0400 0000 66ca 0604
00000180: e809 053b 8645 a538 5dd6 4137 41a8 933a
00000190: 0400 0000 0400 0000 0400 0000 66e5 803b
000001a0: 0400 0000 2f68 293c 0017 8638 10c9 2c3b
000001b0: 0400 0000 c3e4 2d3c 9ddf dd3a bf33 ac3c
000001c0: c089 6633 0400 0000 1f44 e93b e695 663b
000001d0: 9e1d a538 7ed6 643b 0400 0000 0b53 2039
000001e0: 8543 063c c145 403c b7aa 973a 5790 743c
000001f0: 0400 0000 16b0 a23a 5633 013c 43b7 2f3a
00000200: 0400 0000 e7d0 003c 83cc 5b36 bc7b b23b
00000210: 0400 0000 0be2 c53b 0e3d 283c 0400 0000
00000220: 5e13 a838 df71 0100 0400 0000 b1ee ae02
00000230: b08f f23b 6041 473b 4c9c 8338 0400 0000
00000240: 0400 0000 690c 4c35 0400 0000 c8cc 313b
00000250: 0400 0000 262e 7739 1d95 263b a480 1e3b
00000260: 0400 0000 ef0d 3b3b f9ea 583c 4534 153c
00000270: da25 0d3a 0400 0000 28d6 e03b 0716 8235
00000280: 1ae4 043c 0400 0000 0400 0000 0400 0000
00000290: 2e38 c53a ea12 f23b 4177 2839 7aec b53a
000002a0: 9801 aa39 9744 a63b 0400 0000 7e7f 3f1a
000002b0: 405c f01f 7391 103d 23dd fa3a 660d 8637
000002c0: 53ca 5433 6588 c93c 5e71 3905 4aac 913c
000002d0: 1b1b c83b deeb 8c38 0400 0000 0400 0000
000002e0: 611d 293a 900e 003b 0400 0000 2ac5 5737
000002f0: c0d5 863b c326 dc3b 50cb c23a 3058 113c
00000300: 0428 b23c 4dd8 e43a b6b5 8b39 631f e23b
00000310: 4373 393c 446c df39 deb5 6535 c294 703a
00000320: ae31 a335 0400 0000 9a44 9f3b 0400 0000
00000330: 1853 490e 226a a53b 0400 0000 4927 c43c
00000340: 0400 0000 5b65 8e3b 0400 0000 0400 0000
00000350: 729a 1b3b 7910 1d3b 77fe bd37 0400 0000
00000360: 0400 0000 8b08 423c d3dd 323c 36b4 1f3b
00000370: 0400 0000 e0c2 143a 0400 0000 0400 0000
00000380: 52e2 b33b b069 933c 8547 5e36 458a 6a3c
00000390: 0400 0000 6179 9c3c 205a d63b 429c 093c
000003a0: 9417 0b3c a864 ee1e 1e58 7d3a ced7 9c3b
000003b0: 2a56 f536 e120 0000 8efb c43b 0400 0000
000003c0: 54ff 973c c2bc 5b3b 3665 5d3b ac73 653b
000003d0: 996e 453b 9d25 b13a af03 133c ca6e f03b
000003e0: 60ae b63c 0400 0000 07a4 903a 5676 393c
000003f0: 405b bf3c 38bc 8f3c 0400 0000 9851 5f3b
4.393827e-06 6e-45 0.033544045 0.0030626138 0.0057094907 6e-45 0.0142504005 6.6289363e-06
6e-45 6e-45 2.1768443e-37 0.015066461 0.003351309 6e-45 6e-45 0.0032247968
6e-45 0.0018404262 6.761554e-05 0.029624745 6e-45 0.0008836892 6e-45 7.731911e-06
6e-45 0.0017489131 0.0077398857 6e-45 0.004021591 0.012121845 0.0032695788 6e-45
0.002480931 0.0296754 2.5890518e-05 2.5541438e-05 6e-45 0.0009217208 0.004789626 0.009217285
0.0028350796 0.008617834 6e-45 0.0047428994 0.0017576484 6e-45 0.010526475 0.009024049
0.0048697107 0.003846025 6e-45 2.9646693e-05 6e-45 0.013530764 0.0005368338 0.0020914557
0.0114844525 0.0007132207 6.7088436e-06 0.00012259961 0.0006769099 6e-45 0.017640317 6.9316917e-09
0.0046666763 6e-45 0.0033987854 0.009787037 0.0017078418 0.0023338457 0.0012230648 0.0058869747
0.0024665007 6e-45 0.0044239336 0.00517365 0.00011205171 0.014872502 7.502977e-24 6e-45
0.0021122447 0.0010631764 6e-45 0.0055913706 0.00031359357 0.018482657 0.000586585 0.0037394466
0.00431145 6e-45 6e-45 6e-45 0.0015532942 0.02250661 6e-45 1.5844561e-36
0.0020300094 7.880763e-05 1.1553607e-05 0.0011265354 6e-45 6e-45 6e-45 0.0039335964
6e-45 0.010339781 6.393902e-05 0.002636496 6e-45 0.010613623 0.0016927604 0.021020768
5.367633e-08 6e-45 0.0071187164 0.0035184561 7.87333e-05 0.0034917886 6e-45 0.00015289725
0.008194809 0.011735381 0.0011571263 0.014926991 6e-45 0.0012412097 0.007885775 0.00067030283
6e-45 0.007862306 3.2752585e-06 0.005446879 6e-45 0.0060389093 0.010268463 6e-45
8.014472e-05 1.32685e-40 6e-45 2.5704004e-37 0.007402383 0.0030403957 6.275679e-05 6e-45
6e-45 7.601398e-07 6e-45 0.0027130116 6e-45 0.00023572947 0.0025418468 0.0024185563
6e-45 0.002854224 0.013239616 0.0091067 0.00053843635 6e-45 0.006861467 9.692166e-07
0.008111024 6e-45 6e-45 6e-45 0.001504665 0.0073875086 0.00016066154 0.001387968
0.00032426114 0.0050740945 6e-45 3.9600862e-23 1.0179657e-19 0.03529496 0.001913939 1.5980284e-05
4.954411e-08 0.02460117 8.7194805e-36 0.01778235 0.006106747 6.719654e-05 6e-45 6e-45
0.0006451216 0.001953993 6e-45 1.28609045e-05 0.0041148365 0.006718488 0.0014861617 0.008871123
0.021747597 0.0017459482 0.0002664753 0.0069007142 0.011318984 0.0004261454 8.55738e-07 0.000917744
1.2158905e-06 6e-45 0.004860473 6e-45 2.4815171e-30 0.0050480524 6e-45 0.023944514
6e-45 0.0043455786 6e-45 6e-45 0.002374318 0.0023966117 2.264905e-05 6e-45
6e-45 0.011842857 0.010917145 0.0024368889 6e-45 0.00056747906 6e-45 6e-45
0.005489626 0.017994732 3.3122208e-06 0.014315193 6e-45 0.019100847 0.0065415055 0.008399071
0.008489508 2.524086e-20 0.00096643146 0.004786468 7.3116e-06 1.1795e-41 0.006011433 6e-45
0.018554367 0.0033529256 0.003378225 0.0035011573 0.0030125736 0.0013515238 0.008973046 0.007337426
0.022299945 6e-45 0.0011035212 0.011319717 0.023358941 0.017545804 6e-45 0.0034075733

net.3.weight f4 [256, 512]
00000000: 9b6d 333c cf2f f134 4162 64bb 0576 74bc
00000010: 9fdd a03b 5d9f a430 65b9 003e b382 9f3d
00000020: 8549 0535 3b6c b235 5905 8e35 e8e7 b9bd
00000030: c39a 3bbc aaef 85b5 09e5 4c35 558c 7dbb
00000040: b932 b235 3186 693d a85f 9d3c af75 c33b
00000050: 359b d8b5 95e2 a33c 3293 82b5 109b 0c3c
00000060: bae0 ef34 279c 4f3b 4dfa 57bc 1c36 15b6
00000070: 4001 14bd 1d6c 2fbd a63a a5bb ca65 25b6
00000080: 349e dcbc ed2b b13c 71ac ff3b c5f8 1dbd
00000090: e65c 34b5 b52d 013d 1847 a53c 0319 ddbc
000000a0: bcf2 d43d 9e43 503c 421e 8d36 9812 a23b
000000b0: b058 bf3b 62cb 1f36 32a1 043c 929a 89ba
000000c0: 6d5b 97bc 506e 57bd f94f b9b4 f8b8 4e3d
000000d0: 39ae a735 9ac5 45bc 5737 9bbb 2fb8 0ebd
000000e0: 85ce b4bb f4fd bebb da8f 98bc ad33 00bd
000000f0: 546c 4cba 535a 8635 9d16 02be 3844 9abc
00000100: e39b 513c 4f16 b035 4461 093d 1d60 8ab9
00000110: b03b 9c3b 08a4 1e3c ec1c 8bbc b5b7 26bd
00000120: 4ca1 3f3c fe17 a235 e237 4bbd 2899 75bc
00000130: 657b 123d e982 52bc 29c7 c5b4 be7f f4b4
00000140: 4863 09bc e13e f0bb 520b 14b5 3bd7 46bd
00000150: f901 313e 0357 9bbc d551 7fbc e7fd f1bb
00000160: b0de d4bc 3cca a035 2436 6635 da39 0b36
00000170: 52fd a03c d56d b3bc 06ec 98b5 fdcf 6db5
00000180: 8878 e1bc 99cf 20bc 8aa6 f13c f4e1 7c3d
00000190: 8d83 0d36 b7d6 d9b5 5630 8035 8d51 933c
000001a0: b638 9335 d7d8 913c d334 633e 7702 023c
000001b0: f741 c9b5 e49e 8dbc 3e21 69b9 068d db3a
000001c0: 37f1 98bc c031 a335 fe55 dc3b af42 d13b
000001d0: 4d8b 023d 3910 37bb 0f8e 3234 acac e3bc
000001e0: 60c4 c43c b560 dabc 3120 cebc 4bfe e9bc
000001f0: 56b1 eeb5 122c 473c 9614 823c 0076 06bc
00000200: 48eb 6332 a3eb 2abd 1858 053a 05d2 b63c
00000210: 92a5 b635 36b5 87bc bd05 00bb 5dd5 fc35
00000220: 38eb 71bc 39d3 b434 8412 c635 1a2c c5b5
00000230: 6068 a23c 6860 0abd af0a da3c 5235 11b5
00000240: e57c e235 c72a 0abd cf2c a4b5 93a2 183c
00000250: 4d45 ebb5 1bfd ccbb adda b63b f4dc 34bc
00000260: 947d d335 80c2 913c 5495 cc3c 2cf8 0abd
00000270: 66c7 163d 6194 bbb5 57d5 543d e148 30bd
00000280: beeb 28bb 061d 1336 32ae a5b5 9e6f c735
00000290: 6915 9f3d 5ccd 2abd ab95 833d 6e43 29be
000002a0: ef97 2c3d bbf2 ebbb 8f02 bdb5 6607 77b6
000002b0: 81d7 3fb6 af1b 7e3c 0f5a 4fbb 1169 0c3e
000002c0: f0d8 cbb7 781b 14bb 2280 c5b5 4037 acbc
000002d0: 5ab2 3aba 7a81 bf3d 24bf 3fb5 17d2 f135
000002e0: 41ee 9c3d a7eb 573c 25ea 34b5 de02 1f3c
000002f0: 5fbe 1dbb 35b1 74bc 24cf e13c ca91 e0bc
00000300: fdac 37bc 9c82 1bbc 1197 283c ca07 12bc
00000310: 6a3c 05bd 79fa 903c b424 0dbd 5542 b43b
00000320: 5dfc 21bc 11bf a735 dc9e 973c 4f0a 2835
00000330: 9b14 8935 45e3 87bc 56ef 3ab6 8203 d1bc
00000340: 4875 33b5 ace5 5b3b 3b67 1a36 7187 2336
00000350: 2a41 b9bc 8bd4 1ebc 73ca b73d 6431 99b4
00000360: 17f0 8b34 4a3b fb3d fd25 aabb dda1 51bd
00000370: d001 e935 c592 b73d e280 c7b5 c4c5 b4b4
00000380: 0fb6 97bc bdc0 1fbc f753 18bb 6259 14bc
00000390: 090d b6b5 fd65 333c 9d4a ad3b f5f1 d13c
000003a0: f56f c6bc 66a7 21bc 89bb 5fbc ac79 27bc
000003b0: bf3b 07bc a1cf 0d36 fd44 223b 989e a735
000003c0: 2473 93bc be6b 05bd ff0c 86bc 21fc de3d
000003d0: b7f0 65bb f69c 92bc ebd8 0ebd c0bd 59bd
000003e0: 6f92 42bc 2dfc 5bb5 ebc7 18bc 8153 00be
000003f0: c0e7 08bd cd7c 09bd bd0c 6bb4 df50 973c
0.010951425 4.4924533e-07 -0.0034848603 -0.014920716 0.004909232 1.1977864e-09 0.12570722 0.07788601
4.9653346e-07 1.3293533e-06 1.0581381e-06 -0.09077436 -0.011450472 -9.979024e-07 7.632921e-07 -0.003868838
1.3276796e-06 0.05701274 0.019210652 0.0059649567 -1.6138425e-06 0.020005504 -9.728594e-07 0.008581892
4.468073e-07 0.0031678767 -0.013182235 -2.2234226e-06 -0.036134005 -0.042827714 -0.005042392 -2.4646165e-06
-0.026930906 0.02162739 0.007802539 -0.038567323 -6.719041e-07 0.03153773 0.020175502 -0.026989466
0.103978604 0.012711434 4.20565e-06 0.004946064 0.00583943 2.381123e-06 0.008095073 -0.0010498336
-0.018476212 -0.052595437 -3.4517123e-07 0.05046937 1.2493175e-06 -0.012071038 -0.0047368216 -0.03484362
-0.005517783 -0.0058286134 -0.018623281 -0.031299282 -0.00077981246 1.0010066e-06 -0.12703939 -0.018831357
0.012793514 1.3119515e-06 0.033540025 -0.0002639302 0.0047678575 0.009682663 -0.016981564 -0.04070254
0.011696171 1.2076923e-06 -0.04961384 -0.014990129 0.03576221 -0.012848594 -3.6839018e-07 -4.5541486e-07
-0.008385487 -0.0073317145 -5.515077e-07 -0.048545104 0.17285909 -0.018962389 -0.015583475 -0.007385004
-0.025985092 1.1979787e-06 8.576046e-07 2.0746288e-06 0.019652043 -0.021902958 -1.1393574e-06 -8.8592043e-07
-0.027523294 -0.00981512 0.029498357 0.061738923 2.108721e-06 -1.623025e-06 9.550811e-07 0.017983222
1.0968859e-06 0.017803593 0.2218812 0.007935158 -1.4994865e-06 -0.017287679 -0.00022232995 0.0016750402
-0.018669708 1.2158926e-06 0.0067241183 0.006386123 0.03187113 -0.0027933253 1.6629222e-07 -0.027792297
0.02401942 -0.026657442 -0.025161834 -0.02856364 -1.7783993e-06 0.012156503 0.015878957 -0.008206844
1.3266636e-08 -0.041728627 0.00050866744 0.022316942 1.3608244e-06 -0.0165659 -0.001953467 1.883756e-06
-0.014765553 3.3681297e-07 1.4757538e-06 -1.4690479e-06 0.01982516 -0.033783346 0.026616422 -5.40943e-07
1.6874661e-06 -0.033732202 -1.2231993e-06 0.009316104 -1.7529034e-06 -0.0062557585 0.0055802674 -0.011039007
1.5757273e-06 0.01779294 0.024973549 -0.03392808 0.036811255 -1.397577e-06 0.05196127 -0.043038253
-0.002577528 2.19216e-06 -1.2344155e-06 1.485914e-06 0.077677555 -0.041699752 0.06425031 -0.16529629
0.042137083 -0.0072005666 -1.4082342e-06 -3.6810175e-06 -2.8586658e-06 0.01550953 -0.0031639372 0.13711955
-2.4300505e-05 -0.002259938 -1.4714935e-06 -0.021022439 -0.00071219134 0.093508676 -7.143119e-07 1.8017043e-06
0.07662631 0.0131787425 -6.739595e-07 0.009705273 -0.002406977 -0.014934828 0.027564593 -0.027413268
-0.011210677 -0.009491589 0.010289923 -0.00891299 -0.03252832 0.01769756 -0.03445883 0.0055010715
-0.009886828 1.2498077e-06 0.018508367 6.259988e-07 1.0213292e-06 -0.016587863 -2.7855472e-06 -0.025514368
-6.6853363e-07 0.0033553643 2.3007876e-06 2.436773e-06 -0.02261408 -0.009694229 0.08974161 -2.8534407e-07
2.6065456e-07 0.12267168 -0.005192517 -0.051179755 1.736038e-06 0.08963541 -1.4864165e-06 -3.3671506e-07
-0.01851943 -0.009750542 -0.0023243406 -0.009054514 -1.356385e-06 0.010949609 0.0052884356 0.02562807
-0.024223307 -0.009866571 -0.013655552 -0.01022188 -0.008253991 2.1131493e-06 0.0024760359 1.2488626e-06
-0.01799924 -0.032573454 -0.016363619 0.108879335 -0.0035086104 -0.01789711 -0.034874838 -0.053159475
-0.011875733 -8.195082e-07 -0.009325008 -0.12531854 -0.03342414 -0.033566285 -2.1890715e-07 0.01847118
