training_results/training_synergies_results/training_20250607_130259/FCNN_15_PCA.pth (torch, 719361 bytes, 18 tensors)

net.0.weight f4 [512, 4]
-0.076359935 0.042694613 -0.35996634 -0.35375845 -0.014129749 0.103659175 -0.06319637 -0.14617714
-0.016000895 -0.017902037 0.042348202 0.29267362 -0.3059041 -0.017197302 0.39658758 0.05437428
0.020837976 0.07764016 -0.059305917 -0.014537468 -0.09283802 -0.16642423 0.30751196 0.06822126
0.25547996 0.014618833 -0.12112427 -0.24604268 -0.068674624 0.2540237 0.17657216 -0.26449567
0.31898656 0.012238915 -0.032581687 -0.13486099 0.09504947 0.4659788 -0.18214561 -0.30246657
-0.009578474 0.056247704 0.10439153 -0.03005318 0.49358416 0.0985984 -0.105441086 -0.20232862
1.9810497e-27 2.186763e-29 1.515507e-29 -5.035456e-26 -0.66823924 -0.013459821 -0.004189074 0.016695878
0.13692248 -0.11300463 0.09373001 -0.2087384 -0.17738438 0.04053462 0.38260636 -0.41011557
0.29282588 -0.3726265 -0.579321 0.1297422 -0.1563354 0.013950549 -0.16663384 -0.02948004
0.0006505519 -0.0011796331 0.51760834 -0.0025057117 0.10093965 0.05808325 0.07629186 -0.44177076
-4.73559e-10 -4.0944295e-10 3.2629865e-10 1.5808047e-10 -0.03631348 0.09426539 -0.07163974 0.19136494
-3.917564e-13 2.7404981e-12 -1.9557984e-12 -6.5911716e-12 0.01863506 -0.3724797 -0.549923 -0.033374663
-0.16803145 0.22531939 0.41256967 -0.082699805 0.12723663 -0.34082112 -0.073372 0.17859533
0.1761092 -0.032651447 0.45885393 -0.2528301 -0.10453529 0.0052299923 -0.035110213 0.092087224
-0.5318144 0.06222154 -0.25147048 0.114739634 -0.112696856 -0.15323488 0.162877 0.15162791
-0.27990505 0.0104654115 -0.61544037 -0.28881562 0.21416046 -0.10335734 0.06302412 -0.15196706
-0.15141805 0.19268897 -0.2781923 0.01676177 0.04407527 0.16569638 -0.22008778 -0.14466187
4.64395e-11 4.1099367e-11 -3.815349e-11 -1.5862336e-10 3.2054014e-12 -4.4767028e-13 -2.425458e-11 -2.5326302e-11
-1.4070039e-12 -4.0280943e-12 -1.9640424e-12 1.2659382e-12 -0.019441117 0.061234746 0.066539355 -0.02494442
0.09384145 -0.36418757 -0.39846754 0.058047745 -0.44792902 0.34512272 0.295936 0.22025216
0.14572345 -0.12055474 0.27270854 0.051529627 -0.22603063 -0.052811652 -0.6384635 0.10165203
-0.29306015 0.24829993 0.009102073 0.28718632 -0.064951956 -0.23020399 0.2931174 0.15495107
-0.06087265 0.44497484 0.08664566 -0.34451428 0.0035938693 0.06641061 -0.045666426 -0.013353508
0.39920342 0.33242407 -0.3939161 0.21253362 -0.45196918 0.03250023 0.0010382924 0.47928953
0.0551362 0.0048612715 -0.08608468 -0.09894793 0.06934428 0.010301845 -0.051094033 -0.073703565
-0.35660666 0.4695755 -0.068734 0.07160659 -0.18398727 -0.029959254 0.20248099 0.0004019789
-0.091024145 0.026854936 0.19759485 -0.26097915 0.11227853 0.005560185 0.0015748752 0.48293906
-0.25666878 -0.00097152 -0.3127426 0.3242101 0.055133324 -0.21343444 -0.5398337 -0.15493268
0.27983463 0.025369657 -0.22854508 -0.30343166 -0.0819612 -0.35351917 0.23187514 -0.1776989
2.6505495e-25 -5.629564e-27 -1.9969698e-26 -2.2675735e-25 -0.017184442 0.38594648 0.2951929 -0.24005525
-0.16952933 -0.031619173 0.013036445 0.48297837 0.088593066 -0.037975557 0.0372399 -0.07846142
0.30822152 -0.46949825 -0.020317335 0.16561472 -0.06678147 -0.22253923 -0.043230858 0.22208509
00000000: 9962 9cbd 8ce0 2e3d 824d b8be d41f b5be
00000010: 7680 67bc 434b d43d 196d 81bd 76af 15be
00000020: 4f14 83bc 4ba7 92bc 4f75 2d3d 51d9 953e
00000030: 769f 9cbe 5be1 8cbc 870d cb3e 91b7 5e3d
00000040: 67b4 aa3c ce01 9f3d c3ea 72bd 8f2e 6ebc
00000050: dc21 bebd 1d6b 2abe 3572 9d3e 97b7 8b3d
00000060: 45ce 823e d483 6f3c 0010 f8bd 9df2 7bbe
00000070: 48a5 8cbd 650f 823e 55cf 343e fa6b 87be
00000080: 3552 a33e bb85 483c 6074 05bd 0019 0abe
00000090: 4ca9 c23d c694 ee3e 6184 3abe e6dc 9abe
000000a0: 08ef 1cbc fe63 663d 3acb d53d 1632 f6bc
000000b0: 10b7 fc3e f5ed c93d 7ff1 d7bd 3c2f 4fbe
000000c0: 76f4 1c13 9dc3 dd0f d0b0 990f fd57 7995
000000d0: ba11 2bbf 9586 5cbc 8044 89bb cbc5 883c
000000e0: 6835 0c3e f96e e7bd 85f5 bf3d 85bf 55be
000000f0: 40a4 35be a107 263d fbe4 c33e abfa d1be
00000100: 46ed 953e e7c8 bebe 624e 14bf 24db 043e
00000110: 6316 20be d890 643c 10a2 2abe 2080 f1bc
00000120: cd89 2a3a eb9d 9aba fb81 043f de36 24bb
00000130: 72b9 ce3d b4e8 6d3d e83e 9c3d c72f e2be
00000140: c12b 02b0 f917 e1af 7462 b32f b2cf 2d2f
00000150: 72bd 14bd 360e c13d dbb7 92bd 2cf5 433e
00000160: 0c8a dcaa 6dd8 402c 88a0 09ac ffe7 e7ac
00000170: 8ea8 983c a9b5 bebe c1c7 0cbf dfb3 08bd
00000180: 7010 2cbe 20ba 663e 553c d33e 845e a9bd
00000190: 524a 023e 1b80 aebe 0f44 96bd b2e1 363e
000001a0: f855 343e 86bd 05bd e7ee ea3e f272 81be
000001b0: 9916 d6bd 5b60 ab3b bacf 0fbd 3a98 bc3d
000001c0: fd24 08bf 03dc 7e3d bdc0 80be 9dfc ea3d
000001d0: 9ccd e6bd 9be9 1cbe 3ac9 263e 5944 1b3e
000001e0: b74f 8fbe 1e77 2b3c 808d 1dbf a4df 93be
000001f0: e14c 5b3e 03ad d3bd ca12 813d 419d 1bbe
00000200: 550d 1bbe 4250 453e 396f 8ebe fb4f 893c
00000210: 4588 343d 50ac 293e b15e 61be 3e22 14be
00000220: 3b3e 4c2e c6c1 342e 03cd 27ae 8268 2eaf
00000230: 618f 612c 1604 fcaa 7558 d5ad c3c5 dead
00000240: a804 c6ab d9b9 8dac 0b35 0aac 3b2a b22b
00000250: fa42 9fbc 49d1 7a3d c945 883d 3e58 ccbc
00000260: f22f c03d cb76 babe f003 ccbe 79c3 6d3d
00000270: f456 e5be edb3 b03e ec84 973e c889 613e
00000280: 8738 153e 67e5 f6bd 74a0 8b3e bb10 533d
00000290: 9374 67be 0851 58bd 5872 23bf f12e d03d
000002a0: fb0b 96be 5642 7e3e dc20 153c 160a 933e
000002b0: 8805 85bd 98ba 6bbe 7c13 963e 7eab 1e3e
000002c0: 9a55 79bd bed3 e33e 4873 b13d 2d64 b0be
000002d0: 1f87 6b3b 4902 883d b80c 3bbd acc8 5abc
000002e0: 6464 cc3e 7d33 aa3e 5faf c9be 6aa2 593e
000002f0: 8168 e7be f61e 053d 5017 883a 7065 f53e
00000300: 7fd6 613d 4d4b 9f3b 2a4d b0bd 36a5 cabd
00000310: 6004 8e3d 12c9 283c fa47 51bd e5f1 96bd
00000320: 2695 b6be 336c f03e 69c4 8cbd 7aa6 923d
00000330: 2967 3cbe 1c6d f5bc 2d57 4f3e b2c0 d239
00000340: de6a babd e2fe db3c 4e56 4a3e 0f9f 85be
00000350: 49f2 e53d 3632 b63b 0b6c ce3a ca43 f73e
00000360: 176a 83be 9bad 7eba cc1f a0be defe a53e
00000370: 7bd3 613d 8f8e 5abe 8b32 0abf aca6 1ebe
00000380: 7c46 8f3e 07d4 cf3c b907 6abe 655b 9bbe
00000390: 46db a7bd 7700 b5be ad70 6d3e b3f6 35be
000003a0: a20f a416 9002 df93 33c5 c594 235b 8c96
000003b0: 63c6 8cbc c79a c53e 8623 973e 0bd1 75be
000003c0: 1999 2dbe 1b83 01bd d096 553c f148 f73e
000003d0: 4870 b53d 428c 1bbd de88 183d 62b0 a0bd
000003e0: 36cf 9d3e 1362 f0be 8a70 a6bc e896 293e
000003f0: b9c4 88bd 53e1 63be d712 31bd 466a 633e

net.0.bias f4 [512]
0.103873834 -0.09283162 -0.15412384 -0.08588489 -0.06823663 -0.36024398 -0.1869284 -0.33146358
-0.15486062 0.09554275 0.020532725 -0.15779093 -9.555927e-26 0.16257578 -0.14788213 -0.19458851
-0.060761027 0.16407777 -0.14235517 0.11114586 -4.8185805e-10 -0.03400857 -1.2236845e-11 0.11099772
-0.28412488 -0.0033571725 -0.0728004 -0.09079719 -0.06936878 0.06659435 0.30204493 -0.21637033
0.21764743 -0.15204163 -1.3295855e-10 -1.4767425e-11 -3.8058567e-12 -0.12159558 0.13508165 -0.27443802
-0.02835752 0.26017562 -0.03516671 -0.17923848 -0.19432938 -0.06304541 -0.24498974 -0.24463245
-0.004470618 -0.043236714 -0.32448217 -0.20284677 -0.0076412945 -0.2616162 -0.014061343 0.09894576
-0.096565984 0.20121586 -1.1775015e-23 -0.18732814 -0.46725634 -0.06182657 -0.094465464 0.23226273
-0.039004754 -0.044034276 -0.040621735 -0.52026325 -0.112752244 0.27239364 -0.2483754 0.126542
-2.1862202e-13 -0.29153007 0.24156912 -0.029464526 -0.00912624 -2.4959708e-15 0.32205376 -1.0794048e-11
0.00010058494 0.20652641 0.20010011 0.18671906 -0.004592011 1.2165876e-24 0.23274574 0.0284313
-0.13262777 -0.10506953 -0.43548378 0.14062113 0.013024284 0.30366886 -0.0046829237 0.27812755
0.45118043 0.19184516 0.17754282 0.04335809 -0.051618 -1.6619283e-35 -0.17633435 -0.19622414
0.34097892 0.271768 -0.29796416 -3.3990582e-18 -0.099353805 0.026843596 -0.12478907 0.003715407
-0.09720075 -2.952868e-20 0.002579091 1.280197e-20 -0.31207055 -0.36771074 0.23932232 -0.10020205
0.019316083 -0.2908972 0.3268348 -0.03838729 -0.19873449 -4.9924024e-26 0.21600242 0.16189097
-0.14326076 -0.3244692 0.23806527 0.010748118 0.14736694 -4.7970954e-11 -0.17543596 -0.123809345
0.02731126 0.061149325 -0.4416834 0.20163932 -4.6100967e-10 0.1363507 -0.08490391 -4.1654036e-16
-0.00091679423 1.4747155e-21 -0.16375136 -8.2665794e-23 0.14031611 -0.035526123 0.29801285 -0.46710706
0.38483515 0.045757506 -0.1649051 -0.06203908 -0.3430694 0.35832337 0.11703982 -0.13804549
0.23140971 -0.15349992 -0.16476494 0.0069651646 0.0048069456 -1.2006692e-11 -1.4269798e-20 -0.17740421
-0.017325237 -0.021421919 0.16745287 0.008956605 0.19554621 0.19181319 0.123919144 -0.44167307
-0.42101708 0.26341313 -0.44116387 -0.37090608 0.16564031 0.1302435 0.0336033 -0.10984847
-3.181267e-36 0.3122722 -0.46130365 0.034026332 -0.17655233 -8.842458e-21 -7.8784216e-36 -0.08055316
0.27029097 -0.04112402 0.06979941 0.10336686 -5.7716544e-16 0.18785283 1.391782e-13 1.2076234e-06
-0.45592552 0.12048511 -7.14179e-18 0.32400444 -1.2726497e-25 0.038074985 0.14737451 -5.901119e-20
0.114667915 -0.2825752 -0.43855795 -5.409137e-10 -0.14889704 -0.4155885 0.0052134786 -0.027386
-2.9783257e-12 0.19375934 -1.2990179e-16 -0.35466176 -0.19161321 -6.511019e-20 0.19565216 -9.0447045e-13
0.16885744 0.17492178 0.007616588 0.05949499 -0.19023143 -0.18333684 0.2503594 -0.0019887656
-0.25190577 0.043452404 0.08803587 0.17195882 -0.14520027 -0.30694947 -5.8893507e-16 -0.009622575
-0.46106473 -4.1787866e-18 -0.0831491 0.08937323 0.14433044 -0.05677373 0.30818424 -1.5809922e-20
0.114429176 -0.33608767 0.25555414 2.5645232e-07 -0.10184322 -5.118835e-10 3.862851e-22 0.036172174
00000000: cebb d43d 811e bebd a4d2 1dbe 6be4 afbd
00000010: a5bf 8bbd e671 b8be 296a 3fbe 98b5 a9be
00000020: c893 1ebe ebab c33d 3f34 a83c f293 21be
00000030: e297 ec95 447a 263e 6a6e 17be 3642 47be
00000040: 8ee0 78bd 0104 283e 8ec5 11be 71a0 e33d
00000050: bf73 04b0 924c 0bbd da45 57ad c652 e33d
00000060: d178 91be 0204 5cbb 6018 95bd e1f3 b9bd
00000070: 3811 8ebd 9e62 883d a2a5 9a3e 2f90 5dbe
00000080: f8de 5e3e cdb0 1bbe 8130 12af 49e5 81ad
00000090: 1ce8 85ac 1a07 f9bd d852 0a3e 2483 8cbe
000000a0: 084e e8bc bd35 853e f80a 10bd 4b8a 37be
000000b0: 48fe 46be f41d 81bd 97de 7abe ee80 7abe
000000c0: 437e 92bb fb18 31bd 8722 a6be 10b7 4fbe
000000d0: d363 fabb 8ff2 85be 8c61 66bc 13a4 ca3d
000000e0: 63c4 c5bd 880b 4e3e 0dc3 6399 f3d2 3fbe
000000f0: 393c efbe dc3d 7dbd 1c77 c1bd 48d6 6d3e
00000100: 73c3 1fbd 495d 34bd fa62 26bd f92f 05bf
00000110: a6ea e6bd 2e77 8b3e 1f56 7ebe 3a94 013e
00000120: 8225 76aa 6e43 95be e55d 773e 975f f1bc
00000130: 3a86 15bc 89da 33a7 3be4 a43e 12e4 3dad
00000140: 21f1 d238 a97b 533e 0be7 4c3e 4833 3f3e
00000150: 9578 96bb 0042 bc17 e654 6e3e c2e8 e83c
00000160: 93cf 07be b22e d7bd bbf7 debe fcfe 0f3e
00000170: ce63 553c 7c7a 9b3e 3673 99bb bc66 8e3e
00000180: 1f01 e73e 0f73 443e c9cd 353e 4198 313d
00000190: 656d 53bd feb9 b085 fe90 34be fbee 48be
000001a0: ca94 ae3e 2d25 8b3e c28e 98be 65ce 7aa2
000001b0: 027a cbbd 1ae7 db3c 6991 ffbd 307e 733b
000001c0: 3011 c7bd fc71 0b9f f705 293b 87d2 711e
000001d0: b6c7 9fbe 9544 bcbe e910 753e bb36 cdbd
000001e0: c33c 9e3c 7af0 94be e456 a73e fe3b 1dbd
000001f0: 0e81 4bbe 3836 7795 bd2f 5d3e bfc6 253e
00000200: f3b2 12be d420 a6be 62c7 733e e018 303c
00000210: 5ce7 163e 7efa 52ae 7ca5 33be c18f fdbd
00000220: ddbb df3c b777 7a3d 5424 e2be 8a7a 4e3e
00000230: 5871 fdaf 859f 0b3e 1ae2 adbd 821e f0a5
00000240: 0555 70ba 4bda de1c 70ae 27be a6df c79a
00000250: 07af 0f3e d783 11bd 2495 983e a828 efbe
00000260: 1d09 c53e 396c 3b3d e2dc 28be b11c 7ebd
00000270: cba6 afbe 2976 b73e 93b2 ef3d cc5b 0dbe
00000280: abf6 6c3e 152f 1dbe 24b8 28be 093c e43b
00000290: 9583 9d3b 5539 53ad 41c6 869e 73a9 35be
000002a0: a8ed 8dbc 057d afbc c478 2b3e b9be 123c
000002b0: 443d 483e ad6a 443e 52c9 fd3d f922 e2be
000002c0: 8d8f d7be 16de 863e 3be0 e1be 67e7 bdbe
000002d0: 9d9d 293e 8d5e 053e 9da3 093d 3cf8 e0bd
000002e0: ee50 8784 24e2 9f3e fe2f ecbe 325f 0b3d
000002f0: 22ca 34be 8107 279e 358e 2785 0ef9 a4bd
00000300: 9463 8a3e a971 28bd fef2 8e3d 01b2 d33d
00000310: 4b5b 26a6 7e5c 403e 63b3 1c2a a015 a235
00000320: 126f e9be e6c0 f63d 26be 03a3 e9e3 a53e
00000330: e18b 1d96 84f4 1b3d 58e9 163e 1356 8b9f
00000340: 03d7 ea3d b2ad 90be ab8a e0be 6baf 14b0
00000350: 7778 18be 04c8 d4be d4d5 aa3b 9b58 e0bc
00000360: bf94 51ac d968 463e 3ec4 15a5 3a96 b5be
00000370: 4136 44be b2bc 999f 0a59 483e f795 7eab
00000380: f7e8 2c3e b21e 333e 9294 f93b 05b1 733d
00000390: 07cc 42be a7bc 3bbe 1b2f 803e f355 02bb
000003a0: cbf9 80be 26fb 313d 264c b43d f915 303e
000003b0: 61af 14be 7b28 9dbe bdbf 29a6 01a8 1dbc
000003c0: ad10 ecbe 862b 9aa2 134a aabd 5009 b73d
000003d0: 5ccb 133e 928b 68bd 53ca 9d3e 0c52 959e
000003e0: d859 ea3d af13 acbe fed7 823e 8aae 8934
000003f0: 2e93 d0bd 99b4 0cb0 b97e e91b 4629 143d

net.2.weight f4 [512]
0.14523971 0.24505673 0.105514646 0.098197944 0.2519977 0.42033932 0.44698885 0.3756749
0.48239902 0.18132775 0.020260667 0.7712338 -4.397336e-28 0.7360493 0.41453367 0.3782824
0.5716437 0.016477494 0.9089845 0.5423023 1.3034757e-07 0.025047133 8.8202634e-10 0.8959057
0.21367192 0.4895922 0.30076143 0.39844048 0.6396743 0.02836981 0.5731046 0.3266029
0.052019548 0.4541809 1.4845107e-08 8.463772e-09 -3.51001e-09 0.41780216 0.773001 0.15083578
0.061527673 0.78712875 0.14581144 0.065275736 0.32886672 0.31416032 0.58721447 0.54053605
0.19386663 0.21011707 0.5458917 0.8158134 0.051292855 0.76882 0.3503339 0.7941316
0.3328533 0.085639805 -1.7146862e-28 0.45443246 0.5856008 0.22443193 0.31763983 0.0659101
0.28208557 0.12139512 0.03212292 1.4561603 0.3124256 1.0443928 0.5113342 0.52501166
7.0308963e-12 0.4299014 0.28501812 0.44042838 0.29141268 7.3552025e-14 0.70718616 4.9009947e-09
-3.4148186e-05 1.1262289 0.500513 1.14087 0.009527091 2.2923653e-24 0.13327925 0.24508569
0.35477507 0.63443524 0.6923288 0.5847802 0.6164715 0.4840071 0.43939427 0.768702
0.6936136 0.74116623 0.047735408 0.66690713 0.1633996 -4.1563354e-36 0.614061 0.83491516
0.5259722 0.3755198 0.29184848 -4.529841e-16 0.47960526 0.03738868 0.601667 0.0044198595
0.29826704 -7.433414e-18 0.04267668 -2.3379343e-22 1.0461533 0.697015 0.17633054 0.26177812
0.10368862 0.25086477 0.88785064 0.42782375 0.447249 9.6597035e-27 1.1274984 0.6371519
0.1386844 0.7742005 0.57629687 0.04554746 0.08365631 -1.3915e-08 0.3669929 0.4590371
0.25759646 0.020376103 0.6454662 1.3409628 -6.9151844e-09 0.81630224 1.029622 -3.5965985e-14
0.029297678 -1.0687237e-21 0.33721957 -8.608575e-24 1.0327362 0.09771848 0.9296854 1.4487649
0.60554296 1.0236038 0.098901644 0.21897686 0.45025834 0.4597465 0.5978765 0.7450586
0.17355755 0.4714453 0.37921453 0.06945916 0.0049578217 7.611354e-09 3.352334e-18 0.041020673
0.42978904 0.5856697 0.028838128 0.5704992 0.5654987 1.3997741 0.520737 0.65678483
0.13137138 0.40093046 0.47925478 0.48797733 1.4109026 0.07662339 0.017054625 0.12072999
4.342643e-37 0.23268011 0.704021 0.06383055 0.32417998 3.0048544e-24 -4.7074093e-36 0.17823833
0.15005256 0.19533211 0.56014043 0.05377822 -1.5504845e-13 0.22193919 -9.59256e-13 9.290664e-06
0.24748011 0.88081175 -6.086112e-16 0.24127159 1.749982e-21 0.4389125 0.17969343 2.4529398e-17
0.083225064 1.0548334 0.7577455 -1.3738806e-07 0.21839108 0.5248704 0.40223968 0.07438958
-1.5838411e-09 1.3857287 -1.2605031e-14 0.6905093 0.047488514 1.1865703e-17 0.10913036 2.6317773e-10
1.3643514 0.10965544 0.8091633 0.35371402 0.41016713 0.014281236 0.83701247 0.008514544
0.6371776 0.0024033785 0.862981 0.4100047 0.26016536 0.6034484 5.2819164e-13 0.014291488
0.36563742 -1.0966189e-16 0.18956809 0.22115602 0.1279115 0.15025683 0.5713032 8.883388e-23
0.43342498 0.36221266 0.21459961 0.0027011323 0.19554102 6.2240514e-07 7.252764e-23 0.099059194
00000000: b8b9 143e 27f0 7a3e 1018 d83d 011c c93d
00000010: d805 813e b736 d73e b9db e43e 7658 c03e
00000020: 01fd f63e fbad 393e b3f9 a53c 946f 453f
00000030: 6e5b 0b92 ba6d 3c3f c23d d43e 3bae c13e
00000040: 3e57 123f cffb 863c 35b3 683f 53d4 0a3f
00000050: abf5 0b34 a52f cd3c 1673 7230 135a 653f
00000060: d0cc 5a3e d4ab fa3e 67fd 993e 6400 cc3e
00000070: b2c1 233f ce67 e83c fcb6 123f 7f38 a73e
00000080: 7312 553d 668a e83e 7909 7f32 1068 1132
00000090: c034 71b1 2aea d53e 65e3 453f b274 1a3e
000000a0: 7104 7c3d 4581 493f 984f 153e 49af 853d
000000b0: 3861 a83e 9fd9 a03e b053 163f 9260 0a3f
000000c0: f984 463e ee28 573e 8fbf 0b3f 26d9 503f
000000d0: 7518 523d 63d1 443f f75e b33e 354c 4b3f
000000e0: bf6b aa3e ec63 af3d c05c 5991 5fab e83e
000000f0: efe9 153f 7cd1 653e b0a1 a23e e0fb 863d
00000100: 856d 903e 019e f83d 5393 033d 7663 ba3f
00000110: 40f6 9f3e aaae 853f cce6 023f 2a67 063f
00000120: af60 f72c 091c dc3e e5ed 913e d47f e13e
00000130: 0b34 953e db9f a529 270a 353f 9b65 a831
00000140: 563a 0fb8 4528 903f 9f21 003f 0708 923f
00000150: 8417 1c3c f95c 3118 5b7a 083e bef7 7a3e
00000160: 14a5 b53e 596a 223f 763c 313f 28b4 153f
00000170: 14d1 1d3f c7cf f73e 49f8 e03e a7c9 443f
00000180: a990 313f 12bd 3d3f 3486 433d 6dba 2a3f
00000190: 3a52 273e 7cca b084 1a33 1d3f 00bd 553f
000001a0: 1da6 063f 2244 c03e 2a6d 953e 5490 02a6
000001b0: d28e f53e df24 193d d906 1a3f 78d4 903b
000001c0: 75b6 983e 4e1f 09a3 becd 2e3d c851 8d9b
000001d0: 5ae8 853f 936f 323f fe8f 343e c807 863e
000001e0: b35a d43d 5971 803e 2e4a 633f b70b db3e
000001f0: d2fd e43e 8454 3f14 de51 903f 631c 233f
00000200: 4903 0e3e 0132 463f 3188 133f f98f 3a3d
00000210: 0054 ab3d d10e 6fb2 7ee6 bb3e e906 eb3e
00000220: afe3 833e c9eb a63c 463d 253f aba4 ab3f
00000230: 9b9a edb1 2ff9 503f a7ca 833f f5f9 21a9
00000240: af01 f03c 3f80 a19c 0ba8 ac3e 9983 2699
00000250: b330 843f a020 c83d ddff 6d3f 2171 b93f
00000260: dd04 1b3f 7305 833f f28c ca3d 783b 603e
00000270: 4388 e63e e563 eb3e 6f0e 193f 29bc 3e3f
00000280: 12b9 313e 4761 f13e 6828 c23e 9b40 8e3d
00000290: 3975 a23b 17c3 0232 cd5b 7722 4b05 283d
000002a0: 4f0d dc3e 73ee 153f f03d ec3c 3c0c 123f
000002b0: 86c4 103f cc2b b33f 054f 053f 0d23 283f
000002c0: 3886 063e c246 cd3e e260 f53e 2ad8 f93e
000002d0: 7598 b43f b9ec 9c3d 24b6 8b3c 4941 f73d
000002e0: c2c5 1303 b243 6e3e b83a 343f 97b9 823d
000002f0: ebfa a53e 467d 6818 263b c884 1c84 363e
00000300: 61a7 193e 2405 483e 5d65 0f3f 8d46 5c3d
00000310: ac91 2eaa 0744 633e d700 87ab 19df 1b37
00000320: 6d6b 7d3e e17c 613f 956b 2fa6 e60f 773e
00000330: 9339 041d 24b9 e03e 8e01 383e 673e e223
00000340: e771 aa3d c804 873f 9cfb 413f f184 13b4
00000350: e9a1 5f3e e85d 063f 5cf2 cd3e 9059 983d
00000360: 74ae d9b0 8f5f b13f 7212 63a8 38c5 303f
00000370: 5183 423d 33e2 5a23 bd7f df3d f9ae 902f
00000380: 11a3 ae3f 0893 e03d 5325 4f3f 011a b53e
00000390: 6d01 d23e d8fb 693c 7346 563f 9680 0b3c
000003a0: 121e 233f 0082 1d3b 53ec 5c3f 23ec d13e
000003b0: 6534 853e 987b 1a3f 38ac 142b d826 6a3c
000003c0: d434 bb3e f4dc fca4 231e 423e b976 623e
000003d0: 3bfb 023e eddc 193e ed40 123f 82c9 d61a
000003e0: e1e9 dd3e f073 b93e 00c0 5b3e 7b05 313b
000003f0: e83b 483e 5b13 2735 6f5c af1a 8cdf ca3d

net.2.bias f4 [512]
0.052781444 0.05010864 -0.064976245 -0.0014306699 -0.117349334 0.0520643 -0.005742721 0.018426027
0.35885534 0.0139676025 -0.046079647 0.067827046 -0.00013983666 -0.14920403 0.18825154 0.2079225
0.28418234 -0.009650349 0.07577489 -0.00834226 0.00022169616 -0.026390815 -5.468756e-05 -0.08619056
0.053185116 0.14508086 0.018760722 0.19159548 0.18948424 -0.04552348 0.31034783 0.046989087
0.0146550685 0.19615059 -0.00024361693 -7.262327e-05 -4.2502303e-05 0.018269733 0.21869662 0.114661284
0.014606683 0.16680948 -0.025916362 0.004328791 0.14166927 0.029564181 0.023786645 -0.099186145
0.07039284 0.07083269 -0.05321213 0.07891906 0.0059297397 0.13803443 0.05565441 -0.07042514
-0.06974839 -0.019239819 0.00017673273 0.112643674 -0.115935095 0.014806763 0.01787979 -0.09733127
0.17719318 -0.06905723 -0.017171573 0.14105551 0.053447984 0.13875604 -0.02335574 0.23620348
2.3864182e-05 -0.042230386 0.041162245 0.33032054 -0.01689776 -0.00020533646 0.059378043 0.00019419577
0.00018220117 0.10003265 0.092294164 -0.008925854 0.00753906 -2.1507023e-05 0.017203003 -0.0063503166
0.07059189 0.36096165 0.09988622 0.21425343 -0.008700164 0.19085895 0.0462598 0.17773542
0.15697019 0.4209243 0.0040063863 0.007941018 -0.0543593 3.2661326e-05 0.30875176 0.19382483
0.3443112 0.23218316 -0.021873834 -4.0850533e-05 0.05960812 -0.10010235 -0.059519622 -0.008312258
0.182609 -0.00015246899 -0.043505773 -0.0001250548 0.047055703 0.124443986 -0.01573871 0.04708755
0.06581255 -0.061701197 0.15708162 0.22260872 0.010835868 -8.674198e-06 0.18523106 0.1333868
-0.1548537 -0.025770634 0.31111953 -0.06513147 -0.041104127 -6.931558e-05 0.08632264 0.043437205
-0.09054854 0.011117796 -0.03515728 0.19848469 0.00019611741 -0.049972117 -0.013337527 -1.8768518e-05
-0.054229304 0.0001360857 0.014425667 0.00023815432 0.29325724 -0.15160228 0.21309756 0.14436303
0.16330738 -0.03693287 -0.045994516 -0.008242448 0.13672274 0.21876134 0.17630668 0.0388141
0.078604855 0.14241172 0.22911733 -0.042070296 -0.007072474 0.0001306648 6.6114255e-05 -0.018441642
0.4138911 0.174133 0.0054477756 -0.09737383 0.18256755 0.07771195 0.14137806 0.15498811
0.030439055 0.3934555 0.088113576 0.17390162 0.21104942 0.048869215 0.0013687965 0.017710043
0.0001669252 0.08733508 0.22603011 -0.06379254 0.024605457 2.6831565e-05 -4.6294175e-05 0.050411068
0.12341362 0.0117014665 0.13128448 -0.091348074 -3.358232e-05 -0.020343283 -3.7207945e-05 5.6678608e-05
-0.04690284 0.27332637 0.000112500216 -0.06340079 3.8424627e-05 0.14559191 0.09883788 0.00020616321
-0.12219855 0.100449115 -0.031444356 0.00020144272 0.031217242 0.17298922 0.13001086 -0.13466576
5.5871784e-05 0.23262115 0.0001583128 0.12731476 -0.01417787 3.662109e-05 0.027195983 -0.000101482314
0.21542935 0.016079819 0.18297355 0.036113873 -0.069431834 0.014657191 0.2566753 -0.0143829435
0.3203436 -0.00809752 0.09313527 0.06548534 0.031276446 0.09383227 0.00016664396 0.00041381054
0.002058492 0.00019342719 0.048006743 0.13126154 0.09887265 0.0053233565 0.021660903 0.0001555638
-0.030176342 0.05708411 0.048745323 -0.005182962 0.013947385 0.0001655587 0.00020466027 0.07598491
00000000: 5b31 583d b83e 4d3d 4412 85bd 5185 bbba
00000010: d954 f0bd 6041 553d 6f2d bcbb 2ef2 963c
00000020: e3bb b73e 5fd8 643c 03be 3cbd e8e8 8a3d
00000030: 1ea1 12b9 f1c8 18be 03c5 403e a3e9 543e
00000040: 5980 913e 7f1c 1ebc de2f 9b3d f9ad 08bc
00000050: 1c77 6839 8d31 d8bc 5260 65b8 ad84 b0bd
00000060: a3d8 593d 1490 143e 16b0 993c 9b31 443e
00000070: 2808 423e d476 3abd e9e5 9e3e a177 403d
00000080: d01b 703c b3db 483e 6c73 7fb9 524d 98b8
00000090: 8044 32b8 68aa 953c 02f2 5f3e 89d3 ea3d
000000a0: de50 6f3c 1bd0 2a3e 8d4e d4bc 88d8 8d3b
000000b0: c011 113e 9530 f23c 36dc c23c 1b22 cbbd
000000c0: 1f2a 903d bb10 913d f6f4 59bd 51a0 a13d
000000d0: 434e c23b e658 0d3e e1f5 633d 0e3b 90bd
000000e0: 3ed8 8ebd d39c 9dbc 5551 3939 bab1 e63d
000000f0: 616f edbd 1198 723c a378 923c 9e55 c7bd
00000100: 2172 353e e16d 8dbd 66ab 8cbc db70 103e
00000110: 46ec 5a3d 1016 0e3e 8954 bfbc 53df 713e
00000120: f12f c837 c5f9 2cbd be99 283d c61f a93e
00000130: 2c6d 8abc 964f 57b9 6436 733d 08a1 4b39
00000140: 410d 3f39 ebdd cc3d b904 bd3d bf3d 12bc
00000150: 380a f73b fb69 b4b7 50ed 8c3c 5116 d0bb
00000160: 7b92 903d f7cf b83e 2691 cc3d 4065 5b3e
00000170: 228b 0ebc 8770 433e eb7a 3d3d 4600 363e
00000180: cbbc 203e 6483 d73e 0148 833b 0b1b 023c
00000190: dba7 5ebd d5fd 0838 b614 9e3e 047a 463e
000001a0: 8f49 b03e 6cc1 6d3e c130 b3bc ed56 2bb8
000001b0: a527 743d 7602 cdbd d9ca 73bd 2330 08bc
000001c0: dbfd 3a3e 15e0 1fb9 1c33 32bd 2421 03b9
000001d0: 7bbd 403d 7ddc fe3d 78ee 80bc e0de 403d
000001e0: bbc8 863d 65ba 7cbd 01da 203e 8af3 633e
000001f0: ed88 313c 6687 11b7 36ad 3d3e 8d96 083e
00000200: f891 1ebe f01c d3bc 0f4b 9f3e a663 85bd
00000210: cd5c 28bd 855d 91b8 edc9 b03d 36eb 313d
00000220: 8371 b9bd 6b27 363c 1401 10bd 923f 4b3e
00000230: dea4 4d39 90af 4cbd a585 5abc 1671 9db7
00000240: 8c1f 5ebd 3ab2 0e39 a259 6c3c 10b9 7939
00000250: d025 963e a13d 1bbe 3f36 5a3e e7d3 133e
00000260: 0d3a 273e ec46 17bd bf64 3cbd 550b 07bc
00000270: 0c01 0c3e f902 603e bd89 343e 89fb 1e3d
00000280: 95fb a03d 61d4 113e bc9d 6a3e e751 2cbd
00000290: 36c0 e7bb 1103 0939 d2a6 8a38 ed12 97bc
000002a0: 89e9 d33e ec4f 323e 4183 b23b ee6b c7bd
000002b0: fdf2 3a3e 7127 9f3d 69c5 103e 34b5 1e3e
000002c0: 535b f93c 0073 c93e e474 b43d 4413 323e
000002d0: 571d 583e 162b 483d 3069 b33a a714 913c
000002e0: a408 2f39 bcdc b23d 7074 673e aaa5 82bd
000002f0: 6291 c93c 5914 e137 fe2b 42b8 d67b 4e3d
00000300: 48c0 fc3d 82b7 3f3c 706f 063e b314 bbbd
00000310: beda 0cb8 f5a6 a6bc ba0f 1cb8 31ba 6d38
00000320: 311d 40bd 6ff1 8b3e 18ee eb38 46d8 81bd
00000330: 212a 2138 0c16 153e 846b ca3d 842d 5839
00000340: 3c43 fabd 44b8 cd3d cccb 00bd 5e3a 5339
00000350: 4dbb ff3c 1624 313e 9121 053e d2e5 09be
00000360: df57 6a38 3d34 6e3e c500 2639 cd5e 023e
00000370: 4c4a 68bc 9999 1938 1cca de3c e7d2 d4b8
00000380: 8399 5c3e d3b9 833c 6b5d 3b3e 24ec 133d
00000390: 4732 8ebd b724 703c f26a 833e 70a6 6bbc
000003a0: 1404 a43e 76ab 04bc b4bd be3d 2e1d 863d
000003b0: bb1b 003d 222b c03d 26bd 2e39 b6f4 d839
000003c0: c4e7 063b b7d2 4a39 b8a2 443d 6d69 063e
000003d0: be7d ca3d 8d6f ae3b 3572 b13c d71e 2339
000003e0: 6034 f7bc 07d1 693d 2da9 473d d6d5 a9bb
000003f0: 9383 643c d399 2d39 139a 5639 fa9d 9b3d

net.2.running_mean f4 [512]
0.0027693645 -0.0017255569 0.048697375 0.0707512 -0.0006889384 -0.0026604065 -0.003044617 -0.0026329218
0.008771453 0.0939449 0.06616613 0.031750955 -1.2356475e-27 0.1016418 -0.0022561066 0.0047459593
0.022123251 0.066887625 0.13585387 0.036858454 -5.1580606e-12 0.07106976 -1.6021945e-13 0.024422025
0.04739398 0.06001881 0.10952882 -0.00076331536 0.0014964495 0.14215796 0.046594355 -0.0025098529
0.13680382 -0.0026265483 -2.1317188e-12 -3.8946765e-13 -5.665108e-14 -0.00089911884 0.06779203 0.071169935
0.12578867 0.1225208 0.14205411 0.020389037 0.025574418 -0.00067428756 0.05926644 0.03869757
-0.00078870414 -0.0008465942 0.010344711 -0.0017475603 0.01563714 0.09591126 0.06711945 0.004960078
-0.0026362294 0.09433538 -1.1843558e-25 0.08419022 -0.0015613725 -0.00036906573 0.038644634 0.24853246
-0.00070987904 0.11270034 0.046081334 -0.0019145063 -0.0018291242 0.10217091 0.020342587 0.00784828
-4.5011183e-15 0.01390794 0.15865608 -0.0010494781 0.06769659 -5.38181e-17 0.07508997 -3.495687e-13
0.00048473355 0.04199789 0.18987244 0.032591246 0.051276032 6.5826094e-25 0.05755471 0.15805571
-0.001189346 0.029494142 0.045603536 0.024320554 -0.0017005039 0.22957008 0.018059663 0.03952623
0.11207106 0.018346444 0.11407471 0.0010803504 0.15835163 -4.92818e-37 0.007655474 0.106932715
0.04382174 0.09199075 -0.0025153738 -2.8805896e-20 0.12165969 0.09909461 -0.00148415 0.048570354
0.04665896 -6.719434e-22 0.09735106 1.569606e-20 -0.0021244169 0.046120327 0.21758732 -0.0013776452
0.12494643 -0.002279537 0.12365816 0.026378345 0.2280023 -4.0522833e-27 0.12692118 0.08653236
0.121367335 -0.0003402692 0.019011024 0.06393546 0.122797176 -5.4906465e-13 0.0074892864 0.09112112
0.09351995 0.09208428 -0.0018436236 0.07953394 -8.43733e-12 0.0162074 0.027895864 -9.24324e-18
0.14610875 4.5146068e-21 -0.0013589661 -4.1014937e-26 0.049751233 0.18412109 0.103360884 0.009825992
0.055658303 -0.0002719963 0.10713911 -0.00055106526 -0.0022002521 0.07756432 0.0024642053 0.13206425
0.048913 -0.0028986228 0.02609366 0.09957729 0.044131815 -2.0275323e-13 -3.0999126e-22 0.0896781
0.0028186985 0.04748194 0.15366529 0.0067762644 0.11936581 0.06001454 0.006037875 0.09543228
0.12314777 0.13269447 0.03989647 0.0153736025 0.068030626 0.05780322 0.07466125 -0.0016390164
-6.870111e-38 0.08012745 0.049850907 0.2581475 -0.001630899 -8.580944e-23 -1.3231722e-37 -0.0032188124
0.04031537 -0.0002795829 -0.000948246 0.23546284 -6.2970133e-18 0.16976577 5.876004e-13 3.0224721e-06
0.025418343 0.03280973 -1.1448446e-19 0.13738874 -2.2154944e-24 -0.0009668867 0.20770691 -5.9133034e-21
0.17361593 0.07159283 -0.0023550214 -1.1578909e-11 -0.0020214876 0.058031462 0.0811301 0.23477268
-9.0331456e-14 0.07491751 -4.823502e-17 0.0040864656 0.066126645 -6.353966e-22 0.14662938 -2.0986685e-14
0.07324231 0.036299452 0.097223945 0.06546903 -0.0029504413 0.053052094 0.15505907 0.045495145
0.01266893 0.032580078 0.042023137 0.07839845 5.8694277e-05 -0.0029534851 -4.0406092e-17 0.00027027205
-0.0037865299 -7.183262e-20 -0.0013246208 0.1290089 0.17844512 -0.00055915414 0.16359515 -1.7586346e-22
0.008459816 0.031337097 0.0632945 0.023480747 -0.0014181896 -5.541481e-11 7.0236444e-22 0.055626743
00000000: 3a7e 353b 152c e2ba e676 473d 01e6 903d
00000010: e099 34ba 375a 2ebb 3288 47bb 198d 2cbb
00000020: 24b6 0f3c 2f66 c03d 1c82 873d 4a0d 023d
00000030: d1cb c392 9329 d03d 30db 13bb fe83 9b3b
00000040: d23b b53c 61fc 883d 471d 0b3e e4f8 163d
00000050: ae7b b5ac 068d 913d 1d64 34aa b310 c83c
00000060: 3120 423d 49d6 753d a550 e03d 3a19 48ba
00000070: 8324 c43a db91 113e b9d9 3e3d 587c 24bb
00000080: 4d16 0c3e 2b22 2cbb a201 16ac 3440 dbaa
00000090: 4022 7fa9 d8b2 6bba 8cd6 8a3d 8bc1 913d
000000a0: bfce 003e 2fec fa3d a276 113e e906 a73c
000000b0: 7181 d13c acc2 30ba 5ec1 723d 5881 1e3d
000000c0: 0ac1 4eba faed 5dba dd7c 293c 650e e5ba
000000d0: 7619 803c 1f6d c43d ec75 893d 2688 a23b
000000e0: 97c4 2cbb e832 c13d bc9d 1296 ec6b ac3d
000000f0: f8a6 ccba 2a7f c1b9 d649 1e3d 4b7f 7e3e
00000100: 2d17 3aba 70cf e63d c8bf 3c3d 2cf0 faba
00000110: 39bf efba fb3e d13d 7fa5 a63c 1296 003c
00000120: 7d2b a2a7 21de 633c bd76 223e a48e 89ba
00000130: 83a4 8a3d 3331 78a4 c5c8 993d 29ca c4aa
00000140: d623 fe39 fb05 2c3d ec6d 423e 667e 053d
00000150: d106 523d ceb8 4b17 7dbe 6b3d 5bd9 213e
00000160: d4e3 9bba b39d f13c c6ca 3a3d e63b c73c
00000170: 71e3 deba 6b14 6b3e dcf1 933c 42e6 213d
00000180: 8385 e53d 484b 963c 00a0 e93d 8b9a 8d3a
00000190: ee26 223e 81b2 2783 c5da fa3b 8aff da3d
000001a0: 6d7e 333d a565 bc3d f8d8 24bb 3108 089f
000001b0: b728 f93d 1df2 ca3d cf87 c2ba b5f1 463d
000001c0: 771d 3f3d 1a15 4b9c fe5f c73d bf3e 941e
000001d0: cd39 0bbb abe8 3c3d 36cf 5e3e 1a92 b4ba
000001e0: eae3 ff3d 4964 15bb 7d40 fd3d 6617 d83c
000001f0: 6f79 693e 0987 a093 a0f7 013e e137 b13d
00000200: 708f f83d 2966 b2b9 02bd 9b3c 98f0 823d
00000210: 167d fb3d 478c 1aab b068 f53b b69d ba3d
00000220: 6387 bf3d af96 bc3d bea5 f1ba b1e2 a23d
00000230: 5b6e 14ad 62c5 843c de85 e43c f781 2aa3
00000240: 889d 153e 998e aa1d 561f b2ba 9c18 4b95
00000250: f3c7 4b3d 3d8a 3c3e dfae d33d 33fd 203c
00000260: f6f9 633d ba9a 8eb9 c06b db3d 5d75 10ba
00000270: 1b32 10bb 0bda 9e3d 817e 213b da3b 073e
00000280: ff58 483d d2f6 3dbb 5fc2 d53c 2eef cb3d
00000290: 90c3 343d a447 64aa d360 bb9b 27a9 b73d
000002a0: eab9 383b 6c7c 423d 6f5a 1d3e 6d0b de3b
000002b0: 1076 f43d ced1 753d 5ed9 c53b 0072 c33d
000002c0: e634 fc3d 0fe1 073e 7b6a 233d 90e1 7b3c
000002d0: a453 8b3d 12c3 6c3d ffe7 983d 44d4 d6ba
000002e0: b005 bb81 dc19 a43d 7730 4c3d e92b 843e
000002f0: e4c3 d5ba 7979 cf9a d219 3482 b6f2 52bb
00000300: bb21 253d fb94 92b9 b693 78ba 2c1d 713e
00000310: 9c51 e8a2 14d7 2d3e 1265 252b add5 4a36
00000320: 213a d03c 7f63 063d ce28 07a0 a2af 0c3e
00000330: 636a 2b98 ab76 7dba 1fb1 543e f665 df9d
00000340: 60c8 313e 439f 923d b456 1abb c5b2 4bad
00000350: ef7a 04bb 66b2 6d3d 8a27 a63d 4068 703e
00000360: 8a68 cba9 5a6e 993d dc71 5ea4 c2e7 853b
00000370: 686d 873d 6e09 409c 0326 163e 0008 bda8
00000380: 1000 963d bcae 143d 591d c73d a014 863d
00000390: 315c 41bb 274d 593d cec7 1e3e 1e59 3a3d
000003a0: 5891 4f3c b072 053d 7420 2c3d 5e8f a03d
000003b0: 802e 7638 428f 41bb 1857 3aa4 4db3 8d39
000003c0: 6e27 78bb 289c a99f e69e adba e91a 043e
000003d0: 51ba 363e 3394 12ba 7d85 273e 1b9b 549b
000003e0: 0a9b 0a3c 545b 003d 8ca0 813d b25a c03c
000003f0: 8ce2 b9ba 88b7 73ae d146 541c ded8 633d

net.2.running_var f4 [512]
0.00038959066 3.3174797e-07 0.003440999 0.012295377 1.9328662e-07 1.3783706e-06 1.0410101e-06 5.188382e-05
0.00078478205 0.019157114 0.0034344124 0.005879907 6e-45 0.006411361 7.004623e-07 0.0010509419
0.0039636283 0.003980651 0.027108753 0.0038430798 5.773915e-24 0.0034414893 5.101873e-28 0.001760065
0.0067212507 0.0061277235 0.02294228 3.82508e-07 0.00016061334 0.0064934967 0.007148896 7.174838e-07
0.0106170615 7.155286e-07 2.629509e-25 1.4144972e-26 6.703953e-28 3.372417e-07 0.0072611803 0.014788419
0.012427581 0.017352568 0.013889177 0.0026723244 0.0040722857 5.550381e-08 0.0071755284 0.0057312
5.491498e-07 1.031774e-07 0.0015943854 6.749515e-07 0.0016015464 0.011220626 0.00902305 0.0005097189
1.42796835e-05 0.012442662 6e-45 0.01924759 2.0170539e-05 8.5553065e-06 0.006298111 0.01803861
2.1272918e-07 0.02227106 0.002638687 2.7630365e-05 5.758508e-07 0.011388593 0.0025289303 0.0011398544
2.6153871e-30 0.0016962412 0.014054087 2.2449464e-07 0.0073805884 5.0179746e-34 0.01105031 3.5844086e-26
4.9168455e-07 0.004455355 0.022758275 0.004287503 0.001665404 6e-45 0.006526994 0.02233389
2.8734548e-05 0.0043596993 0.0058107465 0.003011001 1.4198231e-05 0.03442924 0.0034136826 0.006748587
0.022080159 0.002292321 0.011938378 0.00014188308 0.03522788 6e-45 0.0006205515 0.018880378
0.008423159 0.012051329 3.3725166e-05 1.41083e-40 0.021998746 0.010603318 2.0699177e-05 0.0006985635
0.005099444 8.7e-44 0.012936845 7.804e-42 1.3941304e-06 0.005428722 0.034780182 2.983357e-07
0.011538978 1.7964147e-06 0.014397533 0.0017560383 0.07095792 6e-45 0.010456519 0.009021082
0.023284221 0.0001681695 0.0030274198 0.003073718 0.016785467 4.716721e-26 0.00125194 0.01416544
0.010174189 0.0070377938 0.00025054935 0.007834625 1.2339444e-23 0.0015806461 0.0024305736 2.0215997e-35
0.0074477177 5.148e-42 2.390244e-07 6e-45 0.003999408 0.020545581 0.012471528 0.00046805278
0.011604113 0.00012651096 0.019544402 7.1557785e-08 0.0002949868 0.012159762 0.0005056832 0.025609115
0.0061876285 2.5584313e-05 0.0049172924 0.015306571 0.0011354671 8.26812e-27 2e-44 0.014033237
0.0007422496 0.0049628015 0.015644783 0.00035631438 0.00790543 0.006258674 0.0007393695 0.017660873
0.036857303 0.019013412 0.004111014 0.002629225 0.0059458558 0.004148765 0.004695885 5.094898e-06
6e-45 0.012921689 0.0075868987 0.01979963 2.9295543e-07 6e-45 6e-45 8.146847e-05
0.005961732 4.8908937e-06 0.0001586465 0.015207079 1.2311184e-35 0.019185435 5.9065923e-26 2.6268885e-12
0.0045024464 0.002538786 8.10814e-40 0.014271946 6e-45 4.0016435e-05 0.022060866 1.4443e-41
0.02381702 0.010966762 0.00015241744 1.072448e-23 4.0001333e-07 0.008258418 0.010931259 0.028259883
8.52972e-28 0.006987055 1.49815635e-33 0.0002673041 0.008788882 6e-44 0.014373004 3.2672378e-29
0.0060939924 0.0035880299 0.010049543 0.011476411 1.1132741e-05 0.0053151785 0.015126591 0.0011795216
0.0016046586 0.00055990723 0.0019279801 0.0053784093 0.00023678361 4.735817e-05 4.2817565e-34 1.2528849e-06
3.844738e-05 7.10875e-40 2.3606644e-07 0.015608714 0.017479293 6.057888e-08 0.021651765 6e-45
0.00074891397 0.0046441825 0.008556438 0.00025046946 5.533681e-07 1.4639898e-21 6e-44 0.0015877514
00000000: f941 cc39 181b b234 6282 613b 8d72 493c
00000010: 398a 4f34 7400 b935 d6b8 8b35 d49d 5938
00000020: d5b9 4d3a 61ef 9c3c e113 613b 3cac c03b
00000030: 0400 0000 6516 d23b 6707 3c35 c2bf 893a
00000040: 53e1 813b 1f70 823b 2d13 de3c 2edc 7b3b
00000050: 165e df18 9c8a 613b 50af 2112 fbb1 e63a
00000060: f03d dc3b 12cb c83b 73f1 bb3c 805b cd34
00000070: 516a 2839 66c7 d43b 4941 ea3b 1c99 4035
00000080: 2ff3 2d3c c012 4035 3cc2 a216 c415 8c14
00000090: ee74 5412 250e b534 32ef ed3b 204b 723c
000000a0: 0d9d 4b3c f926 8e3c 6e8f 633c 2a22 2f3b
000000b0: cf70 853b 1663 6e33 b220 eb3b cacc bb3b
000000c0: 4969 1335 6092 dd33 b2fa d03a 502e 3535
000000d0: fbea d13a b7d6 373c 6ad5 133c a89e 053a
000000e0: c692 6f37 4fdc 4b3c 0400 0000 1fad 9d3c
000000f0: e733 a937 c388 0f37 6260 ce3b b5c5 933c
00000100: 8d6a 6434 cc71 b63c d2ed 2c3b c2c7 e737
00000110: 2a94 1a35 3997 3a3c 69bc 253b 2b67 953a
00000120: 772f 540e 6954 de3a 1d43 663c 9e0c 7134
00000130: ddd8 f13b 35c0 2608 5c0c 353c c77d 3115
00000140: 4efc 0335 3afe 913b 906f ba3c 2f7e 8c3b
00000150: af49 da3a 0400 0000 65e0 d53b 90f5 b63c
00000160: f90a f137 cfdb 8e3b 1368 be3b 3754 453b
00000170: f034 6e37 ad05 0d3d 17b8 5f3b 4023 dd3b
00000180: 73e1 b43c c43a 163b 3099 433c 73c6 1439
00000190: 1c4b 103d 0400 0000 82ac 223a 06ab 9a3c
000001a0: 4a01 0a3c f072 453c 1f74 0d38 4889 0100
000001b0: b736 b43c 8ab9 2d3c 25a3 ad37 ce1f 373a
000001c0: 3d19 a73b 3e00 0000 10f5 533c c115 0000
000001d0: f51d bb35 6ce3 b13b aa75 0e3d f22a a034
000001e0: fb0d 3d3c 571c f135 a1e3 6b3c de2a e63a
000001f0: 6352 913d 0400 0000 d251 2b3c 29cd 133c
00000200: 8dbe be3c a856 3039 ad67 463b 6e70 493b
00000210: ad81 893c 8b8f 6915 2318 a43a 2916 683c
00000220: a4b1 263c 4b9d e63b 2a5c 8339 cd5c 003c
00000230: f8ad 6e19 af2d cf3a 424a 1f3b 2ef9 d605
00000240: fc0b f43b 5a0e 0000 4353 8034 0400 0000
00000250: 770d 833b 354f a83c 6155 4c3c fb64 f539
00000260: 2d1f 3e3c 07a8 0439 951b a03c 4fab 9933
00000270: 75a8 9a39 bd39 473c d38f 043a 35ca d13c
00000280: 97c1 ca3b e59d d637 3d21 a13b 69c8 7a3c
00000290: f4d3 943a 59c4 2314 0e00 0000 a9eb 653c
000002a0: 8793 423a ff9e a23b 7d29 803c b5cf ba39
000002b0: c785 013c 9015 cd3b 3fd2 413a 89ad 903c
000002c0: aff7 163d 04c2 9b3c afb5 863b 134f 2c3b
000002d0: 74d5 c23b 5df2 873b f0df 993b d7f4 aa36
000002e0: 0400 0000 7eb5 533c 859b f83b d532 a23c
000002f0: 7d47 9d34 0400 0000 0400 0000 0dda aa38
00000300: a25a c33b 751c a436 585a 2639 1d27 793c
00000310: 3bea 8205 c62a 9d3c 7a3d 9215 d1d9 382c
00000320: 4289 933b c361 263b 38d4 0800 e1d4 693c
00000330: 0400 0000 52d7 2738 fdb8 b43c 4328 0000
00000340: e91b c33c efad 333c 3fd2 1f39 0e71 4f19
00000350: 6ac1 d634 514e 073c 0619 333c 4581 e73c
00000360: a828 8712 aaf3 e43b 86ec f808 f324 8c39
00000370: 3eff 0f3c 2b00 0000 c07c 6b3c 2cab 2510
00000380: 1db0 c73b 2725 6b3b d7a6 243c 8e07 3c3c
00000390: c2c6 3a37 f32a ae3b 85d5 773c 2d9a 9a3a
000003a0: 6853 d23a bdc6 123a 47b4 fc3a 5e3d b03b
000003b0: 1e49 7839 73a2 4638 2849 0e08 cc28 a835
000003c0: 8f42 2138 a1bd 0700 7379 7d34 b1bb 7f3c
000003d0: bc30 8f3c 9717 8233 0b5f b13c 0400 0000
000003e0: c452 443a 3a2e 983b 4d30 0c3c 7151 8339
000003f0: 2b8b 1435 5d3b dd1c 2b00 0000 191c d03a

net.3.weight f4 [256, 512]
-0.02126382 -0.0017502023 0.017403314 0.0040522707 0.03429414 -0.013990032 0.022748122 -0.007877999
-0.026743002 -0.015005053 0.0009057367 -0.018271267 -1.7746148e-05 0.032857686 -0.027051913 -0.020754931
-0.037869323 -0.0047874097 0.009250168 -0.029557837 3.1384374e-05 0.008588636 -9.711345e-06 -0.0013887886
-0.0074557783 -0.009264111 -0.03640978 -0.045894325 -0.08793571 0.0006058989 0.051421765 0.007393097
-0.0018050221 -0.016880572 -3.3615437e-05 -7.898905e-06 -2.4906917e-06 0.0109541435 0.07766962 0.014896702
-0.0037730357 0.02729557 -0.0250153 0.0013544547 0.013942356 -0.0116513055 0.12048471 -0.09336756
-0.00019139738 -0.010586488 0.023734976 0.019503329 0.00030035074 -0.022900019 0.0052476525 -0.04418131
-0.024062498 0.004925166 2.234545e-05 0.014700576 0.09837402 -0.005593922 -0.027244596 0.017971065
-0.047398657 0.019229908 0.0004290304 0.056392454 0.020448048 0.16183065 -0.003495344 -0.053121757
5.356702e-06 -0.013763977 0.016748326 -0.053625192 -0.004363343 -2.742838e-05 0.016518233 2.6024974e-05
9.777736e-05 -0.003276404 -0.03206543 -0.009214156 -0.0069611506 -3.1508873e-06 0.020227203 0.008794417
0.010995903 -0.17867413 0.03915172 -0.06189924 0.0986931 -0.0038464116 0.017563364 -0.036968946
0.042146735 0.07441848 -0.0017065763 0.0804546 -0.00373245 4.299786e-06 0.04587618 0.09891667
-0.005959856 -0.04811065 -0.009595337 -6.1802302e-06 0.0046153828 0.0077609546 0.051058542 -0.00051655096
-0.07092122 -1.8638073e-05 0.022656143 -1.5151848e-05 0.010295109 0.06082991 -0.0028974598 -0.00046238277
-0.035798255 0.0004107786 0.04864905 -0.026015477 -0.015992802 -1.6441278e-06 0.011054234 0.021430217
0.015225709 0.030777534 -0.015185901 0.005525794 0.026756078 -8.926736e-06 -0.030839186 -0.022733454
0.006841073 0.0048058387 0.046981886 0.23738083 2.6026471e-05 -0.07438554 -0.04943043 -3.883443e-06
0.013509274 1.5221705e-05 -0.009761948 3.1520478e-05 0.055406533 0.018674068 0.08073764 0.06297144
0.034620132 0.050298583 0.017556647 0.0002861088 -0.0030412653 -0.0064314175 -0.053761818 -0.035964034
0.033408403 0.013412132 -0.060167834 -0.01381966 -0.00086853706 1.4736111e-05 8.254714e-06 0.018004352
-0.08879952 -0.028256046 0.0113254795 0.052895367 0.017828818 -0.056124583 -0.031215714 0.07755528
0.005919932 -0.014596881 0.047095377 -0.022992942 0.13442156 -0.011017445 -0.004321683 -0.01320248
2.23565e-05 0.010065553 -0.031865872 0.03136284 -0.018090453 5.9082504e-06 -7.704649e-06 -0.039037216
-0.04291886 -0.0007102055 0.044427715 -0.0014617967 -5.1006873e-06 -0.0069639506 -6.1186665e-06 2.9381458e-06
0.00251801 0.061984383 1.2398765e-05 -0.023705494 3.901136e-06 0.036367536 -0.031018239 2.804722e-05
0.050325427 0.06612797 0.030610291 2.620254e-05 -0.00796814 0.021021688 -0.0142242145 0.036511414
6.6895177e-06 0.26472306 1.7216842e-05 0.04788449 0.0021284535 5.8014834e-06 0.005658458 -1.0475575e-05
0.15933181 0.032790497 -0.06127561 -0.00014386234 0.023197072 -0.000852135 -0.010541778 0.008141302
0.019458963 0.0007285824 -0.0577824 -0.0045921826 -0.0010691402 -0.024751939 2.1728501e-05 -0.00094951305
-0.06107732 2.7368676e-05 0.0002816681 -0.04018992 -0.037546605 0.0029693283 0.052682023 1.6525799e-05
0.01685922 -0.024861732 0.029435894 0.0016063333 0.012146115 2.0207353e-05 2.8207625e-05 -0.0062422296
00000000: 7631 aebc 0b67 e5ba 6591 8e3c e9c8 843b
00000010: 0378 0c3d 7236 65bc 455a ba3c b912 01bc
00000020: 2414 dbbc c1d7 75bc f66e 6d3a a0ad 95bc
00000030: 90dd 94b7 c895 063d f99b ddbc 3f06 aabc
00000040: dd1c 1bbd b4df 9cbb 048e 173c 4723 f2bc
00000050: b7a2 0338 5ab7 0c3c e9ed 22b7 0308 b6ba
00000060: 9a4f f4bb 7fc8 17bc 6c22 15bd b0fb 3bbd
00000070: a317 b4bd 30d5 1e3a a19f 523d cb41 f23b
00000080: 7e96 ecba 2049 8abc 4dfe 0cb8 8a85 04b7
00000090: c225 27b6 0279 333c 4011 9f3d 4c11 743c
000000a0: 0945 77bb f69a df3c e3ec ccbc f587 b13a
000000b0: 7b6e 643c 1ee5 3ebc b0c0 f63d 7e37 bfbd
000000c0: d8b1 48b9 f372 2dbc da6f c23c 72c5 9f3c
000000d0: 6578 9d39 d298 bbbc 80f4 ab3b 76f7 34bd
000000e0: b71e c5bc 4963 a13b 7d72 bb37 afda 703c
000000f0: 5178 c93d 384d b7bb 0f30 dfbc 0e38 933c
00000100: 1825 42bd 0a88 9d3c 7cef e039 c6fb 663d
00000110: aa82 a73c efb6 253e 2412 65bb 3396 59bd
00000120: b8bd b336 4e82 61bc c933 893c 17a6 5bbd
00000130: 60fa 8ebb ff15 e6b7 3f51 873c 3550 da37
00000140: d20d cd38 f0b8 56bb 0a57 03bd f9f6 16bc
00000150: 5d1a e4bb d573 53b6 85b3 a53c 7516 103c
00000160: 2928 343c 5af6 36be 8e5d 203d 0f8a 7dbd
00000170: 9c1f ca3d 1414 7cbb 0be1 8f3c c06c 17bd
00000180: 0ea2 2c3d b768 983d 33af dfba 62c5 a43d
00000190: 1f9c 74bb e146 9036 a9e8 3b3d d394 ca3d
000001a0: e54a c3bb ac0f 45bd c335 1dbc c65f cfb6
000001b0: a33c 973b 9b4f fe3b c322 513d 2669 07ba
000001c0: 253f 91bd f558 9cb7 6099 b93c b134 7eb7
000001d0: d1ac 283c c928 793d 4fe3 3dbb f76b f2b9
000001e0: 31a1 12bd c55d d739 3a44 473d 691e d5bc
000001f0: 5603 83bc cdab dcb5 d11c 353c 6c8e af3c
00000200: 4175 793c 2b21 fc3c 49ce 78bc b811 b53b
00000210: 902f db3c 0ac4 15b7 76a2 fcbc 823b babc
00000220: 142b e03b 4c7a 9d3b 1470 403d f613 733e
00000230: 6c53 da37 7257 98bd 9077 4abd 854e 82b6
00000240: 0156 5d3c ba60 7f37 94f0 1fbc db34 0438
00000250: f6f1 623d 5cfa 983c c759 a53d 2cf7 803d
00000260: d7cd 0d3d e305 4e3d f5d2 8f3c e000 9639
00000270: f74f 47bb a4be d2bb 5a35 5cbd 064f 13bd
00000280: 40d7 083d 8fbe 5b3c 8c72 76bd db6b 62bc
00000290: 89ae 63ba 1d3b 7737 ba7d 0a37 dd7d 933c
000002a0: 86dc b5bd 3979 e7bc 818e 393c d0a8 583d
000002b0: be0d 923c e4e2 65bd 19b8 ffbc 4dd5 9e3d
000002c0: fdfb c13b c227 6fbc 15e7 403d b25b bcbc
000002d0: cea5 093e 8382 34bc e89c 8dbb 374f 58bc
000002e0: 388a bb37 fde9 243c ca85 02bd 5276 003d
000002f0: 6e32 94bc 7c3f c636 3743 01b7 7de5 1fbd
00000300: b0cb 2fbd 162d 3aba d6f9 353d c299 bfba
00000310: 9226 abb6 da31 e4bb f24e cdb6 f62c 4536
00000320: 3305 253b 56e3 7d3d 4a04 5037 0632 c2bc
00000330: 81e6 8236 20f6 143d f619 febc f246 eb37
00000340: 0922 4e3d 1a6e 873d 6fc2 fa3c 87cd db37
00000350: cd8c 02bc ad35 ac3c ae0c 69bc fe8c 153d
00000360: 8576 e036 c889 873e e36c 9037 8722 443d
00000370: 867d 0b3b 5daa c236 966a b93b 41c0 2fb7
00000380: e127 233e 544f 063d 22fc 7abd c1d9 16b9
00000390: c907 be3c d061 5fba 6cb7 2cbc 1863 053c
000003a0: 6768 9f3c 56fe 3e3a 3dad 6cbd 057a 96bb
000003b0: 6422 8cba 94c4 cabc 9a45 b637 bee8 78ba
000003c0: 362c 7abd c995 e537 daac 9339 309e 24bd
000003d0: 78ca 19bd 1099 423b 1bc9 573d e2a0 8a37
000003e0: 591c 8a3c d5aa cbbc 8b23 f13c 9a8b d23a
000003f0: 8000 473c f682 a937 6a9f ec37 9e8b ccbb
